CV/grasping/grasp_mobilenet.pt (torch, 396134 bytes, 95 tensors)

backbone1.0.0.weight f4 [16, 3, 3, 3]
00000000: 142c 703f 7198 973f 9ba7 7d3f 07dc 783f
00000010: fbb7 9a3f 7c9f 663f 0642 263e a9c8 303e
00000020: c9ac 5cbd 6424 38bf 2bbe 74bf 7da0 62bf
00000030: 00ba 49bf 61ac 81bf 224a 5abf e6bb 243d
00000040: 6012 c8bd 3648 c5bd 09bb 7b3c bf40 8dbc
00000050: 0db1 81bd a183 c4bc 8f15 59bd 0e06 c5bd
00000060: f4ba b13d 2e95 133d 4117 f0bc 8720 78bd
00000070: 75c8 43bd c4a8 e9bc e1e2 9c3e bdba 3f3f
00000080: d4e9 cb3e 2082 ebbe 235f 34bf 1bd2 c9be
00000090: cd0b e6bc 0819 ccbc 1d6c 03bd 78f7 383f
000000a0: 606e d53f fe04 603f ef06 5ebf 738e d9bf
000000b0: 9f22 71bf 1048 96bc 3209 7dba 205b febb
000000c0: 94a2 b63d 462b a43e a547 073e 5586 6fbe
000000d0: b45f 90be 469e 3fbe 5b84 423e ff9c e63e
000000e0: ca35 9d3e 5cb7 f83e 9c49 493f b6aa 063f
000000f0: 6fe8 293e 3328 e13e 37c2 9c3e a27d 2fbf
00000100: 0b23 b4bf 334b 7abf 6a8c a7bf cb37 0cc0
00000110: 6556 e3bf bd50 4dbf 29fc bfbf 6fe2 8bbf
00000120: e01f e73e 1eb2 583f d273 1e3f 5308 363f
00000130: c805 943f 9870 653f fca2 a93e 99b2 3f3f
00000140: 3bbf 0e3f 8517 373d 78ef b13e 3edc febe
00000150: a4c5 02be 9ad1 953e c88b 333e 5a6e a93e
00000160: 8a92 f0be 8551 083e 6a74 9bbe 8796 0f3e
00000170: 66b9 343e a4d2 cebd cad4 50be 13ac cc3c
00000180: 2622 1940 680d dabd bdac 56be 5903 8fbc
00000190: 360c 05be dbde 2c3c 6af0 6c3e 5719 c03c
000001a0: 07cf 0bbe 1cc5 783d df57 ee3d 03b5 d6bd
000001b0: ce7c 77be f434 e43e 520f febd b234 ddbe
000001c0: 154d 323f f703 7fbe 99b4 45be f232 c83e
000001d0: ce83 abbd fa11 1bbf 0bac 733f 9783 9dbe
000001e0: a239 7bbf ccab c03f 0ea3 fdbe d06e d3be
000001f0: 35d1 3b3f 2754 46be b16a a6bd a6e2 7c3e
00000200: 7cd9 a1bd 31a8 2abe 53ca b53e a167 2bbe
00000210: 9483 2fbd 6db4 4a3e 6b0a 2bbd 53d4 ecbe
00000220: d02e 8e3e dac0 133e b72a 4bbf a941 133f
00000230: 86ed 7d3e 3a15 d5be 0dc9 a23e fd62 933d
00000240: deda 76bf 1df1 393f 9413 af3e 0670 dbbf
00000250: 8952 9e3f f0fc f83e 3034 54bf e9cd 283f
00000260: 3f97 103e 8196 6abe aa5b 0c3e 0d6b ed3d
00000270: fae9 a5be e7a7 883e 4af8 113e e2d4 27be
00000280: f47c 0e3e abe8 933c 1e83 e43d dc96 b03d
00000290: 99a9 ed3d 0ee4 e0bd 75a5 23be eb73 39be
000002a0: 25e4 85be 2d6a a5be 67c8 c8be d9df 363e
000002b0: 129e 023e 0995 003e a040 9ebe 2317 0dbf
000002c0: 89f5 00bf d9d7 00bf b95c 42bf 2785 44bf
000002d0: db69 093d 9fa6 793d 719c 2a3d 3f6f 05bd
000002e0: 3ea4 b3bd 9ca4 00bd 54d2 95bd 56e9 17be
000002f0: 2489 cabd 18f8 683e 57b8 ce3e a961 153e
00000300: f1ca 54bb 42f9 dcbd e0d4 e7bd 6607 86be
00000310: ee94 49bf 3bc6 04bf 8a5d 043f e44f 463f
00000320: 7974 7b3e 0223 6abd c670 a4be 5fb6 8fbe
00000330: 09e1 0bbf 02f7 b2bf 794d 5abf 2682 1e3e
00000340: 8727 203e 2d8e d33c 017a f1bc 356d babd
00000350: 7ca9 8cbd 37ec 04be 202f d1be 9404 63be
00000360: 9ef9 abbc 6b9c 99be f8ab aa3e 1e69 a0bd
00000370: 4576 10bf 7344 1c3f 69c5 af3c 97fa 8abe
00000380: d8d8 ee3e 4724 15bd 36f1 39bf fa8f 483f
00000390: 983e a8bd 6817 aabf 08ea aa3f 7bef 8b3d
000003a0: fc0e 23bf 72f7 573f 5f8c 3abd 8821 2bbe
000003b0: 7275 003e d7b1 5dbd 73c6 8cbe a4fc 763e
000003c0: da0a 7b3a 9d8a e0bd 4ada 333e 8af6 10be
000003d0: ba3c 07be 0db7 09be 7b35 afbd 93d2 f2bd
000003e0: 280b debd 33ef 1ebd 58b3 cb3b d48b f53b
000003f0: 9bc6 55bf 710d 81bf f92c 5ebf d89e 49bf
0.9381726 1.1843396 0.9908387 0.97210735 1.2087396 0.90087104 0.16236123 0.17264046
-0.05387572 -0.7193053 -0.95602673 -0.88526136 -0.7879944 -1.0130731 -0.8526937 0.040218256
-0.0976913 -0.09632914 0.015364417 -0.017242787 -0.06332598 -0.023988547 -0.052999076 -0.096202955
0.086782366 0.03603094 -0.029307963 -0.060577895 -0.047798593 -0.028522857 0.30641845 0.74894315
0.39826834 -0.45997715 -0.7045767 -0.3941811 -0.028081799 -0.02491428 -0.032085527 0.7225261
1.6674309 0.8750762 -0.8672933 -1.6996597 -0.9419345 -0.018344909 -0.0009652554 -0.007762328
0.08917728 0.32064265 0.13210924 -0.23391087 -0.28198016 -0.1871272 0.18995802 0.45041654
0.307051 0.48577392 0.78627944 0.52604234 0.16592573 0.43975982 0.30616924 -0.68551075
-1.4073194 -0.97770995 -1.3089726 -2.1909053 -1.776074 -0.8020132 -1.4998828 -1.0928477
0.45141506 0.84646785 0.6189548 0.7110645 1.1564264 0.8962493 0.3313216 0.74881893
0.55760545 0.044700164 0.34753013 -0.49777406 -0.12770706 0.29261476 0.17533791 0.33092004
-0.469868 0.13312347 -0.30362254 0.14022265 0.17648849 -0.1009877 -0.20393673 0.024984395
2.3927093 -0.10647088 -0.20964332 -0.017457651 -0.1299294 0.01055118 0.23138586 0.023449583
-0.13653193 0.060734853 0.11637854 -0.10483744 -0.24168703 0.4457165 -0.12405266 -0.43204266
0.6964887 -0.24903856 -0.19307174 0.39101368 -0.08374749 -0.60574305 0.9518439 -0.30764458
-0.98134816 1.5052428 -0.49538463 -0.4129548 0.733661 -0.19368039 -0.081258185 0.24695835
-0.0790281 -0.16665722 0.35505924 -0.1673875 -0.042850092 0.1979539 -0.041757982 -0.4625574
0.2777009 0.14429036 -0.7936205 0.57522064 0.24797639 -0.41617757 0.31794015 0.07196615
-0.96427715 0.72633535 0.34194624 -1.7143562 1.2368938 0.48630476 -0.8289213 0.65939194
0.14120196 -0.22908975 0.13706842 0.11592684 -0.32405072 0.266906 0.14254871 -0.16389802
0.13914853 0.01805528 0.11157821 0.08622524 0.11604614 -0.10980998 -0.15981086 -0.18110625
-0.26150623 -0.32307568 -0.39215395 0.17858829 0.12755612 0.12556852 -0.3090868 -0.5511343
-0.50374657 -0.5032936 -0.75922734 -0.76765674 0.033548217 0.060949918 0.0416531 -0.032576796
-0.08771561 -0.031406984 -0.073155075 -0.14835104 -0.09889439 0.2275089 0.40375015 0.14588036
-0.0032469595 -0.1078973 -0.113198996 -0.2617752 -0.78742874 -0.51864976 0.5170523 0.77465653
0.2455615 -0.057162292 -0.3211729 -0.28068826 -0.5464025 -1.3981631 -0.85274464 0.15479335
0.15640078 0.02582463 -0.029477121 -0.09102861 -0.06868264 -0.12980734 -0.40856266 -0.22169715
-0.02099305 -0.3000215 0.33334327 -0.078325495 -0.56430465 0.61041945 0.021456437 -0.2714431
0.46649814 -0.03641155 -0.72633684 0.7834469 -0.08215064 -1.3288393 1.3352671 0.06832787
-0.6369474 0.84361947 -0.045544025 -0.1671201 0.12544802 -0.05412468 -0.27495155 0.24119812
0.0009576507 -0.109639384 0.1756374 -0.14156547 -0.13206759 -0.13448735 -0.085551225 -0.1185657
-0.10841972 -0.038802337 0.006216448 0.0074934755 -0.8350617 -1.0082227 -0.8678737 -0.78758

backbone1.0.1.weight f4 [16]
00000000: 6903 b43e 4179 983f deb2 033f 3dd2 f73f
00000010: 24aa c03e dac6 283f 58a3 4f3d f7a7 b33d
00000020: 8e37 df3e 8ab1 f93e add6 173f 1ecb 0d41
00000030: 2a90 ed3d 8c3b ad3d 7f4f 8f3d e5ce 3840
0.35158852 1.1912004 0.51444805 1.9361035 0.37629807 0.65928423 0.050692886 0.08772271
0.43597072 0.48768264 0.59311944 8.862089 0.11599763 0.08458623 0.069975846 2.8876278

backbone1.0.1.bias f4 [16]
00000000: 357e 9040 55d1 2540 bec0 2d40 85e4 2bc0
00000010: 29cd 3340 5450 2e40 1479 9d3e a08f 84bd
00000020: 2070 2e40 be86 2e40 7988 2d40 96d4 53bf
00000030: a3b7 a73e 431b 023f b1f7 903f 9497 24c0
4.515406 2.5909016 2.714889 -2.6858227 2.809397 2.7236528 0.30756438 -0.06472707
2.7255936 2.726974 2.7114546 -0.82746255 0.3275729 0.5082285 1.132559 -2.5717516

backbone1.0.1.running_mean f4 [16]
00000000: d171 483f 2217 30bf 9fbf c1bf d41d f43f
00000010: 2203 173f 2932 a93e e17e 7fc0 5d03 55c0
00000020: 6487 6c3e 0800 c83d 5b79 9f3f 503e 0dbf
00000030: 11c7 89c0 85a4 7540 bfc0 a940 415e 38c0
0.7829867 -0.687853 -1.5136603 1.9071603 0.58989155 0.33046082 -3.992119 -3.3283303
0.23098522 0.09765631 1.245891 -0.55173206 -4.30555 3.8381665 5.3047786 -2.8807528

backbone1.0.1.running_var f4 [16]
00000000: 3e50 963d 855a 603d d34b 3c3e 20e6 563e
00000010: 8d7a 943e 6df0 753f fe19 413e e3a3 a33e
00000020: 07b8 153d 6e4b 6e3d d3d7 0a3e 671d 0f3e
00000030: 960b 993e eff6 1a3e 45df d13e e5b6 e73e
0.07339524 0.054773826 0.183883 0.20986223 0.2899975 0.96069986 0.18857571 0.31960973
0.036552455 0.058177404 0.13558893 0.1397606 0.29891652 0.1513326 0.40990654 0.45256725

backbone1.1.block.0.0.weight f4 [16, 1, 3, 3]
00000000: 4390 82be d482 ba3d fc69 173e f9fd 2240
00000010: 5060 b83e 1125 30c0 6026 ff3f 1bfb 5c3e
00000020: c979 17c0 ef80 12be 151d 1dbf 1c67 b6be
00000030: b348 1d3f 5e6a 943f 288e 4d3f 36b1 68be
00000040: bdc3 4abf 4371 ffbe d701 3fbd f0e5 81bd
00000050: 4f01 9c3c 1e90 8d3b 6900 35bf 18ae 71bf
00000060: b109 e33c 8eb6 16bf 8a79 53bf 534f 94be
00000070: 9c03 9b3e db0e eb3e 7b3b 9cbe 4cb1 b83e
00000080: 9aae 363f 8f2c c6bb 8843 39bc c603 fe3d
00000090: 2d86 0ebd 1f1e 4f3e 0dcb debd cd29 44be
000000a0: cfb3 aa3f 25cd 9cbf f629 65be 6244 803f
000000b0: ab19 6cbf 826f 92bd 56e1 9d3e 88cf 59be
000000c0: e10a 043e da61 933f 44eb c5bf dde4 1d3c
000000d0: a412 583f 7b38 7dbf faed 0440 c588 523b
000000e0: bb05 11c0 6bb8 8240 430d 20bd c442 82c0
000000f0: 584c 583f 993b d0bd d1a0 8abf bfdd aebe
00000100: 1a0c 0bbf 293a 08bf eab4 8cbe 5971 40bf
00000110: c65f 08bf 6754 373e abce 033f 3113 893d
00000120: 90b5 3fbe 0d81 523e 5f19 7dbc 6e14 9ebf
00000130: ef00 873f b51e 00bb 2493 50bf 1d27 4b3f
00000140: 2420 b9bd a7cb 503e 0f72 00bd 3401 14be
00000150: 1e10 0fc0 7d52 ffbe 9375 1f40 92b8 e6bf
00000160: cfc2 a4be c472 0d40 d587 873d 596f d63d
00000170: 5229 b0bc 6f8f 733e 8b0e 673f c125 483f
00000180: 4167 babc ea07 2e3f 6231 563f 01c4 0a3e
00000190: c409 bd3e dd44 9a3e d3ed e43e 5851 3a3f
000001a0: 86ed de3e f91e 4a3e 0e6a 023f d8b4 8b3e
000001b0: a5d7 db3c 8c36 4640 5598 2d40 d772 60be
000001c0: f2f5 8d3e c39d 9b3e 7a35 243c 44b9 5ac0
000001d0: aaf0 49c0 14b4 f33f 6102 5f40 889b 103f
000001e0: e2e3 0a3f f764 ed3e 82a5 9cbd 556a 22c0
000001f0: 6755 7bc0 35e3 42bf 43e4 3dbe 312d 043d
00000200: 7352 473e a7bc 7a40 f1f7 4e3e 6434 81c0
00000210: 6f49 5f40 f6a9 6d3d ea28 6dc0 9b25 11bd
00000220: 214c 2e3e 7ac8 ef3c f6df 833e 6f90 87be
00000230: 8af8 09bf 66cd d03d 30fb f5be 68a9 6ebf
-0.25500688 0.09106985 0.14786524 2.5467513 0.3601098 -2.7522624 1.9933586 0.21580164
-2.3668082 -0.14306997 -0.613725 -0.3562554 0.61439055 1.1594961 0.8029504 -0.2272385
-0.7920492 -0.498911 -0.046632614 -0.06342685 0.019043593 0.0043201586 -0.7070375 -0.9440627
0.027714582 -0.58872306 -0.8260733 -0.2896677 0.3027619 0.4590977 -0.3051413 0.36072767
0.7136017 -0.0060477923 -0.011307605 0.124030635 -0.03479593 0.20226334 -0.108785726 -0.1915657
1.3336123 -1.2250105 -0.22379288 1.0020869 -0.92226666 -0.07150175 0.3083598 -0.21270573
0.12894775 1.1514237 -1.5462422 0.009637085 0.84403443 -0.9891431 2.077025 0.0032124978
-2.2659748 4.085012 -0.039075147 -4.07065 0.8449149 -0.10167617 -1.0830327 -0.34153554
-0.5431534 -0.53213745 -0.27481776 -0.75172955 -0.5327114 0.1790329 0.51487225 0.066931136
-0.18721604 0.20557041 -0.0154479435 -1.2349985 1.054716 -0.0019549553 -0.8147452 0.7935656
-0.090393335 0.20390187 -0.031358775 -0.14453584 -2.2353587 -0.4986762 2.4915512 -1.8025076
-0.32179877 2.2101297 0.06617705 0.10470457 -0.021504078 0.23785184 0.90256566 0.7818261
-0.022754313 0.67980826 0.836691 0.13551332 0.36921513 0.30130664 0.44712695 0.7278037
0.4354059 0.19738378 0.50943077 0.2728641 0.026836226 3.0970793 2.7124226 -0.21918808
0.27726704 0.303938 0.010022515 -3.4175577 -3.155314 1.903933 3.4845202 0.5648732
0.5425397 0.46366093 -0.076487556 -2.53774 -3.9270875 -0.7612794 -0.18544106 0.03226966
0.19465046 3.9177644 0.2021177 -4.0376453 3.488857 0.058023416 -3.7056222 -0.035436254
0.17021228 0.0292704 0.25756806 -0.26477382 -0.53894866 0.10195427 -0.48043203 -0.93227243

backbone1.1.block.0.1.weight f4 [16]
00000000: c940 d03f b9d7 3b3f de0c 863e f26c d13e
00000010: 21c1 c63f 1898 fa3e 25fb bc3f e653 023f
00000020: ec1b 213f cd91 633f 4dac 933e f51c 253f
00000030: e94e a53f 932d d23f 4f5a 1d40 5057 873e
1.6269771 0.7337604 0.26181692 0.4090343 1.5527688 0.48944163 1.4764143 0.5090927
0.6293323 0.8889435 0.28842393 0.6449731 1.2914706 1.6420158 2.458637 0.26433802

backbone1.1.block.0.1.bias f4 [16]
00000000: 25ee 443e 2d69 de3f 1e66 d13f 75fb 2d3e
00000010: 08c3 353d d474 3440 1e9b 3d3e 37bb 453f
00000020: fae9 d83f 4b4a b83e 9581 b43f 7f77 f63e
00000030: b97b 953e 7dbe 3b3e d217 87be 4705 bb3f
0.1923147 1.7375847 1.6359289 0.16990454 0.04437545 2.8196306 0.18516204 0.7723879
1.6946404 0.3599418 1.4102045 0.48138043 0.29195955 0.18334384 -0.2638536 1.4610986

backbone1.1.block.0.1.running_mean f4 [16]
00000000: b57c a7bf dec0 373e f532 01c1 535c b9be
00000010: 52a4 27bb b408 d0be c470 21be a149 863d
00000020: e052 9dbe 4a38 8e3e c567 1341 628b f33f
00000030: 3d99 eebd c80b 5fbe c734 babe 5e9d 36bf
-1.3084933 0.17944667 -8.074941 -0.3620325 -0.002558012 -0.4063164 -0.15765673 0.06557012
-0.3072729 0.2777732 9.212834 1.9026911 -0.11650322 -0.21781838 -0.3636839 -0.71333873

backbone1.1.block.0.1.running_var f4 [16]
00000000: e6d6 c841 ccb6 de40 6e2d 0a40 1579 b53b
00000010: a68f 2e40 9197 9640 285f d63d 2166 ed3b
00000020: 6037 7540 e9ce fa40 1f3d 3a40 f82d d642
00000030: 7fb8 093e 14e2 853e 6b32 ff3f b0d9 5740
25.10493 6.959814 2.1590228 0.0055381157 2.7275176 4.7060018 0.10467368 0.0072448407
3.8315048 7.8377576 2.9099805 107.08978 0.13449286 0.26149046 1.9937261 3.3726616

backbone1.1.block.1.fc1.weight f4 [8, 16, 1, 1]
00000000: cd6c 7ab0 410d acb1 2029 2630 0bf5 98b0
00000010: 8d1b 28b2 013f e0b0 15ec a5b1 d1cf 85b0
00000020: 9b78 f731 7fdd 8ab1 c776 18b1 dfae d8b0
00000030: f383 57b1 abc6 5bb1 8809 48b1 8119 4531
00000040: 73ac d2b0 75da 14b1 a586 9bb0 6d10 a0b1
00000050: 57d2 ebb1 d125 66b1 efd1 75b1 65db 6bb1
00000060: 9dde 2d31 455d 08b0 e759 17b0 2b4b 6a31
00000070: 340b 9bb1 9558 84b1 a432 9f31 ffa2 03b1
00000080: f3eb b0ba dfae 41ba 8730 efba c179 fcb9
00000090: ddc7 23ba 1056 16ba 7b12 45ba 3589 ecba
000000a0: 35a0 32ba 90b5 87ba 959e 39bb a016 693a
000000b0: 5537 60b9 a455 dab9 4766 95ba 7190 a2ba
000000c0: 7599 1ab1 f979 36b1 e1a7 8731 a507 7231
000000d0: f56e 93b1 283e 4ab1 9952 15b1 8540 09b1
000000e0: e863 c8b1 f575 b330 b46c c3b0 d98d 23b1
000000f0: 0dac 13b1 8f58 64ab 5830 66b1 b502 0db1
00000100: 97e0 a7ae e98a d9b1 df37 d4b0 5d45 a6b0
00000110: 7de2 87b1 3041 cb30 1c61 e02f 7993 95b1
00000120: 1db8 19ad 0dcc d2b0 f104 972f 8c6d b0b1
00000130: b7d2 4bb1 3527 d4ae 6bc8 df30 e51f abaf
00000140: 2561 b7b1 4547 d0b0 fc69 4ab2 fd38 97b2
00000150: b8ec 54b2 afdd e130 156c b9b0 fada 9aaf
00000160: dd26 4d32 bd7b 0cb2 f035 9fb1 c71e e3b1
00000170: f021 01b2 eb5b 67b2 16e3 24b2 40c1 17b2
00000180: 7ff4 64b1 e465 4fb1 fdc9 cc31 05f4 1631
00000190: d54a 48b1 8900 0bb1 4868 afb1 b5eb 92b0
000001a0: b75f 8bb1 540c b2af 9026 76b1 a5d0 d7b1
000001b0: cb02 2ab2 95bb 4db1 f8e1 b2af 7d71 4bb1
000001c0: a45a 9eb0 95ba c0b1 0329 c5b0 08cf 54b1
000001d0: 9c2f b9b1 ac4d 62b1 3cbb 71b1 c57b 922e
000001e0: 8467 c2b0 fd4e 88b1 f78e 0fb1 83e7 1db1
000001f0: 6930 8531 07ef 05b2 83e7 4b30 0fea 0730
-9.1104085e-10 -5.0073656e-09 6.044889e-10 -1.1129101e-09 -9.785151e-09 -1.6316052e-09 -4.8289714e-09 -9.736089e-10
7.2023574e-09 -4.04151e-09 -2.2186428e-09 -1.576577e-09 -3.1361622e-09 -3.1981624e-09 -2.9109248e-09 2.868177e-09
-1.5328524e-09 -2.1661013e-09 -1.1316003e-09 -4.6584803e-09 -6.863313e-09 -3.3490901e-09 -3.5771526e-09 -3.4321712e-09
2.5301354e-09 -4.9609056e-10 -5.506124e-10 3.409421e-09 -4.5123674e-09 -3.8517762e-09 4.633266e-09 -1.9155662e-09
-0.0013498053 -0.00073884235 -0.0018248715 -0.000481559 -0.00062477385 -0.000573487 -0.00075177074 -0.0018046262
-0.0006814034 -0.0010353792 -0.0028323282 0.0008891616 -0.00021382917 -0.00041644007 -0.0011398279 -0.0012402666
-2.249718e-09 -2.655382e-09 3.9481027e-09 3.521998e-09 -4.2908774e-09 -2.94302e-09 -2.1729305e-09 -1.99728e-09
-5.832124e-09 1.305749e-09 -1.4219013e-09 -2.3800253e-09 -2.1489115e-09 -8.112477e-13 -3.3496885e-09 -2.051974e-09
-7.634176e-11 -6.3313235e-09 -1.544091e-09 -1.2097804e-09 -3.954766e-09 1.4788721e-09 4.0814363e-10 -4.3532364e-09
-8.7379244e-12 -1.5337506e-09 2.747025e-10 -5.134728e-09 -2.9660165e-09 -9.6476084e-11 1.6282348e-09 -3.112738e-10
-5.337045e-09 -1.5154248e-09 -1.1782046e-08 -1.7604629e-08 -1.2393848e-08 1.6433911e-09 -1.349124e-09 -2.816803e-10
1.1941407e-08 -8.177207e-09 -4.633641e-09 -6.6100685e-09 -7.516505e-09 -1.3466869e-08 -9.59769e-09 -8.833297e-09
-3.3317347e-09 -3.0180383e-09 5.960145e-09 2.1966582e-09 -2.9146368e-09 -2.0227466e-09 -5.1050257e-09 -1.068989e-09
-4.056314e-09 -3.238677e-10 -3.5819632e-09 -6.2810437e-09 -9.895937e-09 -2.9938054e-09 -3.2538572e-10 -2.9604899e-09
-1.1521775e-09 -5.6091474e-09 -1.4345293e-09 -3.0967744e-09 -5.389621e-09 -3.293148e-09 -3.5176546e-09 6.661297e-11
-1.4144779e-09 -3.967101e-09 -2.0890505e-09 -2.2978106e-09 3.876313e-09 -7.795967e-09 7.417997e-10 4.944533e-10

backbone1.1.block.1.fc1.bias f4 [8]
00000000: 9151 ecb0 9532 1fb1 a77f 2bb9 bd04 01b1
00000010: a12d b1b0 9199 9632 5760 c2b1 35b2 d42e
-1.7194443e-09 -2.3166298e-09 -0.00016355385 -1.8774664e-09 -1.2891413e-09 1.7532132e-08 -5.6570957e-09 9.6723e-11

backbone1.1.block.1.fc2.weight f4 [16, 8, 1, 1]
00000000: 9e24 29b0 51dc 4a31 fdaa 0f3b 6126 852f
00000010: 79de 00b1 b1e5 8a32 7b37 eb31 e07a 7031
00000020: e035 8730 d3d1 52b0 bfae cc3a 6b08 7e30
00000030: 1515 d5b1 e0e2 7e32 5de0 8131 ed2b 6531
00000040: c45a 45b0 502b 6631 34cd 913a 07d6 17b1
00000050: 14f4 07b1 13fc 0432 db92 8ab1 b539 5631
00000060: d84e 44b1 e4ad a931 d3bf fc3a 60ed 32b0
00000070: 4941 4e30 e5ad 0d32 0502 0bb0 e4f4 8d30
00000080: 138a c6b0 9c17 ca30 1b82 1f3b ad0f 462f
00000090: ad35 0fb0 15f7 3231 7548 9131 1b95 cb30
000000a0: 9c73 9db1 a31a 1eb0 f467 ee39 dceb b7b0
000000b0: d55c 4630 3817 6832 dd9c 48b0 6b69 cab0
000000c0: 00da 2530 35b8 9bb1 ecc1 133b 9f2c aeb0
000000d0: a948 0a31 28ca 5532 7d98 0731 7d25 dbb0
000000e0: 6fc2 bead 7dbe 8330 39f0 023b c454 44b1
000000f0: 7515 8e31 7813 e030 cb0b 2c31 a316 05b0
00000100: 7dbd 64b1 a192 36b0 0fa7 bb3a 8870 bd31
00000110: 2129 0630 8d57 1832 2cf1 4830 4479 9730
00000120: fc5d 7bb1 b5c9 5231 1556 db3a 8faf 2e31
00000130: 64fb 18b1 30ca 5232 5d9e 7cb1 1de7 4931
00000140: afc7 8a2e a536 70ae 7304 733a 7bb7 f5b0
00000150: 4b6f 0631 a020 5732 e5a8 fab0 5868 eeb1
00000160: bf65 50b0 3b10 1931 edce 893a 057e 1030
00000170: 8450 64b1 5061 4732 a318 7a31 15fe b4b0
00000180: 9033 8a31 e11e 96b0 313d 0a3b 7f60 3330
00000190: 3002 8830 181b c231 75c4 d9af ebb1 41b0
000001a0: 082c 47b0 cdc2 ae31 6d77 2f3b 7153 76b1
000001b0: 34e7 17b0 6c79 6232 c19e 9630 f797 b2b0
000001c0: b900 9a30 cd63 5931 89c9 093b fd71 2631
000001d0: 193e bbb0 7550 5132 9580 9e30 386e 9ab0
000001e0: ac4e 1fb1 677e 0ab1 238e 893a f426 67b1
000001f0: f9be 1bb0 d8d3 e031 a8d1 08b1 e8d8 b0b0
-6.153388e-10 2.9520104e-09 0.0021921985 2.421983e-10 -1.8752913e-09 1.6169766e-08 6.8457076e-09 3.4994443e-09
9.837855e-10 -7.6695733e-10 0.0015616043 9.2416624e-10 -6.2015126e-09 1.4836331e-08 3.7799013e-09 3.3348855e-09
-7.179717e-10 3.3494025e-09 0.0011123777 -2.2095052e-09 -1.9783828e-09 7.740726e-09 -4.033024e-09 3.1173901e-09
-2.8566571e-09 4.9383164e-09 0.0019283242 -6.5093353e-10 7.503514e-10 8.246819e-09 -5.0570775e-10 1.0328702e-09
-1.4445639e-09 1.4704145e-09 0.0024339024 1.8013564e-10 -5.2099375e-10 2.604286e-09 4.228293e-09 1.4812572e-09
-4.5824446e-09 -5.751792e-10 0.0004547235 -1.3382038e-09 7.21639e-10 1.3509457e-08 -7.298249e-10 -1.4727396e-09
6.0336447e-10 -4.5320356e-09 0.0022546006 -1.2672848e-09 2.0122946e-09 1.2444197e-08 1.9731765e-09 -1.5945002e-09
-2.1686845e-11 9.585645e-10 0.001997961 -2.8569938e-09 4.1351833e-09 1.6303678e-09 2.5035998e-09 -4.8417287e-10
-3.3286078e-09 -6.6419586e-10 0.0014316755 5.5134173e-09 4.8807364e-10 8.867471e-09 7.31023e-10 1.1021162e-09
-3.6578731e-09 3.067368e-09 0.0016734028 2.5420126e-09 -2.226181e-09 1.2269581e-08 -3.6760845e-09 2.9380722e-09
6.3109844e-11 -5.4618216e-11 0.00092703773 -1.7878244e-09 1.956283e-09 1.2522065e-08 -1.8237897e-09 -6.938574e-09
-7.581455e-10 2.2273656e-09 0.0010513939 5.256598e-10 -3.3224135e-09 1.1605451e-08 3.6393792e-09 -1.3168938e-09
4.0221906e-09 -1.0922713e-09 0.0021093602 6.525695e-10 9.895924e-10 5.6492233e-09 -3.961166e-10 -7.046583e-10
-7.245835e-10 5.086213e-09 0.0026774064 -3.5845142e-09 -5.526204e-10 1.31825395e-08 1.0959057e-09 -1.2994396e-09
1.120518e-09 3.1634386e-09 0.0021024665 2.4220974e-09 -1.362369e-09 1.2183695e-08 1.1532558e-09 -1.1236301e-09
-2.3182265e-09 -2.0153494e-09 0.001049463 -3.3637066e-09 -5.666006e-10 6.543342e-09 -1.990978e-09 -1.2867334e-09

backbone1.1.block.1.fc2.bias f4 [16]
00000000: 3935 053f 8834 273f 6c83 863e 3cb8 8cbf
00000010: e8bc 3abf 6476 b13f 2c35 bdbe da88 f8be
00000020: baf6 0e3f 5a5e a6be 6bc2 113f 7085 7abe
00000030: 4546 d0be 99de 51bd e80c d93d a0fa c2be
0.52034336 0.6531453 0.26272142 -1.0993724 -0.729445 1.3864255 -0.3695463 -0.4854191
0.55845225 -0.3249386 0.56937283 -0.24464965 -0.4067861 -0.051237676 0.10598165 -0.38081837

backbone1.1.block.2.0.weight f4 [16, 16, 1, 1]
00000000: ad34 05c0 5185 333e 7829 93bc 649f c8be
00000010: 3a54 c7be 21af 2fbf 6731 c039 5213 3d3e
00000020: ed39 62be e0d5 513e 03a1 093d 8b6e d3be
00000030: 380a f03e 88ed a53e f31d 64bd 65dd e1bd
00000040: c38d 443f b9de 0840 e205 fcbd 272f c3be
00000050: 3608 4dbf 1284 003f 84d4 973f a770 003e
00000060: 8363 a2bd 9430 4cbe 64ac 20bb 4cd7 0ebf
00000070: c082 9e3f 4c69 8fbe d1bd 72bd 8a78 063f
00000080: 32fd 833d a0e3 9e3c 58d9 2abe b746 c3bd
00000090: 3b8f 003c 29d6 52bc 7c8f 6bbd 2b44 cc3c
000000a0: 10d1 9abb 2f73 ccbd 679b 7d40 e8f1 b4bd
000000b0: 2556 6fbd 5924 de3c c04c 3cbd 2838 8d3c
000000c0: 9338 573e 95f4 a6bf 9e67 52bd 3ada bbbe
000000d0: 9121 f4bf 1c74 a83f 2186 a63d a460 bf3d
000000e0: fd54 5e3f 610c 28bf 1336 4dbd 46fe eb3e
000000f0: 4a9b c83e b7ce 98bf 045c 763d ebc5 973b
00000100: ac69 1c3e f1cf 40be 0902 2440 1736 863f
00000110: c70c 0fbe 33d3 20bf 26be 78be 0eec 9bbf
00000120: 426e 0b3e 4e72 0cbd 7c61 313e 7d74 f2bc
00000130: bee8 823e b393 4e3e d78c 023d ad0d 0ebf
00000140: c6a6 94bf ebe5 89be 1079 2d3d df0a d13e
00000150: c7ef 66bd 06cb d03e 5314 cc3f 910c e03d
00000160: ee7c 00bf c8e3 a1bf 7080 8b3d 1044 223e
00000170: 429f f8be 988f 8abe 4eb0 05bf 4d86 193e
00000180: 0dde d0bc 5662 4a3d c769 1840 b5ff a5bf
00000190: bcfa 663d ffa4 0b3f dfcc 883e 25dc 8b3f
000001a0: c4d8 56be 4500 d13c cc83 563e f988 0ebc
000001b0: eb19 9cbe 07a1 9cbe c461 96bd 9de7 3f3f
000001c0: a111 833c 5f69 ec3d 0f07 c93d 1a8f 643f
000001d0: 9d75 c83d ce3d 2cbe 39fe adbe 5fc4 2c40
000001e0: 2d19 93bd f645 833d 1b80 54bd eb9e ba3c
000001f0: 6829 913f 665d 7ebf c809 813e 5a16 5bbf
00000200: c918 8fbf 635f 823f aaad ca3d 41e8 833e
00000210: 0c39 783d c9e6 c43f bce1 eabe c803 b6be
00000220: 7fbe a83f 8755 cd3e 486c 513d c2a5 3d3f
00000230: 475e 0b3e f2e5 aabe dcb9 c0be 4335 54be
00000240: e6db 8a3e c3f0 70bd bc41 883d cc71 a33e
00000250: f61c e9be 2be1 d93e ab78 1a3f f585 933f
00000260: b1e4 873f d752 93be a8c1 81bd 904d 983d
00000270: c335 abbf 26e5 0e40 0b66 af3b 9bd8 ccbe
00000280: 227d 143e e23a 683f 4ca7 18bd 04d5 153e
00000290: 755a 2ebf e456 b4be 21d4 64be d7b3 933c
000002a0: c04f 7bbf 23bc 56be ad48 a1bc 84ab 4a40
000002b0: 3fe5 babe 4c29 d1ba e336 0f3f fa1c 9fbe
000002c0: 9005 77be fd96 4a3f 05f4 a93c f66c a03e
000002d0: b553 e5bf edfc ea3f ee89 7abf a20e 32be
000002e0: 5890 f0bf 9533 963e de6c 903d ee46 21bf
000002f0: 6c5d 84bf 2f13 a13e e22f e43e 5e46 2bbe
00000300: e8de 803c 2428 a6bf 3b45 68bd 398a dcbd
00000310: 8668 59bf 562c c63f 6a0a 123f 41cb 893d
00000320: 2f35 4ebf 04a2 8c3f 1d92 d53d 3d1e 293f
00000330: dec8 553f a21c 193f 3737 a7be 31f1 023f
00000340: ff4a 74be 9d26 0f3d 2519 9ebb 4d58 3dbf
00000350: bfa9 2ebd 3c9a e8bd d6f0 7ebf ddbe 083f
00000360: 5994 8f3e fad8 f4bd 4721 d9bb d050 1b3e
00000370: 73bd a2be 9a47 623b 59af 5b3e 5ef1 0b40
00000380: 44cf 153e ff10 a53d 2494 b43c 3751 22bb
00000390: 070e 9fbe 50ae 8fbc d604 a53f d499 473e
000003a0: 6b01 adbc a64d 0840 8b01 2b3d 0ab2 a13b
000003b0: da94 e9be 4e1e ecbe 1853 14be ef39 9b3d
000003c0: f4ff 883d 9fae c93d 3300 fbbc 18fb 90bd
000003d0: 4bb5 d1bc 7284 d9be 2882 0abe e1cd 063e
000003e0: d8bc 6ebe 8ee1 cebc 6cb1 84bc 06cc 0f3e
000003f0: 3ddf 80be 843c 02be 1b55 42c0 e126 68bd
-2.08134 0.17531325 -0.01796411 -0.39184105 -0.38931447 -0.686266 0.000366579 0.18464401
-0.2209241 0.20491743 0.03360082 -0.41295275 0.46882796 0.32407784 -0.055692624 -0.11028556
0.7677881 2.138594 -0.123058096 -0.38121912 -0.80090654 0.50201523 1.186173 0.12542973
-0.079291366 -0.19940406 -0.0024516815 -0.55797267 1.2383652 -0.28010023 -0.059263054 0.5252768
0.064447775 0.01939565 -0.16684473 -0.09534972 0.007846649 -0.012868443 -0.057509884 0.024934849
-0.004724629 -0.09982907 3.96261 -0.088352025 -0.058431763 0.027116941 -0.045971632 0.017238691
0.21017675 -1.304339 -0.05136835 -0.3668993 -1.9072744 1.3160434 0.08131052 0.093446046
0.8684843 -0.6564389 -0.050100397 0.46092433 0.39180976 -1.1938084 0.060146347 0.004631748
0.15274686 -0.18829323 2.5626242 1.0485257 -0.13969718 -0.62822264 -0.24291286 -1.2181413
0.13616279 -0.034288697 0.17322344 -0.029596562 0.25568193 0.2017353 0.031872597 -0.5548962
-1.1613395 -0.26933226 0.042351782 0.40828606 -0.056381013 0.40779895 1.5943702 0.10939897
-0.5019063 -1.2647638 0.06811607 0.15846276 -0.48559004 -0.27062678 -0.52222145 0.14992638
-0.025496507 0.049410187 2.3814561 -1.296866 0.056391463 0.5454864 0.26718804 1.0926558
-0.20981127 0.025512824 0.20948714 -0.008699649 -0.30488524 -0.30591604 -0.07342866 0.7496279
0.015999617 0.115435354 0.098157994 0.89280856 0.09788058 -0.16820452 -0.3398302 2.6994855
-0.07182536 0.06409828 -0.051879983 0.022780856 1.1340761 -0.99361265 0.25202775 -0.8558098
-1.1179439 1.018536 0.09896405 0.25763133 0.06060128 1.538293 -0.45875347 -0.3554976
1.3183135 0.40104315 0.051128656 0.7408105 0.13610183 -0.3337856 -0.376418 -0.20723443
0.27120894 -0.05882336 0.06653163 0.31922758 -0.45529908 0.42554602 0.60340375 1.1525255
1.0616666 -0.2877414 -0.06335765 0.07436669 -1.3375782 2.232736 0.0053527406 -0.40009007
0.1450086 0.9071485 -0.03726892 0.1463204 -0.68106776 -0.35222542 -0.22346546 0.01803009
-0.98168564 -0.20970206 -0.019687975 3.1667185 -0.36503026 -0.0015957742 0.55943125 -0.31076795
-0.24123216 0.7913664 0.02074624 0.3133313 -1.791617 1.8358437 -0.97866714 -0.17388394
-1.879405 0.2933623 0.07052015 -0.62998855 -1.034101 0.31459948 0.44567782 -0.16726062
0.01573129 -1.2981 -0.05670665 -0.107685514 -0.84925115 1.548228 0.5704714 0.06728221
-0.805499 1.0986943 0.104282595 0.66061765 0.83509624 0.59809315 -0.32659313 0.5114928
-0.23856734 0.034948934 -0.004824775 -0.7396286 -0.04264235 -0.11357543 -0.99586236 0.53416234
0.28042868 -0.119554475 -0.0066262814 0.15167546 -0.31785163 0.003452754 0.21453609 2.186607
0.14629847 0.080598824 0.022043295 -0.0024767646 -0.3106539 -0.017539173 1.2892101 0.19492275
-0.02111884 2.1297393 0.04174952 0.004934554 -0.45621377 -0.4611687 -0.14484823 0.07579409
0.06689444 0.098477595 -0.030639743 -0.07079142 -0.025599143 -0.4248386 -0.13526213 0.13164474
-0.23314226 -0.025254037 -0.016197883 0.14042673 -0.25170317 -0.12718397 -3.0364444 -0.056677703

backbone1.1.block.2.1.weight f4 [16]
00000000: b7e5 943f 6333 c33f cb91 2e3f 004f b83f
00000010: d2aa 1a3f 1e2e b93f 9d32 413f 4ecd 733f
00000020: 6fba ba3f 249e ba3f 1501 a53f 31a9 c03f
00000030: 9fa5 a53f 3c17 263f e419 ad3f 07c5 e23f
1.1632603 1.5250057 0.6819121 1.4399109 0.604169 1.4467199 0.75467855 0.95235145
1.4588145 1.4579511 1.2890955 1.5051633 1.2941169 0.648792 1.3523526 1.7716378

backbone1.1.block.2.1.bias f4 [16]
00000000: 9936 55bc 2efb 203d 65c1 003d 877f a43c
00000010: e002 1e3c f1d9 1bbd a505 443c b352 4f3c
00000020: 7039 75bc 45f2 253d 17b1 043c 730e 7038
00000030: 9b15 77bc 74d9 1a3c 64d2 003d e05d 08bd
-0.013013505 0.039302044 0.031434435 0.020080341 0.00964424 -0.038049642 0.011964236 0.012653994
-0.014967307 0.04051425 0.008098862 5.7233916e-05 -0.015080835 0.009451259 0.031450644 -0.03329265

backbone1.1.block.2.1.running_mean f4 [16]
00000000: 2e56 06c0 38f5 7c40 c36f 4940 d6fe d53f
00000010: 4ed1 f33e c3c8 56be c531 7d40 d15e 2b3e
00000020: e005 a340 0b1d 1f40 dce8 c5be 8163 f53f
00000030: 0e93 0140 4903 a43f ce98 153f 00b2 dabf
-2.09901 3.952467 3.1474464 1.6718395 0.47620624 -0.20975022 3.9561627 0.16735388
5.094467 2.4861476 -0.3865422 1.9170991 2.0246005 1.2813503 0.58436286 -1.7085571

backbone1.1.block.2.1.running_var f4 [16]
00000000: b51b 833e 7312 9c3f 383c f53e effd 343f
00000010: 20aa 4b3e cab3 e13e d3ea 8e3e a5ec cb3e
00000020: 257f fe3f 4d50 363f a68b ad3f 1833 a93f
00000030: 2d03 163f 65a2 053e 6ad2 c63e 9998 853e
0.25607076 1.219313 0.47897506 0.7069997 0.19889116 0.4408248 0.27913532 0.39828983
1.9882551 0.7121628 1.3558242 1.3218718 0.58598596 0.1305023 0.38832408 0.26092985

backbone1.2.block.0.0.weight f4 [72, 16, 1, 1]
00000000: 76f0 d23e 1a2d cebe a072 46bd ee02 bcbe
00000010: a05b 0c3e c254 6dbf 273c 9cbe 2a0f e83d
00000020: ee16 883e bc96 76be 0ef6 b4bd 0a1f 093e
00000030: 42e6 1c3f aca1 943d 9e6a 863f 56c9 a4be
00000040: ff86 33bd c522 2fbd 4135 623f ed23 543e
00000050: 2219 c33d 7dd2 a0be 8b56 01bd a29c 0abc
00000060: abc3 b93d 1b37 0abf 63df fa3d e293 993d
00000070: 9b7f c0bc f365 64be da77 98be 71e7 e7be
00000080: 1b87 74be 4221 6ebf 4094 1c3d c5b6 acbe
00000090: c2fa 01be 71a6 463d 4574 833e 00b5 57bf
000000a0: b90a 26be 2d53 8b3f a407 973d f060 a13f
000000b0: 96c5 71bf e35a f53e 38d8 c43e f14f 25bd
000000c0: 4cb9 b93d 1a10 2e3f 08bc 7fbc 8ba2 99be
000000d0: 388c 40bc d352 5b3d c40f a03d 3e65 8c3d
000000e0: d0f3 8d3e 0c5f a6bc 241c 143f 1d93 363e
000000f0: 7c09 b2be d530 563d 475f 5dbe 49eb d53d
00000100: d634 a0bd 173d ad3b ec61 4cbd 1de8 053d
00000110: 8ccc 0c3f 6f32 b93d d30e e3be 08bb aebf
00000120: f64e 1c3e c31c f9be 5dae 92bc e97e 3fbd
00000130: 6ed3 2c3d e16b edbe 3253 1abd 43b9 60bd
00000140: e1ca 9f3e 2a46 e0bc 72aa 563d a1d1 253e
00000150: f60a 103f e7cd e5be 0c54 08bf e81b 543d
00000160: b861 adbe 6604 863e cfb0 723d 12bc 7ebf
00000170: 3701 34bf 402e d33e 2a7b 183e 44fa 073e
00000180: 7816 073f 1010 253e e00b 9bbd bfc7 893e
00000190: 2a0c 39be 1cd2 c03f 44f7 cf3d 5b36 43be
000001a0: da80 5b3e 08a6 193e f860 343c feb2 acbd
000001b0: a4f4 ebbe 30ac 00be fc4f 92bf 8ed2 143f
000001c0: 1006 dc3c 461e 253e 190e 413f ae3d b73e
000001d0: f9f2 2f3d 3a19 6dbe 08e2 7e3c 6055 353f
000001e0: d787 9f3d 94bc 5abf 49f2 a43c 3cac c1bc
000001f0: b89f 95bd b497 423d 1a4e 63be e057 e7be
00000200: 6bbb cabe 1e55 36be 0a1e 093d 7cd3 2bbe
00000210: 3ca1 f7bd 6749 223e dd69 1d3e fdc9 0fbd
00000220: 0eb7 6e3e ab8e 36be e823 d2bd cfd8 753f
00000230: d1a0 d83e 4491 c63d a519 72be b664 c0be
00000240: ae9a d03f 327e 4bbf d473 41bd edc4 c3be
00000250: 71ab f7bc be01 3d3e 5a06 93bd 1d0b a23d
00000260: 7ec2 8e3f f608 b2be 3bad 9fbe 0ba7 f93d
00000270: 8dcf ce3e 46d3 823e c62c 573f 3c20 1f3e
00000280: 63dd e3bb 6fb3 82bd 1ba8 873d d383 c1be
00000290: 1eb5 b83d 45b4 48bf bd81 3bbe 5323 83bd
000002a0: 9bd2 cc3e 9b21 39bd fce3 e5be 7378 23be
000002b0: 33ba 433f 1ad8 f7bd 253e 8f3f 3cf7 c43f
000002c0: 3e08 7dbe e7da 41be c867 593d 19ce 0dbf
000002d0: 0f82 a23e eeb4 983e 9356 b9be 07eb 1a3f
000002e0: 171e 413e 206b 993e efa0 b93e bc0b 00bf
000002f0: 9f67 3fbe 3537 ddbe d621 ca3e 71c9 01bf
00000300: 70ba 4bbe 0a19 9f3d 0157 863f 4d70 c63d
00000310: a2f1 8ebf 9327 4e3e 8a89 c6bf 2ec9 3fbe
00000320: e555 c6bd 37b8 c03d a312 02bd fa78 1a3d
00000330: 824b 0cbe e86b 8bbd a5c2 cfbe b6fc 29ba
00000340: 7c62 55be 5ff0 0f3e 78f9 26bd 7767 693f
00000350: b38e 70be d748 fe3d 7f02 4a3e ec4e 883f
00000360: 8394 733e 4ccb fcbf 0039 90be 1d11 67be
00000370: 7209 11bf 56df 7b3c 4446 933e 8f4b cabd
00000380: 48dd 6e3d 7b5f 263e 0d95 09bc 8046 16bf
00000390: 8a40 053f f64d 3e3e 7d4e 15bf cb8d d83e
000003a0: 7bd9 df3d 144e d63e 3863 f43e 57c9 2fbf
000003b0: 9d00 123f cda6 2fbf 6258 35be 7356 0cbf
000003c0: b895 afb1 9512 c3ae ec42 54b1 3cfd c0b0
000003d0: 98c1 b22f ddd5 65b1 3b3b 8b31 7bdd 71b1
000003e0: 2386 4d2f 0baf 9230 713a b7b1 754a 0ab1
000003f0: 1425 1c31 c833 c7b0 08c7 a431 e562 0d31
0.41199082 -0.40268785 -0.04844916 -0.36720985 0.13706827 -0.92707455 -0.30514643 0.11331017
0.26579994 -0.24080938 -0.08835994 0.13390747 0.61288846 0.07257399 1.0501287 -0.32184857
-0.043829914 -0.04275777 0.8836251 0.2071683 0.09526278 -0.3141059 -0.031576674 -0.008460196
0.09070524 -0.53990334 0.12249639 0.074989095 -0.023498347 -0.22304516 -0.2977894 -0.45293763
-0.23879664 -0.930195 0.03822732 -0.33733192 -0.12693313 0.048498575 0.25674644 -0.8426056
-0.16215028 1.0884758 0.07374504 1.2607708 -0.9444212 0.47920904 0.38446212 -0.04035944
0.09068546 0.6799332 -0.015608795 -0.30006823 -0.011752181 0.053545784 0.07815507 0.06855248
0.27725077 -0.020308994 0.5785544 0.17829557 -0.3477286 0.052292664 -0.21618377 0.10445268
-0.07822578 0.0052868235 -0.049898073 0.032692064 0.54999614 0.090428226 -0.44347247 -1.3650827
0.15264496 -0.48654756 -0.017905409 -0.04675189 0.042193823 -0.46371368 -0.037676997 -0.05486418
0.31209472 -0.027377207 0.052408643 0.16193248 0.56266725 -0.44883654 -0.53253245 0.051784426
-0.33863616 0.2617523 0.05925065 -0.9950572 -0.70314354 0.41246223 0.14890733 0.13279063
0.5276866 0.16119409 -0.07570624 0.26910207 -0.18071046 1.506412 0.10154584 -0.19063704
0.21435872 0.15004742 0.011009447 -0.084325776 -0.46085083 -0.12565684 -1.1430659 0.5813378
0.02685836 0.1612483 0.75412136 0.35789245 0.042956326 -0.23154154 0.01555682 0.70833397
0.07789581 -0.85444 0.020135062 -0.023641698 -0.073058546 0.047507957 -0.22197762 -0.4518423
-0.39596114 -0.17805907 0.033475913 -0.16779894 -0.120913 0.15848313 0.15372415 -0.03510474
0.23312017 -0.17827861 -0.10260755 0.9603395 0.42310193 0.09695676 -0.23642595 -0.37576836
1.6297204 -0.79489434 -0.047229603 -0.3823618 -0.030233117 0.18457696 -0.07178946 0.07912276
1.1153104 -0.34772462 -0.31186852 0.12190064 0.40392724 0.25551814 0.84052694 0.1553964
-0.0069538816 -0.063818805 0.066238604 -0.37795886 0.0901892 -0.7840007 -0.1831121 -0.06403222
0.4000443 -0.045198064 -0.449005 -0.15963916 0.7645599 -0.12101765 1.119084 1.538795
-0.24710175 -0.18931161 0.05307749 -0.55392605 0.31739852 0.29825538 -0.36198863 0.60514873
0.18859135 0.29964542 0.36255595 -0.50017905 -0.18691872 -0.43206182 0.3947894 -0.50698
-0.19895339 0.07768448 1.0495301 0.096893884 -1.116749 0.20132284 -1.5510724 -0.18729088
-0.09684352 0.09410136 -0.031756055 0.03771303 -0.13700679 -0.06807691 -0.4057819 -0.0006484495
-0.2083835 0.14056538 -0.040765256 0.911735 -0.23491935 0.12416237 0.19727515 1.0649085
0.23787121 -1.9749541 -0.28168488 -0.22565122 -0.5665504 0.015373072 0.28764546 -0.09877693
0.0583165 0.1624736 -0.008397353 -0.58701324 0.52051604 0.18584427 -0.5832289 0.4229568
0.10930153 0.41856444 0.47731948 -0.68666595 0.57032186 -0.6861389 -0.17709497 -0.5481941
-5.1101914e-09 -8.870874e-11 -3.08881e-09 -1.4041812e-09 3.2515568e-10 -3.3445453e-09 4.052166e-09 -3.5196013e-09
1.8692296e-10 1.0672648e-09 -5.332645e-09 -2.0123967e-09 2.2722064e-09 -1.4493873e-09 4.7956554e-09 2.0574416e-09

backbone1.2.block.0.1.weight f4 [72]
00000000: 0c60 643f 6da7 7a3e f74d ae3f c5d4 bb3e
00000010: 4072 713e 848f 383e 6fd8 873f 1097 453e
00000020: ae50 513e c4f3 903f 8977 a73f 16f6 9c3e
00000030: 1230 473f b937 a43f 97db 8c3e 6c18 2430
00000040: 51ac d93e fdc2 643e 5c81 333f 67ed e23d
00000050: 906e 64b0 4df9 de3f 8e9f 123f 00cb aa3e
00000060: be3f 573f e20f 543e f10f 923f 64f2 843f
00000070: cd09 983f 656a 163e 5388 863f 425e ae3f
00000080: 9c7f 6f3e 1976 e43e 0c75 bc3f b0e5 ea31
00000090: 788c ec31 07a9 4c3f bf40 1232 2069 d33d
000000a0: 3684 af3e 6374 bc3f c69f 3e3e 2e53 0c3f
000000b0: b87f e03e d91b c43e dfb0 ac3e 5071 b43e
000000c0: d6ef 933e 1ffd ac3f 4e10 313f 9134 d93f
000000d0: b360 be3f 17c0 8e3e 4f93 2c3e 719e 923f
000000e0: 98a2 333e 3fa8 8c3f a4c0 ad3d 6f61 d93e
000000f0: 7488 c83f d0ca 003e fc52 173f 0e1f c73e
00000100: 6e30 203e c6d5 983f 8c6e 4b3e c422 813e
00000110: a7b7 2d3e 9f18 1c3e 1476 353e 50e3 c03f
0.89209056 0.2447793 1.3617543 0.36685768 0.23578739 0.18023497 1.0612925 0.19295907
0.20440933 1.1324391 1.3083354 0.306565 0.77807724 1.2829505 0.27511284 5.969756e-10
0.4251428 0.22340007 0.7011926 0.11080437 -8.3103036e-10 1.741983 0.5727471 0.33358002
0.8408164 0.20709184 1.1411115 1.0386472 1.1877991 0.14689024 1.0510353 1.3622515
0.23388523 0.4462135 1.472322 6.8364088e-09 6.8844734e-09 0.79945415 8.51304e-09 0.103227854
0.34280556 1.4723018 0.18615636 0.5481442 0.43847442 0.38302496 0.33728692 0.352427
0.28893918 1.3514746 0.69165504 1.6969167 1.487326 0.27880928 0.16853069 1.1454602
0.17542493 1.0988845 0.08484009 0.42457148 1.5666642 0.12577367 0.59111 0.3889088
0.15643474 1.1940238 0.19866389 0.25221837 0.16964589 0.15243767 0.17720824 1.506937

backbone1.2.block.0.1.bias f4 [72]
00000000: b2ac 6c3e ff24 5c3f 6cbc 24be 4e91 7c3f
00000010: 91db 263f 57b2 1c3f 136a 90be 98bb 323f
00000020: 8d03 233f 3f72 63bd fc2a dfbd 1b21 b93e
00000030: 0951 183c 6440 6abe 8784 013f 49b8 4db2
00000040: 3fd6 8f3e 87c9 793f d689 2a3e 0aba 1e3f
00000050: 7524 bcb2 a377 4cbe 480b f33e 56c1 613f
00000060: 4c59 5e3e 0e71 533f af09 9bbe a6fa 6abe
00000070: b456 d0be c1bd 1c3f 39f2 bcbe 0757 1ebe
00000080: 1f64 373f 6617 6f3e 409c 8f3e b110 2ab1
00000090: 981e eab0 4256 5d3e 6175 4eb0 e43c 4d3f
000000a0: 6b2d 1d3f e0ba 70be d687 7e3f 58a4 e43e
000000b0: 5d41 273f fed3 173f 4400 453f 9109 3d3f
000000c0: 5265 f23e 847d 963e 9a50 263d 93c4 8f3e
000000d0: 3d2e e1be 74e4 293f 60fd 1b3f dae6 3cbe
000000e0: b6f9 333f cd19 aabe edcd 3a3f e68c 0f3f
000000f0: 4aa1 e7be cf07 5a3f d287 073e fd40 c13e
00000100: f32a 493f 7f32 8dbe ac1a 2d3f 65aa eb3e
00000110: 5669 2e3f 2275 473f ff5b 153f d92b 31be
0.23112753 0.8599395 -0.16087502 0.9865922 0.6517878 0.61209625 -0.28205928 0.69817495
0.63677293 -0.055528875 -0.108968705 0.3615807 0.009296664 -0.22876126 0.50592846 -1.1974472e-08
0.28093144 0.9757313 0.16654143 0.62002623 -2.190266e-08 -0.19967513 0.47469544 0.8818563
0.21713752 0.8259438 -0.30280825 -0.22947177 -0.4069115 0.6122704 -0.3690355 -0.15462886
0.7163715 0.2334877 0.28048897 -2.4747744e-09 -1.7034436e-09 0.21614936 -7.510917e-10 0.80171037
0.6139743 -0.23508787 0.9942602 0.44656634 0.6533411 0.5930785 0.7695353 0.7384272
0.47342926 0.29392636 0.04060421 0.28079662 -0.4398059 0.66364217 0.60933495 -0.18447438
0.70302904 -0.3322281 0.7297047 0.5607437 -0.4524024 0.85168165 0.13235405 0.37744895
0.7858116 -0.27577588 0.67618823 0.46028438 0.6812948 0.77913105 0.583435 -0.17301883

backbone1.2.block.0.1.running_mean f4 [72]
00000000: d528 863c e803 aa3c ec70 393d f3f0 513c
00000010: c46c 57bd fa04 ce3c 6d02 afbd 8f9f c43c
00000020: e9b3 12bc a66b 99bd 79e0 02bd 8b3f 973c
00000030: 2141 84bb 9fb6 f3bc 8111 f3ba 5364 692e
00000040: 199b de3b e492 3ebd c8a0 2bbd c7c0 86bd
00000050: ff39 96b0 2ea5 89bd e2f6 fcba a686 873d
00000060: 74e8 8dbd 85f1 11bd 69e7 0e3b 6177 073d
00000070: 7bb1 33bc eb25 43bb d630 eebd e608 113d
00000080: c4b2 3abd 9fda 563d ac31 dcbd ba27 eaae
00000090: bacb 302f 7436 74bd 2fe6 9c2f c81e 66bb
000000a0: 73da 1bbd 6877 31bd a22e 3ebd ff63 0dbc
000000b0: 11ba 063d 420c 273d e6aa d93c a087 aebd
000000c0: 6f5b b83b b9e2 a93d 4208 593d 5b90 243c
000000d0: 202f 55bd cf63 483d a545 873d 9aae c63c
000000e0: 59a6 05bd 6866 98bd f27b 01bd fc01 1e3d
000000f0: bf29 d4bd b86e b3bb 0b2f 51bd 8d05 f53c
00000100: a888 de3c c2bc 29bd c63e 183d 6091 0ebd
00000110: 3678 813c d5ca da3a 3f9e eb3b 636d 8ebb
0.016376892 0.020753816 0.045273706 0.012813794 -0.05259396 0.025148857 -0.085453846 0.024001865
-0.008954027 -0.074912354 -0.031952355 0.018462917 -0.0040360843 -0.029750166 -0.0018544645 5.3067172e-11
0.0067933914 -0.046526805 -0.04190138 -0.06579738 -1.093042e-09 -0.06720959 -0.0019299651 0.06617479
-0.069291025 -0.03563072 0.0021805412 0.033072833 -0.010967608 -0.002977724 -0.116304085 0.035408877
-0.04558064 0.052454587 -0.10751662 -1.0648145e-10 1.6079485e-10 -0.059622243 2.853979e-10 -0.0035113562
-0.038050126 -0.043326765 -0.04643119 -0.008629798 0.03289229 0.040783174 0.026570749 -0.08521962
0.005626134 0.08295197 0.05298639 0.010044183 -0.052046895 0.04892331 0.066050805 0.024253178
-0.032629345 -0.074414074 -0.031612344 0.03857611 -0.10359525 -0.005475845 -0.051070254 0.029909873
0.027164772 -0.04143978 0.03716924 -0.03480661 0.015804391 0.0016692529 0.0071904953 -0.004346536

backbone1.2.block.0.1.running_var f4 [72]
00000000: 017d 3341 d778 3340 3bd5 5441 f5ea 9540
00000010: 6322 eb3f 37e3 4e3f 9c47 8d41 0eb1 af40
00000020: d0c0 ab3f c2df 1541 bd0a 8041 2661 b440
00000030: 5a41 ee3f 0b97 8e41 66a6 d340 9970 1526
00000040: cab6 9441 0da2 2941 bda4 8740 c02d 4140
00000050: ed40 2927 20ba 1642 525f c640 c883 1340
00000060: e3c6 7c40 29ca 893f 0e09 5441 96c8 4d41
00000070: 36b7 f840 67bf e53f 4c77 4d41 aec2 c641
00000080: f61f 3440 3739 2640 1279 be40 5349 1425
00000090: b5ad 1825 a763 2c40 1bca b724 1ff5 6040
000000a0: 3e68 4440 aa20 7a41 eb3e 423f 0d5e 5540
000000b0: 96fa c340 6d49 373f 752b 1141 7462 9b40
000000c0: 23c2 8e40 f475 3441 3aeb 0340 068e 6642
000000d0: 5d94 b841 b6e0 2d40 d69b 1a40 20bf 0341
000000e0: 2ede 3f40 5374 1941 7697 e03f b0f1 9c40
000000f0: 8770 ec41 3b48 0641 c2f8 1e40 e027 0440
00000100: 3c6a 7040 d026 ba41 8938 d93f 5ca5 993f
00000110: 809b 9040 2a0a 7c40 f0cc d73f 2057 8641
11.218019 2.8042505 13.302058 4.6849313 1.8369869 0.8081545 17.659966 5.490363
1.3418217 9.367128 16.005243 5.636859 1.8613694 17.823751 6.6140623 5.184736e-16
18.589252 10.602063 4.2388597 3.0184174 2.3488658e-15 37.681763 6.199136 2.3049183
3.949639 1.0764819 13.252211 12.861471 7.7723646 1.7949036 12.841625 24.845058
2.8144507 2.597242 5.952279 1.2861797e-16 1.3242753e-16 2.6935823 7.970598e-17 3.514961
3.0688624 15.632975 0.75877255 3.3338654 6.124339 0.71596414 9.07311 4.855768
4.4611983 11.278797 2.061232 57.638695 23.072443 2.7168403 2.4157615 8.234161
2.9979358 9.590899 1.7546222 4.904503 29.554945 8.392634 2.483933 2.0649338
3.756484 23.268951 1.6970378 1.2003589 4.518982 3.9381204 1.6859417 16.792542

backbone1.2.block.1.0.weight f4 [72, 1, 3, 3]
00000000: 5aae 1ebd 96ae 943d b00a 3fbe 8495 9abe
00000010: 0adb dcbe 1f5a debe c1bc 90be 37d2 8fbe
00000020: b633 bfbe 3396 3e3e 7029 c63d 87e5 12bf
00000030: adec 673e 01a2 853f cefe c93e f102 89bf
00000040: 60aa fbbe 7a77 c83c 928d 20be bbf2 9bbe
00000050: 500e 5dbe f3b6 9abe 8ab1 0dbf 4f8b 1dbf
00000060: 0de9 78be 4b11 e3be 4c70 c4be 8e2e eebe
00000070: f147 21bf 1fb9 bfbe 9b32 d83d cbfa 3cbc
00000080: 4bda 553e 2c59 8cbd aba5 4dbd c76e 1ebd
00000090: 41ab e1bc 86c5 13bf 0fd5 253f 5c46 c93e
000000a0: b5e7 b43f b95b f4bf 5e9d 8bbe 0f54 7cbf
000000b0: 5209 8d3f ec7d b83d 26df 1e3b 7445 11be
000000c0: 5bad 543e 091d 063e 0a8e 77bf 7a29 3d3e
000000d0: f2aa 5b3e 6716 21bf 0faf 4dbd 0b8e dbbd
000000e0: 5ace 52bd 2486 fbbd 95b6 ffbe 1112 b5be
000000f0: 6800 27be 43f2 f8be b7d2 b1be a741 74be
00000100: fd42 103e 05f3 7b3e f4c6 953d 4513 6abf
00000110: 17df 4c3f bf39 913e 4c2d 6cbf ec3b cd3e
00000120: a421 a53d f0f6 7abd 02a3 f0bd 4804 1e3f
00000130: 2d36 18bf 3559 943d 2b60 2b3f 9e54 33bf
00000140: fbc4 563e 91bc 31bd 5437 60be 5ca5 8cbd
00000150: f0c4 59be 5081 0ebf 6238 d0be 544d 06be
00000160: 4344 c5be e465 cebe a633 edbd 997b 073d
00000170: 9ec0 d1bd 58de 90be 1284 d7be 7a13 88be
00000180: d0dd 7dbe 5cba dfbe 88d6 99be 7550 cabd
00000190: 1ffe 8b3e 6cd0 213d ee86 913e ac3a 263f
000001a0: 1d9c 9cbf 299b 133e 89f7 c83e ad2e 7bbf
000001b0: d121 22bd 67f2 1a3d 6656 e4bc 8adb 063e
000001c0: 053f 96be cfef e7be cf5d f03d 0664 bbbe
000001d0: 2245 0abf 085b 913e 4abd be3e ff5e 363e
000001e0: e27d 973e b09b 0f3f 2ae3 ce3e 73fb 223e
000001f0: b2e1 283f 646a 073f 53c2 083d 4729 ff3d
00000200: df4d 9b3e 20fc e43d 008c 09c0 fc59 583e
00000210: d0c8 523e a5ba 4b3d 7333 a83e 5938 9fb0
00000220: 64df 84b0 5745 b4b0 907a 42b0 dcc8 cdb0
00000230: d3eb a7b0 48f9 c4b0 09d6 90b0 ad07 d6b0
00000240: 1f4d b6bc 5ee0 443e cbdf 3d3b 4ccc 8a3e
00000250: 5fcd 683f 7362 023f 4d76 7b3e 7554 263f
00000260: d8eb 0f3f 5627 bc3d a1db edbd ff83 adbd
00000270: e2e5 3cbe 2499 69bf d64c 4fbf 71fb f4bc
00000280: a81a 04bf 1000 0fbf 9446 503d 71d9 98bb
00000290: bcab 373d b12b 82bb a3bf ab3e 90bb 073f
000002a0: 84f2 a03c e121 a03e d7fe 263f bedc 533e
000002b0: ccc6 173f e5a7 38bf 19fb 32bf ed45 b23e
000002c0: 3ec6 e43f 7143 df3e bc26 f0bf 5fa3 1abe
000002d0: dc0f a531 b7dd 0832 b515 0532 a7b6 4431
000002e0: fb35 5532 90de c731 c0e4 5c31 9d2c 36b0
000002f0: 452a b231 cc8e 1f3e 61db ba3e fe7e 893e
00000300: fba2 c63e 827f 503f 2715 033f 8070 643e
00000310: 3df0 1c3f 7937 973e c11c 023e 1461 683e
00000320: ea05 183e 0934 a33e a1df 143f 65ca cc3e
00000330: 3485 673e 3160 f83e 6106 b73e 7b79 0e3d
00000340: 8929 fe3e 50f0 153f 18fa 66be c2f3 febf
00000350: 8d99 d0bf eb00 523e 20cd bc3f 7841 953f
00000360: 6aee 943d 5394 21bc 4a26 b0bd 5fad 203d
00000370: 9c31 65be d82a 64be fa58 d3bd c3dd b0be
00000380: 2b76 b0be 402a c33c c8d6 91be 012e 913e
00000390: d9a2 b2bd 0d3c be3f ae32 babf c0c6 1f3d
000003a0: e24a 82bf 19ab 793f e229 efbc f4ac f8bd
000003b0: 3dd8 7fbc 0554 fcbd 2fa5 0dbf 647a 65be
000003c0: e7d5 1ebe 9a72 e6be 7359 90be 20d3 5abe
000003d0: 88b4 dabe 6780 a3be 54eb 83be d6ba 16bf
000003e0: 5221 b3be d02a 9b3d 91db 94bc eff1 fc39
000003f0: 38d8 a23c 5b4e 36be 1bc5 80bd 7f90 efbd
-0.038740493 0.07259862 -0.1865642 -0.30192196 -0.43135864 -0.43428132 -0.28269008 -0.2809007
-0.3734414 0.18611984 0.09675872 -0.5738148 0.22648878 1.0440065 0.39452213 -1.0704023
-0.49153423 0.024471033 -0.15679005 -0.30458626 -0.21587491 -0.30217704 -0.5534903 -0.61540693
-0.24307652 -0.4434913 -0.38366926 -0.46519893 -0.630004 -0.37445924 0.10556527 -0.011534403
0.20884053 -0.06852946 -0.05020682 -0.038679864 -0.02754748 -0.5772327 0.64778227 0.39311492
1.4133211 -1.9090492 -0.272685 -0.98565763 1.1018469 0.09008393 0.0024241894 -0.1418665
0.20769255 0.13097014 -0.9670111 0.18472853 0.21451929 -0.6292481 -0.050215777 -0.10720452
-0.051466323 -0.12281445 -0.49943987 -0.35365346 -0.16308749 -0.4862233 -0.34731075 -0.2385317
0.14088054 0.24604423 0.07313338 -0.9143565 0.8002791 0.2836437 -0.9225662 0.4008478
0.08063057 -0.061270654 -0.11749841 0.6172528 -0.59457666 0.072435774 0.66943616 -0.7005099
0.2097358 -0.04339272 -0.21896106 -0.06867477 -0.21266532 -0.55666065 -0.40668017 -0.13115436
-0.38528642 -0.4031211 -0.11582117 0.033076856 -0.10241817 -0.28294635 -0.4209295 -0.2657736
-0.24791646 -0.43696868 -0.30046487 -0.09878627 0.27342317 0.039505407 0.28423256 0.64933276
-1.2235142 0.14414658 0.39251354 -0.98118097 -0.03958303 0.03782883 -0.02787323 0.13169685
-0.29344955 -0.45300147 0.117366426 -0.3659975 -0.5401174 0.28389764 0.3725379 0.17809676
0.29588228 0.56096935 0.40407687 0.15916233 0.65969384 0.52896714 0.033388447 0.12459045
0.30332848 0.111809015 -2.14917 0.21128076 0.20584416 0.049738545 0.32851753 -1.1584788e-09
-9.667755e-10 -1.3116431e-09 -7.075096e-10 -1.4972801e-09 -1.2217874e-09 -1.4331727e-09 -1.0538211e-09 -1.5572731e-09
-0.022253571 0.19226214 0.0028972502 0.2710899 0.9093837 0.5093147 0.24556847 0.6497262
0.56219244 0.0918719 -0.116141565 -0.08472442 -0.18447068 -0.912493 -0.8097662 -0.029905053
-0.51603174 -0.5585947 0.05084856 -0.004664593 0.044841513 -0.0039724936 0.33544645 0.5302057
0.01964689 0.31275848 0.65232605 0.20689675 0.59287715 -0.72131187 -0.69914395 0.34818974
1.7872999 0.4360614 -1.8761821 -0.15101384 4.803935e-09 7.966654e-09 7.7465545e-09 2.862558e-09
1.24105055e-08 5.8169647e-09 3.2144243e-09 -6.6274614e-10 5.1852873e-09 0.15581816 0.36495498 0.268547
0.3879622 0.8144456 0.5120415 0.2230854 0.61304075 0.2953451 0.12706281 0.22693282
0.14846006 0.31875637 0.5815373 0.39998165 0.22609407 0.48510888 0.35747054 0.03478382
0.49641064 0.5856981 -0.2255634 -1.9918139 -1.629686 0.20508163 1.4750099 1.1660604
0.072720364 -0.009862023 -0.08601053 0.03922784 -0.22382206 -0.22281969 -0.10319705 -0.3454419
-0.34465155 0.023823857 -0.28484178 0.2835541 -0.08722467 1.4862076 -1.4546716 0.039007902
-1.0179102 0.975267 -0.029194776 -0.12142363 -0.01561552 -0.12320713 -0.55330175 -0.2240997
-0.15511285 -0.4500931 -0.28193244 -0.213696 -0.4271586 -0.319339 -0.2576548 -0.5887884
-0.3498636 0.07576525 -0.018171104 0.0004824544 0.019878492 -0.17803328 -0.06287595 -0.11697482

backbone1.2.block.1.1.weight f4 [72]
00000000: a830 a33f 258b 663f eb3f 193f af27 343f
00000010: 7dbd 653f b4f5 8d3f ce79 e53e bd27 4b3f
00000020: 007f 8b3f e199 7e3f 8041 0640 1ba6 873f
00000030: 9c72 b63e 013a 1b3f 726b af3f edc2 2532
00000040: 1241 6b3f 2f37 813f ff80 d53e a937 203f
00000050: 6d2f 9232 bd44 663f 79be b53e 071f 9d3f
00000060: e7f9 383f 1e9b af3f b4da 843f 9625 833f
00000070: 411a a83f ebe2 933f 1345 713f 065f fa3e
00000080: ab9d 933f 3249 f83e 5498 713f f82d 8c31
00000090: c905 8931 0a95 ce3e af21 5b31 1ec7 843f
000000a0: 659e 5c3f 0f67 973f e9e1 ac3f 619f 5e3f
000000b0: b28e 8a3f f283 a53f 333d b33f cbd3 193f
000000c0: e3a8 833f e253 f23f 48ef 653e b1fa 8c3f
000000d0: 7c2a d13e 5a67 833f 62b7 203f ef52 733f
000000e0: cca8 963f 843d 323f a3f1 833f b784 543f
000000f0: 2021 2a3f f6c2 743f 07f7 fb3e 8f5f 5a3e
00000100: dfdc 623f 53b9 253f 14fa 743f fc1b 813f
00000110: 4751 9f3f b707 933f 2e2a 5b3f 948c a63f
1.2749224 0.9005607 0.59863156 0.7037305 0.8974226 1.1090608 0.44819492 0.7935751
1.0898132 0.9945355 2.0977478 1.0597566 0.35634315 0.6063538 1.3704665 9.648585e-09
0.91896164 1.0094966 0.4169998 0.6258493 1.7018204e-08 0.89948636 0.35496882 1.2275094
0.7225632 1.3719213 1.0379243 1.0245845 1.3133012 1.1553625 0.94246024 0.48900622
1.1532491 0.48493344 0.9437306 4.0797623e-09 3.9878825e-09 0.40348083 3.1887841e-09 1.0373266
0.8617919 1.1828326 1.3506442 0.8696194 1.0824797 1.2930892 1.4003052 0.60088795
1.0285915 1.8931849 0.2245456 1.1014005 0.40852726 1.0265915 0.6277982 0.9504842
1.1770263 0.69625115 1.0308117 0.83015007 0.66456795 0.95609987 0.49211904 0.21325515
0.8861827 0.6473591 0.9569409 1.0086665 1.2446679 1.1486729 0.85611236 1.3011651

backbone1.2.block.1.1.bias f4 [72]
00000000: b830 413f f93d 573d d602 2e40 7c4c ed3c
00000010: e6b6 d0bd b284 9cbd aa61 9b3f 5d15 96bd
00000020: 2f4a ac3d a9f2 143f 3896 c9be 7939 75be
00000030: 87dd 013f 6560 213f c8b3 b6be c162 0e32
00000040: e5e3 4f3f 2fbb d73c 16bf be3e df60 5dbd
00000050: d4c6 93b2 0b27 353f 60fb bf3e 3c24 5e3d
00000060: c68f 8b3d 8dd2 24bb 62b8 5a3e 278b 5ebe
00000070: 158c 623e ff1d 86bd 7f38 33be 4cbb 4240
00000080: 2fb5 26be 2b98 0a3e 7338 403f f70a 80b1
00000090: 1f01 6fb1 e393 bd3e 98bd c6b1 ff35 59bd
000000a0: 04ef f73d c374 c8be 5fe6 52be 2aa3 dd3d
000000b0: f39f 86bd a7b4 0cbe 6f65 6cbe 56a1 333f
000000c0: 38c8 eb3c 1796 cfbe 5216 533e 8df6 4c3f
000000d0: 2056 3040 00ae 10ba 0530 3b3d 4cfd e53e
000000e0: bd11 1dbc 3ca9 5b3f c275 233c ed5e fe3b
000000f0: 6a43 263f ef8f 00bd 570f 0c3f 4da5 333e
00000100: 3db1 5cbd b762 0e3f bd35 8ebb e755 563c
00000110: d428 6dbc d33d 7c3d 911b febc 3dc2 5fbe
0.75464964 0.052549336 2.718923 0.028967135 -0.10191135 -0.07642497 1.213918 -0.073282935
0.08412587 0.5818277 -0.3937242 -0.23947705 0.5072865 0.6303771 -0.35684037 8.287942e-09
0.81207114 0.026334373 0.37255162 -0.05404746 -1.7203469e-08 0.707627 0.3749647 0.054233775
0.06814532 -0.0025149912 0.21359399 -0.2173277 0.2212375 -0.0654869 -0.1750202 3.0426817
-0.16280054 0.1353461 0.75086135 -3.726537e-09 -3.4779715e-09 0.3702689 -5.7841127e-09 -0.05303001
0.121061355 -0.39151582 -0.20595692 0.10822137 -0.06573477 -0.13740788 -0.23085569 0.70168054
0.028781995 -0.40544197 0.20613983 0.80063707 2.7552567 -0.0005519092 0.045700092 0.44919813
-0.009586749 0.85805106 0.009976806 0.007762781 0.64946616 -0.031387266 0.54710907 0.17543526
-0.053879965 0.55619377 -0.004339902 0.013082004 -0.014475066 0.061582398 -0.031019004 -0.2185144
