Grasping/grasping/grasp_mobilenet_2.pt (torch, 374618 bytes, 93 tensors)

backbone1.0.0.weight f4 [16, 3, 3, 3]
000000 e0 c5 81 3f b3 b1 99 3f 10 d6 7d 3f 46 92 89 3f
       1.0138512 1.2007354 0.9915476 1.0747764
000010 6f 0c 9c 3f f1 e2 78 3f 68 50 02 3e 73 d4 3f 3e
       1.2191294 0.97221285 0.12725985 0.18733387
000020 f8 ac e5 bc 69 91 29 bf fa db 70 bf 0b bb 5e bf
       -0.02803658 -0.66237503 -0.9408566 -0.87004155
000030 7e a4 2f bf 39 70 7a bf 80 16 43 bf 51 8b 14 3d
       -0.6861037 -0.9782749 -0.7620621 0.036265675
000040 f5 5e 62 bd 83 cc 39 bd af 34 8c 3d b6 0a 7d bc
       -0.05526634 -0.045361053 0.06845986 -0.015444448
000050 44 79 af bd cf 86 65 3d 6f 7d 98 bd 4a 0f 67 bd
       -0.085680515 0.056036767 -0.074457996 -0.056411065
000060 8c 23 20 3d 89 b6 0d 3d 84 7e 28 bd 79 7a 13 bd
       0.0390964 0.034597907 -0.04113628 -0.03600547
000070 5f 49 d7 bc 6f 23 74 bc ca d4 c5 3e 17 0d 3d 3f
       -0.026280103 -0.014901026 0.38638908 0.738481
000080 b9 22 e4 3e 72 be bb be f3 b5 3b bf 0f 54 bb be
       0.4455774 -0.36668736 -0.7332451 -0.3658757
000090 9e 84 f6 39 0f 83 10 bb 8d 35 80 bc 73 7e 4c 3f
       0.00047019584 -0.0022050773 -0.015650535 0.79880446
0000a0 23 ad d3 3f 12 d9 6c 3f 6b 24 48 bf a6 a9 db bf
       1.6537212 0.92518723 -0.7818057 -1.7161148
0000b0 ea c1 66 bf 83 fa 3c 3c 13 c0 c8 3c 79 80 bf 3b
       -0.9013964 0.011534336 0.02450565 0.0058441726
0000c0 41 42 42 3e 3a 24 a5 3e 95 0b 49 3e a4 77 08 be
       0.18970586 0.322542 0.19633324 -0.1332689
0000d0 4d 81 9e be ac 98 17 be 4d 00 1f 3e b0 d6 d9 3e
       -0.30958024 -0.14804333 0.15527458 0.42546606
0000e0 2e 74 96 3e ec 28 05 3f d3 10 4b 3f 75 9e 10 3f
       0.29385513 0.52015567 0.79322547 0.56491786
0000f0 f0 b9 35 3e 12 ba e5 3e 21 d3 a7 3e 2a 19 39 bf
       0.17746711 0.44868523 0.32778266 -0.7230402
000100 1c 2e b8 bf 1e 9f 7f bf 1d 17 a3 bf 65 8b 0c c0
       -1.4389071 -0.9985217 -1.2741429 -2.196008
000110 21 3c df bf 3a 0f 4b bf 4e 7f c0 bf f9 f3 8a bf
       -1.7440225 -0.7932011 -1.503885 -1.0855705
000120 43 fc d1 3e 08 b3 4f 3f c2 34 18 3f 7f f0 3d 3f
       0.41012773 0.81132555 0.594555 0.7419509
000130 6a 98 92 3f ed 28 6b 3f c2 3a aa 3e f8 8e 3b 3f
       1.1452763 0.9185932 0.33247954 0.7326503
000140 4f a6 0e 3f 54 e8 cf 3b 99 ca a4 3e 15 b4 03 bf
       0.55722517 0.0063448343 0.3218582 -0.5144666
000150 c3 40 ee bd 07 64 99 3e c8 83 4c 3e ef 26 b2 3e
       -0.11633446 0.29959127 0.19972146 0.3479533
000160 f6 7a e7 be c3 df 39 3e eb 0e b6 be bb c5 b2 3d
       -0.45211 0.18151765 -0.35558257 0.0872912
000170 f5 e7 08 3e 74 ac f8 bd 39 c7 73 be 95 d6 f0 ba
       0.13369735 -0.12142268 -0.23806466 -0.0018374497
000180 f3 20 14 40 e0 44 23 be b8 48 72 be c3 ac 8e bd
       2.314511 -0.15944242 -0.23660553 -0.069665454
000190 17 0b 38 be f3 f3 91 bc 4d 91 66 3e 5d f9 52 3c
       -0.1797298 -0.01781652 0.22516365 0.012876836
0001a0 23 eb fa bd 62 b6 ab 3d d9 1a f0 3d fb 31 71 bd
       -0.1225188 0.08384396 0.11723871 -0.058885556
0001b0 0d e1 a3 be b3 b1 c1 3e 77 20 c1 bd e0 98 e6 be
       -0.32007638 0.37830886 -0.0943002 -0.4503851
0001c0 43 f4 36 3f 1d d2 42 be 0b 2e 81 be d2 20 b4 3e
       0.71466464 -0.19025464 -0.2523044 0.3518129
0001d0 13 8b d7 bd 27 c9 23 bf b0 3b 6b 3f b6 52 88 be
       -0.10524573 -0.6397881 0.9188795 -0.26625603
0001e0 7f 68 75 bf 63 98 c7 3f 2d c7 dc be c0 81 df be
       -0.95862573 1.559338 -0.4312071 -0.4365368
0001f0 ab db 37 3f 0e 7c 54 be 01 a2 18 be d0 d4 28 3e
       0.7181956 -0.20750448 -0.1490555 0.16487432
000200 81 19 90 bd 16 74 3d be b3 d1 b4 3e 3f 8f 0b be
       -0.070361145 -0.18501315 0.35316238 -0.13628863
000210 b4 0c dd bd 3b e7 06 3e e5 ed 9e bd bf 96 d2 be
       -0.107934386 0.13174145 -0.077602185 -0.41130635
000220 3f ac c2 3e 4f 26 02 3e 08 35 47 bf 81 ba 14 3f
       0.38022038 0.12709926 -0.77815294 0.5809708
000230 cb 30 42 3e 73 2e e5 be 75 3b a0 3e 74 e6 4f 3c
       0.18963926 -0.44762 0.31295362 0.012689222
000240 e9 5a 70 bf 95 04 48 3f c5 30 99 3e 24 cd dd bf
       -0.9388872 0.7813199 0.2992002 -1.7328229
000250 42 bf 9c 3f 84 cb d5 3e 2d 40 5d bf 4c fa 24 3f
       1.2245867 0.41756833 -0.8642605 0.6444442
000260 62 33 e1 3d 5c 72 41 be 6a 5f 5d 3e 21 d7 8a 3d
       0.109961286 -0.18891281 0.21618429 0.06779314
000270 46 d0 a9 be 7d 26 89 3e fa e0 ab 3d 8d 2e 38 be
       -0.33166713 0.26787177 0.0839252 -0.17986508
000280 54 01 11 3e 1e 16 45 bd 29 21 cd 3d 8d bc 3c 3e
       0.14160663 -0.048116796 0.100160904 0.18431301
000290 b7 8b 40 3e 79 c7 d4 bd 60 3f 8f be 61 c3 75 be
       0.18803297 -0.10389609 -0.2797804 -0.24000312
0002a0 af a2 7e be a8 22 8b be 59 11 b1 be d6 9d 0d 3e
       -0.24866746 -0.27174878 -0.34583548 0.13829741
0002b0 a2 7d 4a 3e 21 e4 37 3e d5 12 94 be d2 a0 14 bf
       0.19774488 0.17958118 -0.28920618 -0.5805789
0002c0 68 22 0c bf db 81 e4 be ef 9a 2c bf eb 12 3a bf
       -0.5474 -0.44630322 -0.6742391 -0.72685117
0002d0 0b fb a9 3c 0f 04 d7 3d b5 7c 95 3d cc 67 06 bc
       0.02074959 0.10498821 0.072991766 -0.008203458
0002e0 94 38 2b be 68 41 b2 bd 8d 1e af bd 89 34 ee bd
       -0.16720802 -0.087038815 -0.08550749 -0.11631114
0002f0 e7 11 05 be 30 14 71 3e 93 23 b9 3e 00 d1 e9 3d
       -0.1299511 0.23542857 0.36159953 0.11416817
000300 34 57 b8 bc 4d 96 54 be 9f 5f 1d be 08 7b 8a be
       -0.02250252 -0.2076046 -0.15368508 -0.2704699
000310 07 12 51 bf 8c fc 03 bf c3 f7 07 3f ae de 40 3f
       -0.8166813 -0.5155723 0.5311243 0.7533978
000320 25 4c 7d 3e 6c f5 8b bd 68 2d ca be 93 8f 9b be
       0.24736078 -0.0683392 -0.39487767 -0.30382976
000330 05 8c 0a bf a5 0b b3 bf ee e6 50 bf 8d c7 59 3e
       -0.541199 -1.3987929 -0.8160237 0.21267529
000340 22 4b 39 3e e2 46 84 3d 1b 12 42 bb 41 47 d2 bd
       0.18095067 0.06458832 -0.0029612842 -0.10267497
000350 a6 30 0d bd 54 f6 f8 bd c7 f3 c1 be d4 bd 28 be
       -0.034470223 -0.12156358 -0.378813 -0.16478664
000360 db 59 9c 3c 21 c2 c2 be 0d 2b 6e 3e 12 e8 d6 bb
       0.019085815 -0.38038734 0.2325861 -0.0065584267
000370 02 5a 0f bf a8 50 1b 3f 9a 2d 70 3d fa 55 96 be
       -0.55996716 0.60669947 0.05863724 -0.2936247
000380 a9 ab eb 3e 1d 29 70 3c 08 f7 4e bf fe 92 2e 3f
       0.46029404 0.01465824 -0.8084569 0.6819304
000390 54 b2 21 bc ce 2a ab bf 8d 62 a8 3f fd 7c cf 3d
       -0.009869177 -1.3372438 1.3155075 0.101312615
0003a0 26 3b 35 bf 51 5c 53 3f 9d 49 e8 3b e9 d9 4d be
       -0.7079338 0.8256274 0.0070888535 -0.20102657
0003b0 a7 d0 af 3d f9 47 c9 3c 31 78 79 be 1f 83 8b 3e
       0.08584719 0.024570452 -0.24362256 0.27248475
0003c0 6e f5 45 3d 1c 71 d4 bd 55 2c 54 3e 65 34 26 be
       0.048329763 -0.103731364 0.20720036 -0.16230924
0003d0 df 21 2f be c7 6f 06 be 0f 56 87 bd 86 28 9b bd
       -0.17102765 -0.13128577 -0.06608211 -0.075760886
0003e0 85 38 95 bd f5 e9 1a bd ff 49 df bd aa 3e 3f bd
       -0.07286171 -0.037820775 -0.109027855 -0.04669062
0003f0 ec ff 5b bf 33 19 85 bf e0 62 59 bf a1 b2 48 bf
       -0.8593738 -1.0398315 -0.84916496 -0.78397566

backbone1.0.1.weight f4 [16]
000000 8c be b5 3e 41 fa 98 3f f3 27 01 3f 3d 48 01 40
       0.35496938 1.1951371 0.5045158 2.020034
000010 45 5d b4 3e 18 b0 20 3f d4 80 98 3d 0e c7 bf 3d
       0.3522741 0.627687 0.07446447 0.093641385
000020 ee 07 fa 3e 3e 25 0e 3f 28 54 f7 3e 46 08 0e 41
       0.48834175 0.5552558 0.48306394 8.87702
000030 4c 5a ba 3d c1 94 1a 3e 83 a0 98 3d 39 ad 36 40
       0.09099254 0.15095808 0.0745249 2.8543227

backbone1.0.1.bias f4 [16]
000000 8b aa 90 40 42 2c 24 40 a2 57 2f 40 fa 0d 26 c0
       4.520818 2.5652013 2.7397237 -2.594603
000010 9c 81 31 40 a7 9b 29 40 38 b1 92 3e fc 6a 3d bd
       2.7735357 2.6501253 0.28650832 -0.046244606
000020 49 28 2a 40 0e 42 2b 40 1e 8d 2a 40 be 74 3f bf
       2.6587088 2.6759067 2.664863 -0.7478751
000030 67 9d b7 3e e4 ca e2 3e 96 8c 8f 3f 4b 74 25 c0
       0.35862276 0.44295418 1.1214778 -2.585223

backbone1.0.1.running_mean f4 [16]
000000 64 e2 ba 3f ed 7b f0 3d 07 ba c1 bf 0b c5 be 3f
       1.4600339 0.11742387 -1.5134896 1.4903883
000010 be 61 90 3e 7f 70 01 3e ea a8 73 c0 cd b5 5a c0
       0.2819957 0.1264057 -3.8071847 -3.4173462
000020 fa 9e 81 3e 4b e6 f1 be 45 ac b0 bf 03 6d 86 bf
       0.25316602 -0.47246012 -1.3802572 -1.0502018
000030 f4 0c 89 c0 dc 76 60 40 62 2a 89 40 59 d9 05 c0
       -4.282831 3.5072546 4.2864237 -2.0913908

backbone1.0.1.running_var f4 [16]
000000 63 ba d8 3d 1f bc 8e 3d 45 76 51 3e c8 02 3a 3e
       0.105824254 0.06969475 0.20455272 0.18165123
000010 3e 10 a8 3e 2a 1d 6b 3f 34 1c 4e 3e b9 c9 b4 3e
       0.32824892 0.91841376 0.20127946 0.35310152
000020 ee 91 a4 3c fe c8 97 3d 1c 82 03 3e b0 6a 2b 3e
       0.020089116 0.07411383 0.12842602 0.16739917
000030 78 26 b0 3e f4 b6 02 3e 61 91 b2 3e 40 f9 c8 3e
       0.3440435 0.12765104 0.3487654 0.39252663

backbone1.1.block.0.0.weight f4 [16, 1, 3, 3]
000000 b5 06 7e be 93 9c e5 3d 55 b8 36 3e 7c 0e 25 40
       -0.24807246 0.11211505 0.17843755 2.579009
000010 51 16 bf 3e 4f 53 2f c0 21 0d 02 40 00 36 87 3e
       0.37321714 -2.7394598 2.0320513 0.26408386
000020 44 18 13 c0 88 2f 4a be 1b c5 24 bf b0 08 96 be
       -2.298356 -0.19744694 -0.6436326 -0.29303503
000030 42 c1 e9 3e 8e 95 94 3f 63 63 41 3f 9f 99 82 be
       0.45655257 1.160814 0.7554228 -0.2550783
000040 d2 23 70 bf 80 60 0e bf 56 96 df 3a 44 b7 ab bc
       -0.9380466 -0.55616 0.0017058353 -0.020961411
000050 0d ba 86 3d 5b 4b f7 3c 33 9c 36 bf 9f a2 7a bf
       0.06578455 0.0301873 -0.7133209 -0.9790439
000060 2e 41 41 3d 16 a6 0f bf b2 4d 4f bf 24 94 62 be
       0.0471813 -0.561128 -0.8097793 -0.22126824
000070 cb 63 aa 3e 5a 3b 17 3f a9 ba ba be 2f 09 93 3e
       0.3327926 0.5907494 -0.36470535 0.28717944
000080 5b a1 19 3f 7a 07 c6 bd e6 17 03 be b6 f7 da 3c
       0.60011834 -0.09669395 -0.12802085 0.026729446
000090 c9 77 37 3c 11 b2 3a 3e 4d 8c bc bd f0 05 e7 bd
       0.011197993 0.1823199 -0.09206448 -0.11280429
0000a0 35 d4 a7 3f 90 2a a2 bf a2 bb fc bd 3b 3d 85 3f
       1.3111635 -1.2669239 -0.123404756 1.0409311
0000b0 98 1e 6b bf 4a 1b 69 bd 99 ff 9a 3e 7d e2 59 be
       -0.9184356 -0.05691079 0.3027313 -0.21277805
0000c0 a2 5a 25 3d 95 81 9c 3f 72 27 bf bf 4f fa d6 bc
       0.040369637 1.2227045 -1.4933913 -0.026242403
0000d0 86 62 64 3f f5 56 6e bf b8 cc 05 40 91 19 0f 3d
       0.89212835 -0.93101436 2.09062 0.03493649
0000e0 e5 3e 10 c0 bf cf 81 40 0a 9a 8b bd e1 43 83 c0
       -2.2538388 4.0566096 -0.0681649 -4.102036
0000f0 c4 de 71 3f b4 3c ce 3c 33 61 7a bf 25 33 87 be
       0.9448054 0.02517543 -0.97804564 -0.26406208
000100 08 ec 0f bf 61 72 f9 be c7 80 9e be a9 0d 41 bf
       -0.5621953 -0.48720077 -0.30957624 -0.7541147
000110 c6 0d 06 bf 8f 2c 27 3e 3e fe 0e 3f a9 dd 2f 3e
       -0.52364767 0.16325592 0.5585669 0.171744
000120 e0 e8 1c be 3b 73 82 3e 9e bc a1 bd 7c 18 8f bf
       -0.1532321 0.2547854 -0.07897304 -1.1179347
000130 b1 13 81 3f 4d c5 88 bb 49 6b 5e bf ef 76 68 3f
       1.0084134 -0.0041739107 -0.86882454 0.9080648
000140 4c 6e 60 be a6 9f 4a 3e b2 df 13 bd 61 cf 21 be
       -0.21917075 0.19787464 -0.036102004 -0.15801765
000150 c2 9e 0b c0 04 ee e5 be 7b 0c 22 40 85 e5 e7 bf
       -2.1815648 -0.44908154 2.5320117 -1.8116919
000160 50 2d ab be 78 db 0d 40 21 d6 e0 3d e5 83 bc 3d
       -0.33433008 2.2165203 0.10978342 0.092048444
000170 fa 5d 62 bc b7 17 9c 3e f5 3e 62 3f 46 2b 55 3f
       -0.013816351 0.30486843 0.88377315 0.83269155
000180 b7 ce 4f 3b 7e ee 11 3f 59 4e 51 3f ac 88 37 3e
       0.0031708905 0.57004535 0.81760174 0.1792323
000190 e4 88 99 3e a5 85 9d 3e 3b 82 87 3e a1 ff 3c 3f
       0.29987252 0.30766025 0.26466545 0.7382756
0001a0 24 cc a9 3e c3 c7 9b 3e 8f f4 c1 3e 6f 81 07 3f
       0.3316356 0.30425844 0.37881896 0.52931875
0001b0 c5 cc 2c 3d 6b 34 4d 40 34 08 2b 40 99 c9 0c be
       0.04218747 3.2063243 2.6723757 -0.13748778
0001c0 38 01 cc 3e 90 d2 8d 3e 67 a2 cd 3d 15 d6 54 c0
       0.3984468 0.2769971 0.100407414 -3.3255665
0001d0 a4 e8 4a c0 8b 6b f9 3f 5c 5d 61 40 5e 74 10 3f
       -3.1704493 1.9485945 3.5213232 0.5642756
0001e0 94 30 20 3f f4 c7 09 3f eb 65 87 bd 2e 82 1e c0
       0.62574124 0.5382073 -0.06611236 -2.4766955
0001f0 17 bd 78 c0 ad dd 43 bf dc f6 55 be df ba 0a 3c
       -3.8865411 -0.76510125 -0.2089495 0.008467405
000200 b1 f4 1b 3e 83 e8 7b 40 d7 81 5b 3e aa 14 81 c0
       0.15230061 3.9360664 0.21436249 -4.0337725
000210 1b 36 63 40 35 87 12 3e e6 d1 67 c0 7b 8f 68 3d
       3.5501773 0.1430939 -3.6221862 0.05677746
000220 96 98 09 3e f2 1f 73 3e c8 80 4c 3e 3d 9d 7b be
       0.13437113 0.23742655 0.19971001 -0.245717
000230 92 74 1e bf 3f 26 62 3e 81 63 01 bf 10 49 4f bf
       -0.6189662 0.22084902 -0.50542456 -0.8097086

backbone1.1.block.0.1.weight f4 [16]
000000 82 c9 ca 3f 23 31 3b 3f ab 1a 9a 3e 07 95 b8 3e
       1.5842745 0.7312185 0.3009847 0.360512
000010 ee 1b c9 3f 0d f0 e0 3e 48 a1 bb 3f 23 39 00 3f
       1.5711648 0.43933144 1.4658594 0.50087184
000020 67 30 36 3f 1a 38 5b 3f 5a 56 8a 3e 37 f1 1a 3f
       0.71167606 0.8563248 0.27019006 0.60524315
000030 53 bb a3 3f 9d a6 d0 3f 72 19 20 40 36 59 46 3e
       1.2791542 1.6300846 2.501553 0.19369969

backbone1.1.block.0.1.bias f4 [16]
000000 ea 4f 26 3e 8c dd ed 3f fc 9e d1 3f bd 64 34 3e
       0.16241422 1.8583236 1.6376643 0.17616554
000010 d4 39 26 3c 8d 43 34 40 07 50 a5 3d 99 09 3f 3f
       0.010145623 2.816623 0.08071905 0.7462402
000020 4a d9 d8 3f 0f 1d a1 3e 6e ec b3 3f 05 c3 ff 3e
       1.6941311 0.31467482 1.4056528 0.49953476
000030 f6 f6 bc 3e 4c fc d3 3c c3 a9 68 be 66 fa ce 3f
       0.36907166 0.02587714 -0.22721009 1.6170166

backbone1.1.block.0.1.running_mean f4 [16]
000000 c3 d5 b8 be 9b c0 74 bf cd dc f6 c0 ef 19 85 be
       -0.36100587 -0.9560639 -7.714453 -0.25996348
000010 a2 7e d0 3e dc 63 ab bd db 95 d5 bd 7e ae 3c 3d
       0.40721613 -0.08368656 -0.10428973 0.046064846
000020 e0 82 ed be dc f7 f3 3e 39 8d 0f 41 2a 0b 0f 40
       -0.46388912 0.4765004 8.971978 2.2350564
000030 bd 14 59 bd 49 14 d3 bd 7f 63 77 be 14 f3 36 bf
       -0.052998293 -0.103066035 -0.24159048 -0.7146466

backbone1.1.block.0.1.running_var f4 [16]
000000 62 d2 cc 41 f3 d6 be 40 bc d7 fd 3f d3 74 84 3c
       25.602726 5.963739 1.9831462 0.016168987
000010 6a cd 08 40 9c 41 9b 40 f2 02 bd 3d 93 ca 08 3c
       2.1375375 4.851759 0.092290774 0.008349079
000020 54 92 ae 3f 2c 27 c5 40 de 20 1a 40 08 0f 02 43
       1.3638406 6.1610317 2.408256 130.05872
000030 29 75 ff 3d cf f7 b4 3e 16 af f6 3f 6e 03 62 40
       0.124735184 0.35345313 1.9272182 3.5314593

backbone1.1.block.1.fc1.weight f4 [8, 16, 1, 1]
000000 cd 6c 7a b0 41 0d ac b1 20 29 26 30 0b f5 98 b0
       -9.1104085e-10 -5.0073656e-09 6.044889e-10 -1.1129101e-09
000010 8d 1b 28 b2 01 3f e0 b0 15 ec a5 b1 d1 cf 85 b0
       -9.785151e-09 -1.6316052e-09 -4.8289714e-09 -9.736089e-10
000020 9b 78 f7 31 7f dd 8a b1 c7 76 18 b1 df ae d8 b0
       7.2023574e-09 -4.04151e-09 -2.2186428e-09 -1.576577e-09
000030 f3 83 57 b1 ab c6 5b b1 88 09 48 b1 81 19 45 31
       -3.1361622e-09 -3.1981624e-09 -2.9109248e-09 2.868177e-09
000040 73 ac d2 b0 75 da 14 b1 a5 86 9b b0 6d 10 a0 b1
       -1.5328524e-09 -2.1661013e-09 -1.1316003e-09 -4.6584803e-09
000050 57 d2 eb b1 d1 25 66 b1 ef d1 75 b1 65 db 6b b1
       -6.863313e-09 -3.3490901e-09 -3.5771526e-09 -3.4321712e-09
000060 9d de 2d 31 45 5d 08 b0 e7 59 17 b0 2b 4b 6a 31
       2.5301354e-09 -4.9609056e-10 -5.506124e-10 3.409421e-09
000070 34 0b 9b b1 95 58 84 b1 a4 32 9f 31 ff a2 03 b1
       -4.5123674e-09 -3.8517762e-09 4.633266e-09 -1.9155662e-09
000080 f3 eb b0 ba df ae 41 ba 87 30 ef ba c1 79 fc b9
       -0.0013498053 -0.00073884235 -0.0018248715 -0.000481559
000090 dd c7 23 ba 10 56 16 ba 7b 12 45 ba 35 89 ec ba
       -0.00062477385 -0.000573487 -0.00075177074 -0.0018046262
0000a0 35 a0 32 ba 90 b5 87 ba 95 9e 39 bb a0 16 69 3a
       -0.0006814034 -0.0010353792 -0.0028323282 0.0008891616
0000b0 55 37 60 b9 a4 55 da b9 47 66 95 ba 71 90 a2 ba
       -0.00021382917 -0.00041644007 -0.0011398279 -0.0012402666
0000c0 75 99 1a b1 f9 79 36 b1 e1 a7 87 31 a5 07 72 31
       -2.249718e-09 -2.655382e-09 3.9481027e-09 3.521998e-09
0000d0 f5 6e 93 b1 28 3e 4a b1 99 52 15 b1 85 40 09 b1
       -4.2908774e-09 -2.94302e-09 -2.1729305e-09 -1.99728e-09
0000e0 e8 63 c8 b1 f5 75 b3 30 b4 6c c3 b0 d9 8d 23 b1
       -5.832124e-09 1.305749e-09 -1.4219013e-09 -2.3800253e-09
0000f0 0d ac 13 b1 8f 58 64 ab 58 30 66 b1 b5 02 0d b1
       -2.1489115e-09 -8.112477e-13 -3.3496885e-09 -2.051974e-09
000100 97 e0 a7 ae e9 8a d9 b1 df 37 d4 b0 5d 45 a6 b0
       -7.634176e-11 -6.3313235e-09 -1.544091e-09 -1.2097804e-09
000110 7d e2 87 b1 30 41 cb 30 1c 61 e0 2f 79 93 95 b1
       -3.954766e-09 1.4788721e-09 4.0814363e-10 -4.3532364e-09
000120 1d b8 19 ad 0d cc d2 b0 f1 04 97 2f 8c 6d b0 b1
       -8.7379244e-12 -1.5337506e-09 2.747025e-10 -5.134728e-09
000130 b7 d2 4b b1 35 27 d4 ae 6b c8 df 30 e5 1f ab af
       -2.9660165e-09 -9.6476084e-11 1.6282348e-09 -3.112738e-10
000140 25 61 b7 b1 45 47 d0 b0 fc 69 4a b2 fd 38 97 b2
       -5.337045e-09 -1.5154248e-09 -1.1782046e-08 -1.7604629e-08
000150 b8 ec 54 b2 af dd e1 30 15 6c b9 b0 fa da 9a af
       -1.2393848e-08 1.6433911e-09 -1.349124e-09 -2.816803e-10
000160 dd 26 4d 32 bd 7b 0c b2 f0 35 9f b1 c7 1e e3 b1
       1.1941407e-08 -8.177207e-09 -4.633641e-09 -6.6100685e-09
000170 f0 21 01 b2 eb 5b 67 b2 16 e3 24 b2 40 c1 17 b2
       -7.516505e-09 -1.3466869e-08 -9.59769e-09 -8.833297e-09
000180 7f f4 64 b1 e4 65 4f b1 fd c9 cc 31 05 f4 16 31
       -3.3317347e-09 -3.0180383e-09 5.960145e-09 2.1966582e-09
000190 d5 4a 48 b1 89 00 0b b1 48 68 af b1 b5 eb 92 b0
       -2.9146368e-09 -2.0227466e-09 -5.1050257e-09 -1.068989e-09
0001a0 b7 5f 8b b1 54 0c b2 af 90 26 76 b1 a5 d0 d7 b1
       -4.056314e-09 -3.238677e-10 -3.5819632e-09 -6.2810437e-09
0001b0 cb 02 2a b2 95 bb 4d b1 f8 e1 b2 af 7d 71 4b b1
       -9.895937e-09 -2.9938054e-09 -3.2538572e-10 -2.9604899e-09
0001c0 a4 5a 9e b0 95 ba c0 b1 03 29 c5 b0 08 cf 54 b1
       -1.1521775e-09 -5.6091474e-09 -1.4345293e-09 -3.0967744e-09
0001d0 9c 2f b9 b1 ac 4d 62 b1 3c bb 71 b1 c5 7b 92 2e
       -5.389621e-09 -3.293148e-09 -3.5176546e-09 6.661297e-11
0001e0 84 67 c2 b0 fd 4e 88 b1 f7 8e 0f b1 83 e7 1d b1
       -1.4144779e-09 -3.967101e-09 -2.0890505e-09 -2.2978106e-09
0001f0 69 30 85 31 07 ef 05 b2 83 e7 4b 30 0f ea 07 30
       3.876313e-09 -7.795967e-09 7.417997e-10 4.944533e-10

backbone1.1.block.1.fc1.bias f4 [8]
000000 91 51 ec b0 95 32 1f b1 a7 7f 2b b9 bd 04 01 b1
       -1.7194443e-09 -2.3166298e-09 -0.00016355385 -1.8774664e-09
000010 a1 2d b1 b0 91 99 96 32 57 60 c2 b1 35 b2 d4 2e
       -1.2891413e-09 1.7532132e-08 -5.6570957e-09 9.6723e-11

backbone1.1.block.1.fc2.weight f4 [16, 8, 1, 1]
000000 9e 24 29 b0 51 dc 4a 31 fd aa 0f 3b 61 26 85 2f
       -6.153388e-10 2.9520104e-09 0.0021921985 2.421983e-10
000010 79 de 00 b1 b1 e5 8a 32 7b 37 eb 31 e0 7a 70 31
       -1.8752913e-09 1.6169766e-08 6.8457076e-09 3.4994443e-09
000020 e0 35 87 30 d3 d1 52 b0 bf ae cc 3a 6b 08 7e 30
       9.837855e-10 -7.6695733e-10 0.0015616043 9.2416624e-10
000030 15 15 d5 b1 e0 e2 7e 32 5d e0 81 31 ed 2b 65 31
       -6.2015126e-09 1.4836331e-08 3.7799013e-09 3.3348855e-09
000040 c4 5a 45 b0 50 2b 66 31 34 cd 91 3a 07 d6 17 b1
       -7.179717e-10 3.3494025e-09 0.0011123777 -2.2095052e-09
000050 14 f4 07 b1 13 fc 04 32 db 92 8a b1 b5 39 56 31
       -1.9783828e-09 7.740726e-09 -4.033024e-09 3.1173901e-09
000060 d8 4e 44 b1 e4 ad a9 31 d3 bf fc 3a 60 ed 32 b0
       -2.8566571e-09 4.9383164e-09 0.0019283242 -6.5093353e-10
000070 49 41 4e 30 e5 ad 0d 32 05 02 0b b0 e4 f4 8d 30
       7.503514e-10 8.246819e-09 -5.0570775e-10 1.0328702e-09
000080 13 8a c6 b0 9c 17 ca 30 1b 82 1f 3b ad 0f 46 2f
       -1.4445639e-09 1.4704145e-09 0.0024339024 1.8013564e-10
000090 ad 35 0f b0 15 f7 32 31 75 48 91 31 1b 95 cb 30
       -5.2099375e-10 2.604286e-09 4.228293e-09 1.4812572e-09
0000a0 9c 73 9d b1 a3 1a 1e b0 f4 67 ee 39 dc eb b7 b0
       -4.5824446e-09 -5.751792e-10 0.0004547235 -1.3382038e-09
0000b0 d5 5c 46 30 38 17 68 32 dd 9c 48 b0 6b 69 ca b0
       7.21639e-10 1.3509457e-08 -7.298249e-10 -1.4727396e-09
0000c0 00 da 25 30 35 b8 9b b1 ec c1 13 3b 9f 2c ae b0
       6.0336447e-10 -4.5320356e-09 0.0022546006 -1.2672848e-09
0000d0 a9 48 0a 31 28 ca 55 32 7d 98 07 31 7d 25 db b0
       2.0122946e-09 1.2444197e-08 1.9731765e-09 -1.5945002e-09
0000e0 6f c2 be ad 7d be 83 30 39 f0 02 3b c4 54 44 b1
       -2.1686845e-11 9.585645e-10 0.001997961 -2.8569938e-09
0000f0 75 15 8e 31 78 13 e0 30 cb 0b 2c 31 a3 16 05 b0
       4.1351833e-09 1.6303678e-09 2.5035998e-09 -4.8417287e-10
000100 7d bd 64 b1 a1 92 36 b0 0f a7 bb 3a 88 70 bd 31
       -3.3286078e-09 -6.6419586e-10 0.0014316755 5.5134173e-09
000110 21 29 06 30 8d 57 18 32 2c f1 48 30 44 79 97 30
       4.8807364e-10 8.867471e-09 7.31023e-10 1.1021162e-09
000120 fc 5d 7b b1 b5 c9 52 31 15 56 db 3a 8f af 2e 31
       -3.6578731e-09 3.067368e-09 0.0016734028 2.5420126e-09
000130 64 fb 18 b1 30 ca 52 32 5d 9e 7c b1 1d e7 49 31
       -2.226181e-09 1.2269581e-08 -3.6760845e-09 2.9380722e-09
000140 af c7 8a 2e a5 36 70 ae 73 04 73 3a 7b b7 f5 b0
       6.3109844e-11 -5.4618216e-11 0.00092703773 -1.7878244e-09
000150 4b 6f 06 31 a0 20 57 32 e5 a8 fa b0 58 68 ee b1
       1.956283e-09 1.2522065e-08 -1.8237897e-09 -6.938574e-09
000160 bf 65 50 b0 3b 10 19 31 ed ce 89 3a 05 7e 10 30
       -7.581455e-10 2.2273656e-09 0.0010513939 5.256598e-10
000170 84 50 64 b1 50 61 47 32 a3 18 7a 31 15 fe b4 b0
       -3.3224135e-09 1.1605451e-08 3.6393792e-09 -1.3168938e-09
000180 90 33 8a 31 e1 1e 96 b0 31 3d 0a 3b 7f 60 33 30
       4.0221906e-09 -1.0922713e-09 0.0021093602 6.525695e-10
000190 30 02 88 30 18 1b c2 31 75 c4 d9 af eb b1 41 b0
       9.895924e-10 5.6492233e-09 -3.961166e-10 -7.046583e-10
0001a0 08 2c 47 b0 cd c2 ae 31 6d 77 2f 3b 71 53 76 b1
       -7.245835e-10 5.086213e-09 0.0026774064 -3.5845142e-09
0001b0 34 e7 17 b0 6c 79 62 32 c1 9e 96 30 f7 97 b2 b0
       -5.526204e-10 1.31825395e-08 1.0959057e-09 -1.2994396e-09
0001c0 b9 00 9a 30 cd 63 59 31 89 c9 09 3b fd 71 26 31
       1.120518e-09 3.1634386e-09 0.0021024665 2.4220974e-09
0001d0 19 3e bb b0 75 50 51 32 95 80 9e 30 38 6e 9a b0
       -1.362369e-09 1.2183695e-08 1.1532558e-09 -1.1236301e-09
0001e0 ac 4e 1f b1 67 7e 0a b1 23 8e 89 3a f4 26 67 b1
       -2.3182265e-09 -2.0153494e-09 0.001049463 -3.3637066e-09
0001f0 f9 be 1b b0 d8 d3 e0 31 a8 d1 08 b1 e8 d8 b0 b0
       -5.666006e-10 6.543342e-09 -1.990978e-09 -1.2867334e-09

backbone1.1.block.1.fc2.bias f4 [16]
000000 a9 2f f4 3e 55 e3 32 3f 25 8b 90 3e 43 0f 93 bf
       0.47692612 0.6987813 0.2823116 -1.1489033
000010 33 1c 36 bf e1 03 ab 3f 6d 0e c7 be c6 25 ff be
       -0.7113678 1.3360559 -0.38878193 -0.49833506
000020 9a 0c 25 3f ac 0a c1 be 9c 8e 07 3f e8 7c 91 be
       0.64472353 -0.37703454 0.5295198 -0.28415608
000030 33 cd cf be 12 cb 90 bd 0d da 14 3e a8 df d5 be
       -0.40586242 -0.070699826 0.14536305 -0.417722

backbone1.1.block.2.0.weight f4 [16, 16, 1, 1]
000000 57 3f 03 c0 fd 8a 6b 3e 2c ca b8 3c dc 48 a5 be
       -2.050741 0.23002239 0.02255734 -0.3228215
000010 2e 5e ce be bd 29 34 bf d6 dc 32 bc 8b b8 3f 3e
       -0.40306228 -0.7037619 -0.010916909 0.18722741
000020 04 d8 41 be a4 24 3d 3e 24 ba f0 3c 02 96 ee be
       -0.1893006 0.18471009 0.029385634 -0.46598822
000030 d8 a6 e4 3e 10 ea 8c 3e b7 3f cf bd ee 91 9f bd
       0.44658542 0.27522326 -0.101195745 -0.07791506
000040 b2 8e 3a 3f 71 b7 0b 40 37 8e c9 bd 3c ea b2 be
       0.72873986 2.1830714 -0.098415785 -0.34944332
000050 81 94 3b bf 3b dd 17 3f 8d bb 9c 3f cf d7 c3 3d
       -0.73273474 0.59321946 1.2244736 0.095626466
000060 bb 5d 65 3c b4 20 06 be ea df 63 3c 25 a1 e7 be
       0.013999398 -0.13098413 0.013908366 -0.4524013
000070 35 52 a1 3f a9 d9 8a be b4 4f 6d bd 38 10 f3 3e
       1.2603213 -0.27119187 -0.05793734 0.4747331
000080 ee 89 45 3d 40 7a 46 3c e5 1b 21 be 49 5e 90 3d
       0.048227243 0.012114108 -0.15733297 0.070492335
000090 a4 82 5f bd cb 78 ce bd b0 1a 96 3a e8 44 7f 3c
       -0.054567948 -0.10081633 0.0011452045 0.015580393
0000a0 49 d5 21 3c 2a 49 1e be 2a 27 7e 40 07 cb 14 3d
       0.009877511 -0.15457597 3.9711404 0.036326434
0000b0 7e 1f 2b 3d e5 87 10 3d be 21 8c 3c 17 5b 84 bc
       0.04177808 0.03528585 0.017105933 -0.016156716
0000c0 2c f0 5e 3e d4 e0 a0 bf f6 33 61 bc 0d 64 bb be
       0.21771306 -1.2568612 -0.013745299 -0.3659977
0000d0 df ac f7 bf 84 a9 a5 3f fb 04 cd 3d fe 5d b3 3d
       -1.9349631 1.2942357 0.100107156 0.08758162
0000e0 6c 83 68 3f 3c 1d 29 bf 2c 98 5e bd 91 f1 fb 3e
       0.90825534 -0.66060233 -0.05434434 0.49207738
0000f0 e7 15 c6 3e 9f 10 96 bf e3 9c 95 3d 2c e0 80 bc
       0.38688585 -1.1723822 0.073053144 -0.015731893
000100 3d 5d 6d 3e 7b f6 62 be 37 9d 24 40 45 54 73 3f
       0.23180099 -0.22164337 2.5720956 0.9505046
000110 f9 d3 e8 bd d9 1d 14 bf f7 75 96 be 18 b7 a2 bf
       -0.113685556 -0.57858044 -0.29386875 -1.2712126
000120 5c fc 0b 3e f4 dc eb bc 65 73 0b 3e 9e 2c 23 bb
       0.13670486 -0.028791882 0.13618238 -0.002489842
000130 5c 6c 94 3e d5 2f 1e 3e 00 4e d4 3d 26 86 02 bf
       0.28988922 0.15447934 0.1036644 -0.50985944
000140 6d 6b 96 bf 73 b9 99 be ad cf be 3c 42 74 04 3f
       -1.1751534 -0.300243 0.023292387 0.51739895
000150 07 e3 e7 bb 0d 9e e5 3e 3e 6c c7 3f 6c 90 83 3d
       -0.0070766243 0.44847146 1.5579908 0.06424031
000160 42 df 0e bf e4 17 a0 bf d2 31 a2 3b 9b 71 1b 3e
       -0.55809414 -1.2507291 0.0049497867 0.15180056
000170 47 5b f2 be 33 57 68 be 8b 65 ec be 28 a6 e0 3d
       -0.47335264 -0.22689514 -0.4617122 0.10969192
000180 e7 4d 21 3c 1f 12 43 3d 8a ad 19 40 51 28 9c bf
       0.0098452335 0.047624703 2.401217 -1.2199804
000190 90 0e 79 3d b7 72 09 3f 4e 74 af 3e 35 d1 80 3f
       0.060804904 0.53690666 0.3426842 1.0063845
0001a0 8f c9 8a be 97 94 a2 bc e7 9f 74 3e c3 ad f9 ba
       -0.27106902 -0.019846244 0.23889123 -0.0019048977
0001b0 61 8f 8b be 23 ea 8e be bf fb aa bd 00 b5 46 3f
       -0.27257827 -0.27913007 -0.08348798 0.77619934
0001c0 8c 2e e1 bb a1 7b 39 3e 91 4c 7b 3d 76 da 72 3f
       -0.006872004 0.18113567 0.061352316 0.94864595
0001d0 38 3d 02 3e 52 a5 15 be 60 76 94 be a6 36 2a 40
       0.12718666 -0.14613846 -0.28996563 2.6595855
0001e0 72 f2 3d be 76 ec 86 3d 8e 82 0b bd dc d9 46 3d
       -0.18549517 0.0658807 -0.034060054 0.04854761
0001f0 27 f6 8d 3f a8 f8 82 bf be 4f 6b 3e 20 7c 58 bf
       1.1090745 -1.0232134 0.22979638 -0.845644
000200 b2 a4 88 bf 92 92 86 3f fc bc 0f 3e 03 9b 90 3e
       -1.0675261 1.051348 0.14036936 0.28243265
000210 b4 86 3e bb c4 9e ba 3f 1e 80 04 bf 10 d6 af be
       -0.0029071989 1.4579701 -0.5175799 -0.34343004
000220 e6 5e ac 3f 7f c6 ae 3e 22 80 ba 3c 9f db 42 3f
       1.3466461 0.34135816 0.022766177 0.76116365
000230 06 38 ff 3d af 99 a3 be 8e 04 a8 be fd 84 63 be
       0.124618575 -0.3195319 -0.32815975 -0.222187
000240 11 4c 89 3e b7 96 22 bd e4 c7 2f 3d 66 c3 c0 3e
       0.26815847 -0.039694514 0.04291524 0.37649077
000250 82 e2 d9 be 42 c5 d4 3e b8 76 09 3f 2e dd 98 3f
       -0.42555624 0.41556746 0.53696775 1.1942499
000260 b8 58 81 3f e7 6a 96 be d4 9c af bd a6 62 a3 3d
       1.01052 -0.29378435 -0.085748345 0.079778
000270 80 8b ad bf 61 78 0f 40 ee 7b b6 3d 70 7f ec be
       -1.3558197 2.2417223 0.089103565 -0.46190977
000280 9e 07 b1 3d 70 2b 65 3f e1 b2 f6 b8 da 33 30 3e
       0.08644031 0.89519405 -0.00011763513 0.1720728
000290 61 0c 21 bf a3 98 9d be 95 96 9d be e4 f6 f1 3c
       -0.62909514 -0.30780515 -0.30778947 0.029536672
0002a0 cf 5b 86 bf b8 4d 6d be 21 f8 8b 3a 68 2d 48 40
       -1.0496768 -0.23174179 0.0010678807 3.1277714
0002b0 97 32 dd be 07 d3 be bd 7d ac 1c 3f 14 62 95 be
       -0.4320266 -0.09317594 0.61200696 -0.2917639
0002c0 5e 3f 59 be 49 2d 48 3f 82 4b 10 3d ac 2a 90 3e
       -0.21215579 0.781941 0.03522826 0.28157556
0002d0 9f c0 e8 bf 7a 25 e2 3f 85 1e 73 bf e5 9c f7 bd
       -1.8183783 1.7667687 -0.94968444 -0.12090472
0002e0 0f 49 fb bf 01 25 83 3e b0 4c 95 3d f0 fd 1c bf
       -1.9631671 0.2561417 0.072900176 -0.6132498
0002f0 78 4a 81 bf 39 02 a7 3e 65 1f e2 3e 09 54 74 be
       -1.0100851 0.32618883 0.44164577 -0.23860182
000300 78 5b 65 3d f0 91 ac bf 04 3f 22 bd 24 3d ba bd
       0.055995435 -1.3482037 -0.039610878 -0.09093693
000310 34 60 62 bf 4a a0 c2 3f de ca 15 3f 75 bd b8 3d
       -0.88428044 1.5205166 0.58512676 0.09020511
000320 84 5e 43 bf 0f 80 86 3f 1d b0 9d 3b c7 67 23 3f
       -0.76316094 1.050783 0.004812254 0.63830227
000330 13 39 45 3f cb d8 25 3f fd 8d c9 be e6 54 fe 3e
       0.77040213 0.64783925 -0.3936614 0.49674147
000340 36 ff 98 be fc fc e7 3d 68 70 59 bd ae bb 3c bf
       -0.2988221 0.1132755 -0.053085715 -0.73723876
000350 4a 43 08 bd 59 8f 1a be d8 fa 71 bf d1 e5 16 3f
       -0.033267297 -0.15093745 -0.9452338 0.5894442
000360 02 f1 93 3e 3f 27 be bd 18 1b 26 3d 04 d7 45 3e
       0.28894812 -0.09284829 0.040553182 0.19320303
000370 ba 20 a9 be b1 d9 c1 3c da 13 77 3e 36 0d 0b 40
       -0.3303278 0.023663374 0.24128667 2.1726813
000380 26 69 8e 3e 0b 04 d0 3d 82 de f0 bc 38 12 a1 3d
       0.27814597 0.10157021 -0.029402975 0.07864803
000390 39 e6 aa be 70 af 36 bd 91 fa 9f 3f 6b 32 62 3e
       -0.3337877 -0.044600904 1.2498342 0.22089545
0003a0 be f2 57 3d 42 98 07 40 5b 0f 55 bc 21 40 a9 3c
       0.05272173 2.118668 -0.013004149 0.020660462
0003b0 64 50 0d bf c0 22 d7 be 6d 39 12 be 0f 5f 5f 3d
       -0.5520079 -0.420187 -0.14279719 0.054534014
0003c0 04 13 8b 3d 96 75 e3 3c a3 18 00 bd 06 e5 28 3d
       0.06790736 0.02776603 -0.031273495 0.04123404
0003d0 d9 17 1f bd a8 5c d7 be 22 3b 63 be a4 4e a0 3d
       -0.038841102 -0.4206288 -0.22190526 0.078274995
0003e0 11 4a 2a be 6d 75 ad bc 84 2a 41 bb 35 1c 0e 3d
       -0.16629817 -0.021174157 -0.0029474804 0.03469487
0003f0 6e 52 8a be 19 40 9d bd 10 9b 44 c0 72 35 32 3c
       -0.27016014 -0.07678241 -3.0719643 0.010877

backbone1.1.block.2.1.weight f4 [16]
000000 af 13 9a 3f 7c 08 c2 3f 46 dd 43 3f ba e7 b5 3f
       1.2037257 1.5158839 0.7650951 1.4211342
000010 b3 71 1a 3f a0 05 b6 3f 46 74 38 3f c0 ee 6c 3f
       0.6032974 1.4220467 0.7205242 0.92551804
000020 50 95 c1 3f 6b be c0 3f 64 33 ae 3f 3e 44 b3 3f
       1.5123692 1.5058111 1.3609433 1.4005201
000030 3e dd a6 3f cd 9b 2c 3f ca 4f b0 3f a1 78 d3 3f
       1.3036268 0.67425233 1.377435 1.6521188

backbone1.1.block.2.1.bias f4 [16]
000000 9e dd 3f 3c 99 13 23 bc 34 39 32 bc cc 6a cf bc
       0.0117105525 -0.009953403 -0.010877896 -0.02531948
000010 d2 f7 87 bc 7b 31 90 ba 6a ff 8e bc 39 b3 38 ba
       -0.016597662 -0.0011001074 -0.017455775 -0.0007045749
000020 35 c6 d0 3c 36 ce 0f 3d 9d c4 34 3c 64 67 a9 bc
       0.025485137 0.035108767 0.011033204 -0.020679183
000030 cc f2 11 bc d0 74 9e 3c 39 7e dc bc b4 23 8c bc
       -0.008907985 0.01934281 -0.026915656 -0.017106868

backbone1.1.block.2.1.running_mean f4 [16]
000000 0c fd fc bf a0 0d 91 40 99 76 40 40 90 3d e1 3f
       -1.9764724 4.532913 3.0072386 1.7596912
000010 12 c3 0f 3f 92 96 b5 be fe bf 7d 40 13 85 5f 3e
       0.5615703 -0.3546644 3.9648433 0.21828108
000020 71 f8 a5 40 95 da 05 40 28 c4 a0 be 85 8c d3 3f
       5.1865773 2.0914662 -0.31399655 1.6527258
000030 99 e4 d1 3f 3b 14 bf 3f 7a d9 f2 3e 3d a7 df bf
       1.6397887 1.4928049 0.47431546 -1.7472912

backbone1.1.block.2.1.running_var f4 [16]
000000 22 7a 20 3e 54 c5 59 3f 54 f5 de 3e 76 13 87 3f
       0.1567159 0.85066724 0.43546546 1.0552814
000010 96 93 49 3e 3d 5b c0 3e 88 94 40 3e 67 a6 03 3f
       0.19685206 0.3756961 0.1880666 0.51425785
000020 32 08 ce 3f ad e9 ac 3f ed 66 b5 3f 37 0d cc 3f
       1.6096251 1.3508812 1.4172035 1.5941533
000030 8d 6a ef 3e a2 f4 99 3d d9 ee ab 3e 86 4f 02 3e
       0.4676098 0.07517363 0.33580664 0.12725648

backbone1.2.block.0.0.weight f4 [72, 16, 1, 1]
000000 11 e7 e2 3e 32 6c e5 be 41 fa 72 bd 18 59 c4 be
       0.44316915 -0.4480911 -0.059320692 -0.38349223
000010 d6 67 78 bb 7b 24 70 bf 96 4a 94 be aa e7 2b bc
       -0.0037903688 -0.93805665 -0.28963155 -0.010492245
000020 66 da 46 3e 9a 7c 14 be e5 96 1d be af aa 3d 3e
       0.1941925 -0.14500657 -0.15389593 0.18522142
000030 48 30 16 3f c8 87 6c 3e f6 0f 86 3f 08 0e ab be
       0.5866742 0.23098671 1.0473621 -0.33409142
000040 82 51 8e 3d 24 9d 4f bd 65 03 63 3f fc 7c 9d 3e
       0.0694914 -0.05068697 0.88677055 0.30759418
000050 cc c4 ba 3d fd 81 71 be a0 a2 7d bd 95 ce 29 3d
       0.09119567 -0.23584743 -0.06192267 0.041456778
000060 10 9b 0e 3d 4b 0a 0e bf fe 60 e9 3d c7 43 de 3d
       0.034815848 -0.55484456 0.11395453 0.10852771
000070 b0 de 1a 3d e0 e3 8d be 41 54 db be c0 af b7 be
       0.037810028 -0.27712917 -0.42837718 -0.35876274
000080 03 4d 8b be 9c 53 74 bf f9 5d 83 3b ef 06 f1 be
       -0.27207193 -0.9544008 0.004009005 -0.47075602
000090 b4 76 85 be 7c 52 16 bd df 88 28 3e 4c cf 3e bf
       -0.26067126 -0.036699757 0.16458462 -0.7453506
0000a0 44 d7 13 be 8b 72 89 3f 50 68 fa 3d ab 74 94 3f
       -0.14437586 1.0738081 0.12226927 1.1598104
0000b0 8b 9c 77 bf 70 2e c0 3e d0 66 e8 3e a7 e7 ce bd
       -0.9672324 0.3753543 0.4539094 -0.10102778
0000c0 fc 52 e0 ba 64 03 46 3f 3b 63 65 bc 25 ca 47 be
       -0.0017114575 0.77348924 -0.014000709 -0.19510706
0000d0 ef ef a9 bc 06 b3 fc 3c 9a cd c6 3d 2f e7 6e 3e
       -0.020744292 0.030847084 0.09707184 0.23330377
0000e0 3c f6 c1 3e f7 38 4e be 7d dd ee 3e 25 fc d9 3c
       0.37883174 -0.20138918 0.46653357 0.02660949
0000f0 0b 6b a3 be d9 f3 d8 bd 16 03 e2 bd 25 33 3f bc
       -0.31917605 -0.10593385 -0.11035745 -0.011669909
000100 6e 84 53 bd 1d c8 10 bd c8 97 d8 bd 43 fd 63 3c
       -0.051639967 -0.035347093 -0.10575825 0.013915363
000110 c6 ce 15 3f e5 09 84 3c f5 96 fe be 5a 5a b0 bf
       0.58518636 0.016118 -0.49724546 -1.3777573
000120 38 f0 e2 3d f0 0f f2 be 43 21 16 bd ae 68 d2 bc
       0.11080974 -0.47277784 -0.036652815 -0.02568468
000130 77 39 2f 3d 23 3e d2 be d9 75 89 bd ee f8 2c bd
       0.042779412 -0.41063032 -0.06711931 -0.042229585
000140 e0 aa b6 3e 82 e2 b4 bd ce 3c 6c 3d de a8 5f 3d
       0.35677242 -0.088322654 0.057675175 0.054604404
000150 74 ef 07 3f 0c f6 fe be a0 c6 0a bf 82 25 d6 bc
       0.5309975 -0.49797094 -0.5420933 -0.026140932
000160 80 78 a6 be e3 3d 8e 3e b7 a8 78 3d 16 8b 6a bf
       -0.3251381 0.2778159 0.060707774 -0.9161848
000170 9d e9 3b bf cd cc fa 3e 9e b6 39 3e f2 4a 79 3d
       -0.7340334 0.48984376 0.18136069 0.06086249
000180 74 98 ec 3e 47 91 cc 3d 8c 56 0a bd a7 91 b7 3e
       0.46210063 0.09988647 -0.033773944 0.3585331
000190 88 c4 7f be dd b2 cb 3f 0e 82 ed 3d dc ab e3 bd
       -0.24977314 1.591396 0.115970716 -0.11116764
0001a0 ff 99 e6 3d a1 6c 25 3d a9 38 a8 38 dd 96 47 bc
       0.11259841 0.0403868 8.021418e-05 -0.012181965
0001b0 17 8d f7 be da e7 99 bd 38 87 88 bf 43 90 17 3f
       -0.4834983 -0.07514925 -1.0666265 0.592045
0001c0 09 6b e4 3b 69 2b 07 3e 28 5a 38 3f 92 74 93 3e
       0.0069707674 0.13200153 0.7201257 0.28799874
0001d0 33 7b 05 3d ac 7b 95 be 09 c5 07 3e 8e f4 28 3f
       0.032588195 -0.29195917 0.13258757 0.6599816
0001e0 5a b2 52 3e 88 e0 41 bf b5 9b 57 bd e2 02 1f be
       0.20575848 -0.7573323 -0.05263873 -0.15528443
0001f0 e3 33 3f bd c5 18 49 bd f6 e3 25 bd ae 12 0b bf
       -0.046680342 -0.049095888 -0.040500604 -0.5432538
000200 83 01 c1 be dc 76 35 be e1 f8 61 3d 0b 36 6b be
       -0.37696466 -0.17721123 0.05516899 -0.22969835
000210 37 91 93 bd 23 e1 2d 3e 1a 8a fb 3d 57 7c 49 bd
       -0.07205432 0.16980414 0.122822 -0.049190845
000220 1c 1f 8a 3e 40 dc 52 be 2e b8 cf bd 28 6f 6a 3f
       0.2697686 -0.20591831 -0.10142551 0.9157586
000230 19 de ef 3e 30 41 37 3c 45 7a 79 be 6f d4 b8 be
       0.46849135 0.0111849755 -0.24363048 -0.36099574
000240 86 f7 da 3f ca f6 40 bf 18 36 16 bb c6 71 f0 be
       1.7106788 -0.7537657 -0.0022920426 -0.46961802
000250 9b 57 69 bd d6 37 4d 3e d8 7f 59 bd cf 05 76 3c
       -0.056968313 0.20040831 -0.053100437 0.015016033
000260 88 22 8d 3f ef db 8b be f1 29 84 be b0 f9 40 3e
       1.1026163 -0.27316234 -0.2581325 0.18845248
000270 af bf bb 3e 38 6c 96 3e a4 9f 42 3f 11 f6 88 3e
       0.3666968 0.2937944 0.7602484 0.26750234
000280 4f 3d 70 3d a8 86 4c be f9 66 03 3d 5d 39 86 be
       0.05865222 -0.19973242 0.032080624 -0.2621564
000290 4a a9 17 3e 0b a7 4f bf d5 07 a9 bd 5a db a0 bc
       0.14810672 -0.8111426 -0.08253447 -0.019635845
0002a0 8c 7d 8d 3e 21 95 d7 bd 62 70 1c bf 12 72 03 be
       0.27634847 -0.10526491 -0.6110898 -0.12836483
0002b0 55 21 47 3f 72 b7 21 bd d7 c3 84 3f d9 51 c3 3f
       0.77785236 -0.039481588 1.0372266 1.5259353
0002c0 31 fc 5d be 73 20 38 be e7 64 0f 3e 11 aa 0d bf
       -0.21678235 -0.17981128 0.14003335 -0.55337626
0002d0 cd 11 6b 3e 52 24 a3 3e 2d ed cf be 5c 73 27 3f
       0.22956009 0.31863648 -0.40610638 0.654104
0002e0 ac 0b 35 3e 5a 1e 76 3e 64 46 fb 3e a0 42 06 bf
       0.17680234 0.24035016 0.4907714 -0.5244541
0002f0 40 18 47 be ca b0 c8 be 1a 18 8a 3e 54 ae ef be
       -0.19442844 -0.3919738 0.26971513 -0.4681269
000300 60 32 d9 bd d4 bd e2 3d e5 d9 8b 3f 50 91 b1 3d
       -0.106053114 0.11071363 1.0925871 0.08670294
000310 c5 29 89 bf 68 0b 4f 3e af 15 ce bf 00 26 14 be
       -1.0715872 0.20219195 -1.6100367 -0.14467621
000320 76 25 c1 bd 4f 6a aa 3d 68 c0 90 bd 19 0d cf 3a
       -0.09430973 0.08321058 -0.070679486 0.001579675
000330 98 87 dc bd 1c 58 f6 bd 4f 1e b9 be 6a 8b 13 3d
       -0.1076805 -0.12028524 -0.36155936 0.036021627
000340 5d 9f 63 be 4d d4 c4 3d ce 9a f7 bc bd 08 66 3f
       -0.22228761 0.09610806 -0.030225184 0.89857084
000350 d0 30 23 be de f8 14 3d c1 a0 48 3d 2d 3c 81 3f
       -0.15936589 0.03637015 0.048981432 1.0096489
000360 92 de 64 3e 74 d0 03 c0 1d d1 a9 bd 12 f5 ca bd
       0.22350529 -2.059598 -0.08291838 -0.09910025
000370 c3 c8 15 bf ac ed 18 3d 09 a5 6c 3e ef 4e 78 be
       -0.58509463 0.037336037 0.23109831 -0.24248861
000380 81 55 31 bd 3f 56 1e 3e 9c 85 12 be 45 9b 33 bf
       -0.043294434 0.15462588 -0.1430878 -0.701588
000390 eb ce 8a 3e 0d 2c 4b 3e c5 5c 35 bf 08 87 ac 3e
       0.2711099 0.19841023 -0.7084468 0.3369677
0003a0 38 8d a4 3d 92 d7 05 3f 6a 58 00 3f 97 10 ed be
       0.08034748 0.5228206 0.5013491 -0.4630172
0003b0 59 04 05 3f 2a 32 32 bf c8 89 14 be 83 56 16 bf
       0.5195976 -0.69607794 -0.14505684 -0.58725756
0003c0 b8 95 af b1 95 12 c3 ae ec 42 54 b1 3c fd c0 b0
       -5.1101914e-09 -8.870874e-11 -3.08881e-09 -1.4041812e-09
0003d0 98 c1 b2 2f dd d5 65 b1 3b 3b 8b 31 7b dd 71 b1
       3.2515568e-10 -3.3445453e-09 4.052166e-09 -3.5196013e-09
0003e0 23 86 4d 2f 0b af 92 30 71 3a b7 b1 75 4a 0a b1
       1.8692296e-10 1.0672648e-09 -5.332645e-09 -2.0123967e-09
0003f0 14 25 1c 31 c8 33 c7 b0 08 c7 a4 31 e5 62 0d 31
       2.2722064e-09 -1.4493873e-09 4.7956554e-09 2.0574416e-09

backbone1.2.block.0.1.weight f4 [72]
000000 7f 92 69 3f 22 0e 7c 3e d3 ff 9d 3f 29 71 c1 3e
       0.9123916 0.24614766 1.2343696 0.37781647
000010 6c 6c 76 3e 7c b3 2b 3e 40 8d 8a 3f 1a 8d 71 3e
       0.24064797 0.16767687 1.0824356 0.23588982
000020 79 ed 49 3e 80 b1 84 3f 3a a2 ac 3f 06 5b a8 3e
       0.19719495 1.0366669 1.3487008 0.32881945
000030 c7 21 3d 3f d4 c2 a8 3f 24 cb 84 3e 6c 18 24 30
       0.73879665 1.3184457 0.25936234 5.969756e-10
000040 93 d4 b4 3e d8 88 6e 3e df 8a 38 3f 1b 04 b3 3d
       0.3531843 0.23294389 0.720869 0.087410174
000050 90 6e 64 b0 43 9b da 3f 4b 96 0f 3f 8d 9c c7 3e
       -8.3103036e-10 1.7078632 0.56088704 0.38986626
000060 d4 4a 61 3f 1e ba 53 3e e6 c4 8f 3f da a7 83 3f
       0.88004804 0.20676467 1.1231964 1.0285599
000070 6e 4d 9e 3f f3 75 43 3d 0c a6 85 3f 19 76 b7 3f
       1.236738 0.047719907 1.0441298 1.4332916
000080 cf d2 81 3e b1 d9 e3 3e 08 d4 b5 3f b0 e5 ea 31
       0.25356147 0.44502023 1.4205332 6.8364088e-09
000090 78 8c ec 31 ea bc 14 3f bf 40 12 32 09 17 1f 3e
       6.8844734e-09 0.5810076 8.51304e-09 0.15536131
0000a0 43 22 ea 3e 63 74 bc 3f 47 77 34 3e 84 de 01 3f
       0.45729265 1.4723018 0.17623626 0.50730157
0000b0 bb ae 9f 3e 7e d8 80 3e 40 17 97 3e b7 22 bc 3e
       0.31187996 0.2516517 0.29509926 0.36745235
0000c0 41 df 44 3e cf fa ae 3f 66 a2 22 3f 4b d9 d7 3f
       0.1922579 1.3670291 0.6352905 1.6863188
0000d0 01 a4 d3 3f 29 c4 7e 3e 4e ce a0 3d 41 dc 8b 3f
       1.6534425 0.24879517 0.078518495 1.0926591
0000e0 e1 12 b4 3d a4 3b 8c 3f 38 9e 0d 3e f8 30 f7 3e
       0.08792663 1.0955701 0.13829887 0.48279548
0000f0 19 40 c6 3f f4 dc 08 3e e0 52 2e 3f 74 36 be 3e
       1.5488311 0.13365537 0.6809521 0.3715092
000100 10 7f f3 3d 4e 3e 95 3f 4b 0a 84 3e ff e4 9e 3e
       0.118894696 1.1659639 0.25789103 0.31034085
000110 6b 08 55 3e 07 1f 36 3e 32 d8 46 3e e8 5f bb 3f
       0.20803992 0.17785273 0.1941841 1.4638643

backbone1.2.block.0.1.bias f4 [72]
000000 85 b7 55 3e ee 98 5b 3f a4 4b 8e be ff 75 79 3f
       0.20870788 0.8578023 -0.27792084 0.9744567
000010 b5 70 27 3f cc 58 1f 3f 40 ea 83 be c3 3d 28 3f
       0.6540635 0.6224487 -0.25764656 0.6571924
000020 22 6b 24 3f e6 fb 0b be d2 5d 84 bd 1c f3 ac 3e
       0.6422597 -0.1367031 -0.06463207 0.33779228
000030 84 82 70 3d e1 64 48 be 1c 3e 06 3f 49 b8 4d b2
       0.05871822 -0.19569732 0.5243852 -1.1974472e-08
000040 30 b9 b4 3e d7 52 77 3f eb dc 0f 3e d1 5c 27 3f
       0.35297537 0.9661078 0.14049117 0.65376
000050 75 24 bc b2 c9 33 6e be f7 03 f8 3e 26 62 53 3f
       -2.190266e-08 -0.23261942 0.48440525 0.8257164
000060 b4 0b 30 3e 39 6e 52 3f 48 ec a3 be d4 0b 77 be
       0.17191964 0.82199436 -0.32016206 -0.24125606
000070 c0 63 b8 be 59 7f 35 3f 94 a7 c2 be 10 ba ad bd
       -0.36013603 0.7089744 -0.38018477 -0.08482754
000080 34 14 32 3f 44 03 6f 3e 33 6d a9 3e b1 10 2a b1
       0.6956208 0.2334109 0.33091125 -2.4747744e-09
000090 98 1e ea b0 13 47 dc 3e 61 75 4e b0 78 e3 3f 3f
       -1.7034436e-09 0.43022975 -7.510917e-10 0.74956465
0000a0 9a d0 00 3f e0 ba 70 be 0a 88 80 3f f9 dd f9 3e
       0.503183 -0.23508787 1.0041516 0.48802164
0000b0 d8 e5 47 3f 57 6a 3d 3f ae f8 4f 3f 8b 9c 38 3f
       0.7808509 0.73990387 0.8123883 0.72113866
0000c0 61 75 13 3f 64 df 8e 3e ec ea bb 3d a9 37 95 3e
       0.5760098 0.2790481 0.09175667 0.29144028
0000d0 0e 08 8a be db 9b 30 3f 69 ce 30 3f 21 b9 6f be
       -0.2695927 0.68987817 0.69064957 -0.23410465
0000e0 65 18 49 3f 9a 9a a9 be 59 5c 2e 3f 70 7a 00 3f
       0.7855285 -0.33125764 0.6810966 0.50186825
0000f0 47 85 f0 be 09 f5 57 3f 8f d4 1c 3d 81 46 c7 3e
       -0.46976683 0.8435827 0.03828865 0.38920978
000100 ce b2 52 3f 6f 09 9d be 0f 94 1c 3f 03 a4 cd 3e
       0.82304084 -0.3067126 0.6116342 0.40164194
000110 4d c4 25 3f 4b 3b 41 3f 98 15 10 3f a6 e7 5b be
       0.64752656 0.754811 0.5628295 -0.21475086

backbone1.2.block.0.1.running_mean f4 [72]
000000 1c bb 73 ba 37 74 b2 bc 09 bc bb 3c 16 6c 11 3c
       -0.0009297596 -0.021783931 0.02291681 0.008875867
000010 19 48 bb bc 91 c1 a7 3c e5 14 91 3c 14 7d b1 bc
       -0.022861527 0.020478042 0.017710159 -0.021666087
000020 83 fc 00 39 75 47 c7 3c 86 f0 49 bd 3a 89 06 3d
       0.00012301099 0.024326066 -0.049301647 0.032845713
000030 01 bb 3e 3d d1 ce 85 bd 35 2d 5c 3d 46 56 7d af
       0.04656506 -0.06533588 0.05375405 -2.3040866e-10
000040 e9 84 7d 3d b6 9e 0c bd 52 82 ba 3d 89 c4 1e 3d
       0.06189433 -0.034331046 0.09106888 0.03876165
000050 e1 ac 45 2f ee 20 85 bd 22 57 01 3b f6 6f c1 3c
       1.7978465e-10 -0.065004215 0.0019735773 0.023612957
000060 f6 01 9b 3d 75 5e 11 bc 83 76 cc bc 82 af b5 3c
       0.075687334 -0.008872618 -0.024958855 0.022178415
000070 b4 43 e3 3c 3a cb 56 bc a9 1e bb 3c d0 4b de 3c
       0.027742244 -0.013109976 0.022841768 0.02713576
000080 a4 57 f8 bc 33 26 d4 bc b2 8f e5 bc 9f ca 7d af
       -0.030315228 -0.025897121 -0.02802262 -2.3082201e-10
000090 e4 a4 82 2f 80 f1 0d 3c c9 fb 87 ad 94 c7 1c bd
       2.3764024e-10 0.008663535 -1.5459538e-11 -0.03827627
0000a0 b8 ed 12 3a 46 bc 37 bd b6 9d c9 bb 06 54 03 bd
       0.0005604881 -0.044857286 -0.006152834 -0.032062553
0000b0 fb 72 b5 3c a3 7a 1e 3c c8 1e fd 3c 48 b2 42 bd
       0.022149554 0.009672794 0.030898467 -0.047533303
0000c0 0c f6 a8 3c 8e 93 62 bd ae 0d 05 bc a7 ca f5 3d
       0.020625137 -0.0553165 -0.008120937 0.120015435
0000d0 0d 83 c3 bc 29 95 0b 3c b5 d1 25 bd 92 e2 7c ba
       -0.0238662 0.008519449 -0.040483195 -0.0009646799
0000e0 e4 93 ec bc 07 50 85 3d 8f 4d b7 bc 8d 88 f4 3c
       -0.028879113 0.06509405 -0.02237585 0.029850269
0000f0 19 1e a2 bd e9 7c fc bc a7 3d 62 3d 09 f1 80 bd
       -0.07915897 -0.03082128 0.055234578 -0.06295974
000100 71 a6 0f bc 92 eb fa 3c 71 c3 95 3c bd 6c b5 bb
       -0.00876771 0.030629907 0.01828167 -0.0055366443
000110 59 5e ae 3c 31 7e a7 3b 83 74 f4 3c f9 cd ce 3c
       0.021285223 0.0051114787 0.029840713 0.0252447

backbone1.2.block.0.1.running_var f4 [72]
000000 79 63 1b 41 43 88 41 40 2d fe 35 41 3a ce 6f 40
       9.711785 3.0239418 11.374555 3.746962
000010 68 88 ae 3f 11 e1 af 3f 79 71 90 41 90 f7 96 40
       1.3635378 1.374056 18.055407 4.71772
000020 7b 95 92 3f 7d f5 bf 40 d3 f6 5f 41 96 5a 8a 40
       1.1451868 5.998717 13.99776 4.323558
000030 83 ae 49 40 9d 46 a5 41 77 21 d3 40 92 5d 20 26
       3.1512764 20.65948 6.597835 5.5637963e-16
000040 ad 7a 81 41 d7 7a 08 41 ef 2c 90 40 d3 8a 5d 40
       16.1849 8.52999 4.505485 3.4615982
000050 4b 8b 0e 27 6c ca 17 42 b5 af aa 40 00 07 0f 40
       1.978197e-15 37.947678 5.3339486 2.2348022
000060 25 7e 4a 40 f9 a3 a1 3f 7a 2d 25 41 eb 86 36 41
       3.1639493 1.2628165 10.323603 11.407939
000070 55 d5 e0 40 4a 0d cb 3f 2b 45 29 41 d3 c4 b9 41
       7.0260415 1.586343 10.579387 23.221106
000080 88 c2 16 40 2a 81 47 40 0a ca 9d 40 4d a8 14 25
       2.3556232 3.1172585 4.930913 1.2893976e-16
000090 d1 f9 1e 25 1f 28 88 40 33 e2 e2 24 48 63 51 40
       1.3788957e-16 4.2548976 9.839507e-17 3.2716846
0000a0 df 3e 37 40 63 f6 80 41 af b6 9b 3f 5b 98 51 40
       2.8632123 16.120306 1.2165126 3.274924
0000b0 20 c9 9d 40 31 ce b8 3f fc 3b 19 41 54 1a 52 40
       4.9308014 1.4437925 9.577145 3.282857
0000c0 a6 d8 23 40 c8 fc 1b 41 ec 47 86 40 54 7b 75 42
       2.5600982 9.749214 4.1962795 61.370438
0000d0 03 f6 99 41 63 5b 47 40 a8 89 3f 40 18 13 f2 40
       19.245123 3.1149528 2.9927769 7.564831
0000e0 59 24 3c 40 57 a6 12 41 87 c4 90 3f 4f 3c 9d 40
       2.9397185 9.16561 1.1309975 4.913612
0000f0 66 82 c8 41 a6 23 13 41 dd 3f 09 40 7f 9b 2d 40
       25.063671 9.196203 2.144523 2.7126157
000100 56 d5 38 40 c9 c6 b6 41 bd 19 df 3f 92 01 84 3f
       2.888021 22.847063 1.742973 1.0312979
000110 c7 40 9d 40 ba 4f 62 40 72 ca d7 3f f9 61 7d 41
       4.9141574 3.5361161 1.6858656 15.836419
