Grasping/grasping/grasp_mobilenet_data.pt (torch, 373082 bytes, 93 tensors)

backbone1.0.0.weight f4 [16, 3, 3, 3]
00000000: e4a4 743f 2169 983f 08f7 7e3f 40f7 843f
00000010: 35b9 9e3f 2700 773f ab3d 1b3e 8d52 3a3e
00000020: 5993 78bc f870 35bf 48ee 6fbf 7c96 5ebf
00000030: 1199 3abf 1949 7bbf 34c1 49bf 5770 163d
00000040: 6b11 abbd 931a 92bd a6a6 83bc 9e51 64bd
00000050: 3d02 d8bd 803b 003c 7a89 74bd 675f 8bbd
00000060: a4f5 593d 9752 8f3b fdd1 f3bc 54ab d8ba
00000070: 7132 163c fe14 b13c 2c15 dc3e b7e8 403f
00000080: c785 da3e bca1 99be 78c6 36bf 4357 c2be
00000090: 8081 1c3d ccaa 1f3d 8f6e e73c 87e4 593f
000000a0: f8e0 d73f 8aa6 6b3f b34e 37bf 5c36 d8bf
000000b0: 7985 69bf 5489 0d3d 9580 473d eb9e 083d
000000c0: 20e1 563e 9d99 9a3e 71e0 0d3e 9b5a bdbd
000000d0: 8ae1 9abe 1360 35be 4c98 173e a6b7 d63e
000000e0: a4ce 8e3e 6a50 fa3e f16e 453f 0506 073f
000000f0: 2330 303e 563e f03e bd5d a93e 6ba6 3abf
00000100: 03bc b8bf 5c11 81bf 35a3 a6bf 2688 0dc0
00000110: a755 e2bf bf08 4cbf 35cc bcbf b94f 88bf
00000120: 370b d03e f19b 4f3f 975c 163f e599 363f
00000130: b15b 913f f86d 663f d8a1 a93e 03c0 443f
00000140: 6989 153f 8e94 6f3c 830f b03e 082e fbbe
00000150: 3cef babd 6928 b43e 8fda 863e e9e7 b03e
00000160: 16b0 c4be d31e 413e 25e8 aebe b2fc f43d
00000170: 72ca 253e ab1e a3bd b0e3 21be 9866 af3d
00000180: 3f10 1540 6ba5 35bd 2289 3ebe e999 59bd
00000190: 700b 16be 5cee 9f3c 4eaa 903e 1db0 ec3d
000001a0: 134b 10bd 0349 e83d 4851 813e 5d99 48bc
000001b0: 1ed5 5abe ac46 d13e 3e1a 23be bb24 ecbe
000001c0: 4750 2d3f 4383 89be 6676 69be 15f8 b73e
000001d0: 5d2c f6bd f60a 12bf 6bf7 723f 575a aabe
000001e0: 2465 80bf ede9 c03f 6786 02bf 4ebe e2be
000001f0: efb6 3d3f 7f66 62be ce46 95bd 4b75 4f3e
00000200: 1eee e5bd cd9d 52be d244 9f3e 648b 42be
00000210: 81c4 afbd d1c1 293e 0984 88bd 92b8 e4be
00000220: d383 a43e fd2c 0e3e 400b 3bbf fbd3 2a3f
00000230: 4ea5 873e deca dfbe f858 953e 44da c93d
00000240: 2ea7 76bf a63c 3d3f c3cd ae3e e0ae d4bf
00000250: 1ffa a43f f697 f93e b22f 5cbf cbff 163f
00000260: 325c 243e 6105 77be ae34 073e 760d 9d3d
00000270: 84df 96be 453f 9b3e f73b c43d 5775 59be
00000280: 3b15 943d 74e5 973c 1e00 c03d d9ac de3d
00000290: e32d 433e de30 1dbe c77a 35be fd76 32be
000002a0: c351 9abe c899 61be bff3 c1be 2126 213e
000002b0: fa81 143e f89c 423e 8671 bdbe 3b75 09bf
000002c0: e15e ffbe cdda 0cbf 332a 27bf f9a3 3fbf
000002d0: 5a0b ce3c d583 3e3d 8a0c d33d e1e5 b8bd
000002e0: 561d c7bd c788 8dbd 9c13 0bbe cb0c cabd
000002f0: db91 0abe fe24 933e edda c73e 6b34 293e
00000300: d39a 1e3d 91ba 2cbe 03a6 e2bd 59a5 80be
00000310: 3b8c 43bf 8478 fbbe f986 123f ebc5 443f
00000320: 142c 8b3e ef17 bbbb 8e1a babe 03dd 93be
00000330: 3102 00bf 7517 afbf 8788 4bbf 4abb 633e
00000340: ab6b 303e 960f 893d 5a84 783c f7f5 e9bd
00000350: fa63 ecbc 0e40 f9bd 8850 d2be 6c3d 43be
00000360: 0918 e2bc a23d aabe 23a0 953e 3547 28bd
00000370: 5c3c 20bf 4cb6 0e3f bd3d cabb 4ebb afbe
00000380: d7fa d13e d3eb 04bd cc56 41bf 86ba 3f3f
00000390: 0a7f 3fbd 96e9 b1bf 25dd a43f d2fb 2f3d
000003a0: 0453 38bf d322 483f f1d8 a2bc e6e6 16be
000003b0: 8da4 123e 3552 a7bb ef84 98be ad49 633e
000003c0: 63d0 20bc d10c 0abe c6f8 273e 433b 74bd
000003d0: c283 27be 97c1 f1bd c79e 20bd c4c4 06bd
000003e0: d40f b8bd 2b82 19bd fe17 cdbd fe4f a2bd
000003f0: 84f8 3ebf f9ec 81bf e731 4dbf 5730 42bf
0.95564103 1.1907083 0.9959569 1.0387955 1.2400271 0.9648461 0.15160243 0.18195553
-0.015171849 -0.708755 -0.93722963 -0.8694837 -0.7288981 -0.98158413 -0.7881043 0.03672823
-0.083529316 -0.07133975 -0.016070675 -0.0557419 -0.10547302 0.007826686 -0.05970142 -0.06805306
0.053212777 0.004373859 -0.029763216 -0.0016530552 0.0091673 0.021616455 0.42984903 0.75355095
0.4268019 -0.30006206 -0.7139659 -0.379572 0.03820944 0.038981244 0.02825096 0.8511433
1.686553 0.92050993 -0.7160446 -1.6891589 -0.9121929 0.034554794 0.04870661 0.03335468
0.20984316 0.30195323 0.13855149 -0.09245797 -0.30250198 -0.1771243 0.1480419 0.41936988
0.2789203 0.48889476 0.7712241 0.5274356 0.17205863 0.4692256 0.3307933 -0.72910184
-1.4432377 -1.0083423 -1.3018557 -2.2114348 -1.7682389 -0.79700845 -1.4749819 -1.064933
0.40633556 0.8109732 0.5873503 0.71328574 1.1356107 0.9001155 0.3313129 0.76855487
0.58412796 0.014622821 0.34386835 -0.49058557 -0.091276616 0.3518708 0.26338622 0.34551933
-0.38415593 0.18859415 -0.34161487 0.1196226 0.16190508 -0.07964834 -0.15809512 0.0856449
2.3291166 -0.044347208 -0.18607 -0.053125296 -0.146528 0.019522838 0.28254932 0.115570284
-0.035227846 0.11342051 0.25257325 -0.012243596 -0.2137036 0.4087423 -0.1592798 -0.46121773
0.6770062 -0.26857957 -0.22799072 0.3593146 -0.120201804 -0.57047975 0.9490878 -0.3327205
-1.0030866 1.5071388 -0.5098633 -0.44285816 0.7410726 -0.22109412 -0.072888955 0.20259587
-0.11227058 -0.20568009 0.31107193 -0.18998486 -0.08582402 0.16577841 -0.06665809 -0.44672066
0.32131824 0.13884349 -0.7306404 0.66729707 0.26493305 -0.43709463 0.2916944 0.09856084
-0.96348846 0.7392067 0.3414136 -1.6615868 1.2888831 0.4874875 -0.8601028 0.5898406
0.16050795 -0.24123146 0.1320369 0.07668583 -0.29467404 0.30321708 0.0958175 -0.21236168
0.07230612 0.018542029 0.09375022 0.10872812 0.19060473 -0.15350673 -0.17722617 -0.17428203
-0.30140504 -0.22031319 -0.37881276 0.15737201 0.14502707 0.19005191 -0.37000674 -0.53694504
-0.49877074 -0.55021363 -0.65298766 -0.7485958 0.025151897 0.046512444 0.10305126 -0.09028221
-0.09722392 -0.06910854 -0.13581699 -0.09865721 -0.13532202 0.2873916 0.39034215 0.16523902
0.03872187 -0.16868044 -0.110668205 -0.2512615 -0.7638585 -0.49115384 0.572372 0.768645
0.27182066 -0.00570964 -0.36348385 -0.28879556 -0.50003344 -1.3679034 -0.795052 0.22239414
0.17228572 0.06692426 0.015168274 -0.11423867 -0.028856266 -0.121704206 -0.41077065 -0.190664
-0.027599351 -0.33250147 0.29223737 -0.041083533 -0.625921 0.5574691 -0.0061719106 -0.3432259
0.41011688 -0.032451462 -0.75523067 0.7489399 -0.046752013 -1.389941 1.2879988 0.042964764
-0.7200167 0.7817814 -0.019878836 -0.14736518 0.14320584 -0.0051062354 -0.2978892 0.22196074
-0.009815308 -0.13481452 0.16403493 -0.05962683 -0.16358855 -0.118045025 -0.039213922 -0.032902494
-0.08987394 -0.037477653 -0.10014342 -0.079254135 -0.74597955 -1.0150443 -0.8015427 -0.7585501

backbone1.0.1.weight f4 [16]
00000000: 163a 843e c0f7 9f3f 6f68 063f f77e fd3f
00000010: 6c1a e63e 7efd 203f 5bd5 af3d 466b a23d
00000020: fe45 e93e aec8 fc3e 0db0 103f 5be2 0c41
00000030: 35e4 f23d 3845 f93d 35dc be3d f761 3c40
0.25825566 1.2497482 0.52503103 1.9804372 0.44942033 0.628868 0.08585616 0.07930617
0.45561212 0.49371856 0.5651863 8.805263 0.11859933 0.121714056 0.09319345 2.9434793

backbone1.0.1.bias f4 [16]
00000000: d356 9340 1675 2240 ba4b 2b40 fb5f 2ac0
00000010: 28d6 3440 7a48 2d40 6548 8c3e 7c41 d7bc
00000020: 58dc 2a40 a6ba 2d40 5344 2b40 1ad0 51bf
00000030: 2b7b a03e 9a77 f53e 9c33 8d3f 04ea 1fc0
4.6043487 2.5383964 2.676497 -2.6621082 2.825571 2.7075486 0.27398983 -0.026276343
2.6696987 2.714517 2.6760452 -0.8195816 0.3134397 0.4794281 1.1031375 -2.4986582

backbone1.0.1.running_mean f4 [16]
00000000: 344a 9a3f a78f 143f 6895 dabf 3277 2940
00000010: 0b09 1f3e d415 d03e e3e1 7dc0 2085 33c0
00000020: e888 a1be 942f 4a3e 0d43 2d3f 53fb 84bf
00000030: a1a0 83c0 4cb6 7c40 8e82 9c40 e0fb e4bf
1.2053895 0.58031696 -1.7076845 2.6479 0.15530793 0.40641654 -3.966912 -2.8050003
-0.31549764 0.19744712 0.67680436 -1.0389198 -4.113358 3.9486265 4.890937 -1.7889366

backbone1.0.1.running_var f4 [16]
00000000: 7994 ae3d 048a 653d d1e0 513e a2e8 703e
00000010: e09e 9b3e eba6 713f d086 5b3e 0d83 ac3e
00000020: d7bd 103d 9f15 733d c9ed ff3d 9842 123e
00000030: f254 a13e d08b 1f3e 7c3c b33e b73e b63e
0.08524413 0.056039825 0.20495917 0.23526242 0.3039465 0.9439532 0.21438146 0.33693734
0.035337295 0.05934679 0.12496526 0.14283216 0.3151012 0.15580678 0.35007083 0.35594723

backbone1.1.block.0.0.weight f4 [16, 1, 3, 3]
00000000: 4b05 70be 4283 f43d 7ee4 363e 2b37 2740
00000010: f753 d43e fd2d 2cc0 24db 0440 72cc 903e
00000020: 13dc 11c0 9c39 1bbe dfd3 1dbf 7d2b 9cbe
00000030: 7a6d 023f 470b a33f 1cea 403f f6cb 67be
00000040: 1de4 53bf 61ec e3be eca8 813c ece6 02bc
00000050: 31f2 a53d 3002 003d f31f 42bf b86b 81bf
00000060: 84cf 8b3d c9d9 09bf d489 3ebf 5c1a 96be
00000070: 2946 8a3e a32c f63e 5a0d 9cbe 6563 bc3e
00000080: bee2 363f 20c3 163d e54b 45bc 7afd 2f3e
00000090: ec46 7f3c 1d29 f53d ff31 a6bd c221 03be
000000a0: c4c0 a53f db5b a6bf d0e3 f2bd 92bb 843f
000000b0: ea12 64bf 43e3 ccbc 2b4c 963e 357f 4cbe
000000c0: 441e 2f3e 33b3 953f d638 cabf 7a9a dd3c
000000d0: 8501 433f c6e6 83bf 371f 0540 4558 803c
000000e0: 37f1 10c0 8a10 8340 6138 f5bc b511 82c0
000000f0: 19dd 573f d3ef a9bd c613 89bf dd80 b4be
00000100: 8500 23bf dfdb 0cbf e8a8 63be 5dbf 32bf
00000110: 91f7 12bf f58f 333e d561 eb3e d571 2a3a
00000120: 7b73 2ebe 6e82 663e ddde aabd f383 93bf
00000130: 2642 893f 4abe c2bd 7abd 54bf 8002 5f3f
00000140: dd49 9ebd 842b 343e 3242 4dbd 1cab 2bbe
00000150: 4c7b 0ac0 0eee e0be f1c5 2340 02a4 e2bf
00000160: 8641 8fbe 3ad3 0f40 f6bf 063e cfd2 cb3d
00000170: 79a0 64bc 0235 a63e 5185 643f 9422 3e3f
00000180: dcea 8e3d e65b 2f3f 38dd 493f 76f7 ff3d
00000190: 539a d03e 66b9 913e 6489 d53e 7835 3b3f
000001a0: beec cd3e 4de3 753e 8f60 e53e a7fa ba3e
000001b0: 5512 153d e63c 4e40 5aff 3140 8b63 19be
000001c0: cb70 d63e 20ea b33e c2ce a73d 767d 53c0
000001d0: 427f 44c0 a922 fa3f 0608 6440 66b6 153f
000001e0: 2561 1d3f 5149 053f 3707 4ebd 5d0f 20c0
000001f0: 2ca5 75c0 a620 37bf a892 64be 39f6 6dbb
00000200: 2ca2 1b3e c4fb 7940 9748 4b3e 6789 81c0
00000210: f245 6140 77d8 ad3d 1782 6bc0 e7e5 623e
00000220: 464b 263e 9e40 923e 9692 913e 55ff 9cbe
00000230: e9f3 0ebf dcfe 763e 73ea 03bf 3700 38bf
-0.23439519 0.11939098 0.178606 2.6127422 0.4147031 -2.690307 2.0758753 0.2828098
-2.2790573 -0.15158695 -0.61651415 -0.3050193 0.509483 1.2737817 0.7535722 -0.22636399
-0.8276995 -0.4451628 0.015827619 -0.007989626 0.08102835 0.031252086 -0.7583 -1.0110998
0.0682669 -0.5384794 -0.7442906 -0.29316986 0.27006653 0.4808093 -0.30478936 0.36794582
0.7143973 0.03680718 -0.01204202 0.17186537 0.015580874 0.11970732 -0.08115005 -0.12805846
1.2949452 -1.2996782 -0.11859858 1.0369742 -0.8909136 -0.02501071 0.29354987 -0.199704
0.17101389 1.1695312 -1.5798595 0.0270512 0.76174194 -1.0304801 2.0800302 0.01566709
-2.2647226 4.095769 -0.02993411 -4.0646615 0.84321743 -0.08297696 -1.0709159 -0.35254565
-0.6367267 -0.55022997 -0.22232401 -0.6982325 -0.57409006 0.17535384 0.45973077 0.00065019476
-0.1703624 0.22510692 -0.08343289 -1.1524643 1.0723312 -0.09508951 -0.8310162 0.8711319
-0.07728932 0.17594725 -0.050111957 -0.16764492 -2.1637754 -0.4393162 2.5589564 -1.7706301
-0.27979678 2.2472672 0.13159165 0.09952318 -0.013954275 0.32462317 0.89265925 0.7427151
0.069783896 0.684996 0.7885318 0.12498371 0.4074274 0.2846176 0.41706383 0.7312846
0.40219682 0.2401249 0.4480023 0.36519358 0.036394436 3.222467 2.7812104 -0.14979379
0.4188293 0.3513956 0.08193733 -3.3045325 -3.0702672 1.9541827 3.5629897 0.5848144
0.61476356 0.52064997 -0.05029985 -2.5009377 -3.8382063 -0.7153419 -0.2232157 -0.003631009
0.15198582 3.9059916 0.1985191 -4.0480227 3.5198941 0.08488553 -3.679815 0.22158013
0.16239652 0.28564924 0.2843215 -0.30663553 -0.5584093 0.24120659 -0.51529616 -0.7187533

backbone1.1.block.0.1.weight f4 [16]
00000000: c8b0 c73f d260 463f 881f 6a3e a22d e23e
00000010: 2e8d ca3f d42f f23e 694c c13f 3d53 f03e
00000020: 8d8b 233f ef87 593f 5138 8c3e 2cf0 193f
00000030: 3f39 a53f 9d77 d13f bc3d 1d40 e9f0 423e
1.5600824 0.77491486 0.2286359 0.4417544 1.5824335 0.47302115 1.5101444 0.46938506
0.6388481 0.84973043 0.27386716 0.601321 1.2908095 1.6364628 2.456893 0.19037212

backbone1.1.block.0.1.bias f4 [16]
00000000: 89d8 873e ece0 db3f 4c71 cf3f fd4a 2f3e
00000010: 5b79 683d c090 3440 c2bb 1c3e 0254 493f
00000020: dcd7 da3f 3923 9e3e 1273 b53f 44cd eb3e
00000030: 734a 753e 2d24 d83d 88aa 96be f3bf ca3f
0.2653239 1.7178016 1.620645 0.1711845 0.05675636 2.8213348 0.15305999 0.7864381
1.7097125 0.30886248 1.4175742 0.46055043 0.23954181 0.10553775 -0.2942698 1.5839828

backbone1.1.block.0.1.running_mean f4 [16]
00000000: e376 643f e7f3 c2bd 2d23 e9c0 df7d c7be
00000010: e704 af3e e8e3 09bf 1746 01be 5660 013d
00000020: b754 4bbe 5014 5f3f 33bd 1541 d7ad c73f
00000030: 5e2e b83b a103 adbd 02ad e0be 2b6e 35bf
0.89243907 -0.09519177 -7.285544 -0.3896322 0.34183428 -0.5386338 -0.12624393 0.031586014
-0.19856535 0.8714037 9.358691 1.5599927 0.005620762 -0.08447958 -0.43881994 -0.7087123

backbone1.1.block.0.1.running_var f4 [16]
00000000: 6427 da41 330d a740 fbb6 0640 4a0e f23b
00000010: 13b9 3d40 e619 7040 6a11 fd3d a3b5 b23b
00000020: e5cc 5d40 8bf6 0441 bf1a 3f40 abf8 0443
00000030: b188 083e 9c55 993e 610c f53f 749a 6040
27.269234 5.220361 2.1049182 0.0073869573 2.964421 3.7515807 0.12356837 0.0054537817
3.4656308 8.310191 2.9860075 132.97136 0.13333394 0.29948127 1.9144403 3.509427

backbone1.1.block.1.fc1.weight f4 [8, 16, 1, 1]
00000000: cd6c 7ab0 410d acb1 2029 2630 0bf5 98b0
00000010: 8d1b 28b2 013f e0b0 15ec a5b1 d1cf 85b0
00000020: 9b78 f731 7fdd 8ab1 c776 18b1 dfae d8b0
00000030: f383 57b1 abc6 5bb1 8809 48b1 8119 4531
00000040: 73ac d2b0 75da 14b1 a586 9bb0 6d10 a0b1
00000050: 57d2 ebb1 d125 66b1 efd1 75b1 65db 6bb1
00000060: 9dde 2d31 455d 08b0 e759 17b0 2b4b 6a31
00000070: 340b 9bb1 9558 84b1 a432 9f31 ffa2 03b1
00000080: f3eb b0ba dfae 41ba 8730 efba c179 fcb9
00000090: ddc7 23ba 1056 16ba 7b12 45ba 3589 ecba
000000a0: 35a0 32ba 90b5 87ba 959e 39bb a016 693a
000000b0: 5537 60b9 a455 dab9 4766 95ba 7190 a2ba
000000c0: 7599 1ab1 f979 36b1 e1a7 8731 a507 7231
000000d0: f56e 93b1 283e 4ab1 9952 15b1 8540 09b1
000000e0: e863 c8b1 f575 b330 b46c c3b0 d98d 23b1
000000f0: 0dac 13b1 8f58 64ab 5830 66b1 b502 0db1
00000100: 97e0 a7ae e98a d9b1 df37 d4b0 5d45 a6b0
00000110: 7de2 87b1 3041 cb30 1c61 e02f 7993 95b1
00000120: 1db8 19ad 0dcc d2b0 f104 972f 8c6d b0b1
00000130: b7d2 4bb1 3527 d4ae 6bc8 df30 e51f abaf
00000140: 2561 b7b1 4547 d0b0 fc69 4ab2 fd38 97b2
00000150: b8ec 54b2 afdd e130 156c b9b0 fada 9aaf
00000160: dd26 4d32 bd7b 0cb2 f035 9fb1 c71e e3b1
00000170: f021 01b2 eb5b 67b2 16e3 24b2 40c1 17b2
00000180: 7ff4 64b1 e465 4fb1 fdc9 cc31 05f4 1631
00000190: d54a 48b1 8900 0bb1 4868 afb1 b5eb 92b0
000001a0: b75f 8bb1 540c b2af 9026 76b1 a5d0 d7b1
000001b0: cb02 2ab2 95bb 4db1 f8e1 b2af 7d71 4bb1
000001c0: a45a 9eb0 95ba c0b1 0329 c5b0 08cf 54b1
000001d0: 9c2f b9b1 ac4d 62b1 3cbb 71b1 c57b 922e
000001e0: 8467 c2b0 fd4e 88b1 f78e 0fb1 83e7 1db1
000001f0: 6930 8531 07ef 05b2 83e7 4b30 0fea 0730
-9.1104085e-10 -5.0073656e-09 6.044889e-10 -1.1129101e-09 -9.785151e-09 -1.6316052e-09 -4.8289714e-09 -9.736089e-10
7.2023574e-09 -4.04151e-09 -2.2186428e-09 -1.576577e-09 -3.1361622e-09 -3.1981624e-09 -2.9109248e-09 2.868177e-09
-1.5328524e-09 -2.1661013e-09 -1.1316003e-09 -4.6584803e-09 -6.863313e-09 -3.3490901e-09 -3.5771526e-09 -3.4321712e-09
2.5301354e-09 -4.9609056e-10 -5.506124e-10 3.409421e-09 -4.5123674e-09 -3.8517762e-09 4.633266e-09 -1.9155662e-09
-0.0013498053 -0.00073884235 -0.0018248715 -0.000481559 -0.00062477385 -0.000573487 -0.00075177074 -0.0018046262
-0.0006814034 -0.0010353792 -0.0028323282 0.0008891616 -0.00021382917 -0.00041644007 -0.0011398279 -0.0012402666
-2.249718e-09 -2.655382e-09 3.9481027e-09 3.521998e-09 -4.2908774e-09 -2.94302e-09 -2.1729305e-09 -1.99728e-09
-5.832124e-09 1.305749e-09 -1.4219013e-09 -2.3800253e-09 -2.1489115e-09 -8.112477e-13 -3.3496885e-09 -2.051974e-09
-7.634176e-11 -6.3313235e-09 -1.544091e-09 -1.2097804e-09 -3.954766e-09 1.4788721e-09 4.0814363e-10 -4.3532364e-09
-8.7379244e-12 -1.5337506e-09 2.747025e-10 -5.134728e-09 -2.9660165e-09 -9.6476084e-11 1.6282348e-09 -3.112738e-10
-5.337045e-09 -1.5154248e-09 -1.1782046e-08 -1.7604629e-08 -1.2393848e-08 1.6433911e-09 -1.349124e-09 -2.816803e-10
1.1941407e-08 -8.177207e-09 -4.633641e-09 -6.6100685e-09 -7.516505e-09 -1.3466869e-08 -9.59769e-09 -8.833297e-09
-3.3317347e-09 -3.0180383e-09 5.960145e-09 2.1966582e-09 -2.9146368e-09 -2.0227466e-09 -5.1050257e-09 -1.068989e-09
-4.056314e-09 -3.238677e-10 -3.5819632e-09 -6.2810437e-09 -9.895937e-09 -2.9938054e-09 -3.2538572e-10 -2.9604899e-09
-1.1521775e-09 -5.6091474e-09 -1.4345293e-09 -3.0967744e-09 -5.389621e-09 -3.293148e-09 -3.5176546e-09 6.661297e-11
-1.4144779e-09 -3.967101e-09 -2.0890505e-09 -2.2978106e-09 3.876313e-09 -7.795967e-09 7.417997e-10 4.944533e-10

backbone1.1.block.1.fc1.bias f4 [8]
00000000: 9151 ecb0 9532 1fb1 a77f 2bb9 bd04 01b1
00000010: a12d b1b0 9199 9632 5760 c2b1 35b2 d42e
-1.7194443e-09 -2.3166298e-09 -0.00016355385 -1.8774664e-09 -1.2891413e-09 1.7532132e-08 -5.6570957e-09 9.6723e-11

backbone1.1.block.1.fc2.weight f4 [16, 8, 1, 1]
00000000: 9e24 29b0 51dc 4a31 fdaa 0f3b 6126 852f
00000010: 79de 00b1 b1e5 8a32 7b37 eb31 e07a 7031
00000020: e035 8730 d3d1 52b0 bfae cc3a 6b08 7e30
00000030: 1515 d5b1 e0e2 7e32 5de0 8131 ed2b 6531
00000040: c45a 45b0 502b 6631 34cd 913a 07d6 17b1
00000050: 14f4 07b1 13fc 0432 db92 8ab1 b539 5631
00000060: d84e 44b1 e4ad a931 d3bf fc3a 60ed 32b0
00000070: 4941 4e30 e5ad 0d32 0502 0bb0 e4f4 8d30
00000080: 138a c6b0 9c17 ca30 1b82 1f3b ad0f 462f
00000090: ad35 0fb0 15f7 3231 7548 9131 1b95 cb30
000000a0: 9c73 9db1 a31a 1eb0 f467 ee39 dceb b7b0
000000b0: d55c 4630 3817 6832 dd9c 48b0 6b69 cab0
000000c0: 00da 2530 35b8 9bb1 ecc1 133b 9f2c aeb0
000000d0: a948 0a31 28ca 5532 7d98 0731 7d25 dbb0
000000e0: 6fc2 bead 7dbe 8330 39f0 023b c454 44b1
000000f0: 7515 8e31 7813 e030 cb0b 2c31 a316 05b0
00000100: 7dbd 64b1 a192 36b0 0fa7 bb3a 8870 bd31
00000110: 2129 0630 8d57 1832 2cf1 4830 4479 9730
00000120: fc5d 7bb1 b5c9 5231 1556 db3a 8faf 2e31
00000130: 64fb 18b1 30ca 5232 5d9e 7cb1 1de7 4931
00000140: afc7 8a2e a536 70ae 7304 733a 7bb7 f5b0
00000150: 4b6f 0631 a020 5732 e5a8 fab0 5868 eeb1
00000160: bf65 50b0 3b10 1931 edce 893a 057e 1030
00000170: 8450 64b1 5061 4732 a318 7a31 15fe b4b0
00000180: 9033 8a31 e11e 96b0 313d 0a3b 7f60 3330
00000190: 3002 8830 181b c231 75c4 d9af ebb1 41b0
000001a0: 082c 47b0 cdc2 ae31 6d77 2f3b 7153 76b1
000001b0: 34e7 17b0 6c79 6232 c19e 9630 f797 b2b0
000001c0: b900 9a30 cd63 5931 89c9 093b fd71 2631
000001d0: 193e bbb0 7550 5132 9580 9e30 386e 9ab0
000001e0: ac4e 1fb1 677e 0ab1 238e 893a f426 67b1
000001f0: f9be 1bb0 d8d3 e031 a8d1 08b1 e8d8 b0b0
-6.153388e-10 2.9520104e-09 0.0021921985 2.421983e-10 -1.8752913e-09 1.6169766e-08 6.8457076e-09 3.4994443e-09
9.837855e-10 -7.6695733e-10 0.0015616043 9.2416624e-10 -6.2015126e-09 1.4836331e-08 3.7799013e-09 3.3348855e-09
-7.179717e-10 3.3494025e-09 0.0011123777 -2.2095052e-09 -1.9783828e-09 7.740726e-09 -4.033024e-09 3.1173901e-09
-2.8566571e-09 4.9383164e-09 0.0019283242 -6.5093353e-10 7.503514e-10 8.246819e-09 -5.0570775e-10 1.0328702e-09
-1.4445639e-09 1.4704145e-09 0.0024339024 1.8013564e-10 -5.2099375e-10 2.604286e-09 4.228293e-09 1.4812572e-09
-4.5824446e-09 -5.751792e-10 0.0004547235 -1.3382038e-09 7.21639e-10 1.3509457e-08 -7.298249e-10 -1.4727396e-09
6.0336447e-10 -4.5320356e-09 0.0022546006 -1.2672848e-09 2.0122946e-09 1.2444197e-08 1.9731765e-09 -1.5945002e-09
-2.1686845e-11 9.585645e-10 0.001997961 -2.8569938e-09 4.1351833e-09 1.6303678e-09 2.5035998e-09 -4.8417287e-10
-3.3286078e-09 -6.6419586e-10 0.0014316755 5.5134173e-09 4.8807364e-10 8.867471e-09 7.31023e-10 1.1021162e-09
-3.6578731e-09 3.067368e-09 0.0016734028 2.5420126e-09 -2.226181e-09 1.2269581e-08 -3.6760845e-09 2.9380722e-09
6.3109844e-11 -5.4618216e-11 0.00092703773 -1.7878244e-09 1.956283e-09 1.2522065e-08 -1.8237897e-09 -6.938574e-09
-7.581455e-10 2.2273656e-09 0.0010513939 5.256598e-10 -3.3224135e-09 1.1605451e-08 3.6393792e-09 -1.3168938e-09
4.0221906e-09 -1.0922713e-09 0.0021093602 6.525695e-10 9.895924e-10 5.6492233e-09 -3.961166e-10 -7.046583e-10
-7.245835e-10 5.086213e-09 0.0026774064 -3.5845142e-09 -5.526204e-10 1.31825395e-08 1.0959057e-09 -1.2994396e-09
1.120518e-09 3.1634386e-09 0.0021024665 2.4220974e-09 -1.362369e-09 1.2183695e-08 1.1532558e-09 -1.1236301e-09
-2.3182265e-09 -2.0153494e-09 0.001049463 -3.3637066e-09 -5.666006e-10 6.543342e-09 -1.990978e-09 -1.2867334e-09

backbone1.1.block.1.fc2.bias f4 [16]
00000000: cb5c f53e 7c6e 303f fa88 593e 2964 88bf
00000010: 381f 33bf f650 af3f 84f0 acbe 3b94 00bf
00000020: cce3 133f 5089 c3be 3547 153f e971 93be
00000030: 33a0 d4be 0d78 80bd ba34 f23d d044 d7be
0.47922358 0.68918586 0.21243659 -1.0655566 -0.6996951 1.3696582 -0.3377725 -0.5022618
0.57769465 -0.381907 0.5831178 -0.28797844 -0.41528472 -0.06272898 0.11826463 -0.42044687

backbone1.1.block.2.0.weight f4 [16, 16, 1, 1]
00000000: a7b5 01c0 9118 033e 52b0 8d3c 031a 90be
00000010: 0b01 a9be 91c6 2cbf f380 38bd 2f3a 693e
00000020: a3cf 67be 15bf 6f3e 6f79 533d fa80 dbbe
00000030: 6d10 073f ff9d b53e f0bf 90bd 9fcf 0dbe
00000040: 68d5 433f 52b5 0e40 c514 febd 4b0d cfbe
00000050: eab4 46bf 7f41 0d3f 9844 983f f5cc eb3d
00000060: 9933 8e3c c4c4 3dbe 505f a03b 51f1 f6be
00000070: 7084 983f 3eee 6bbe c44a 66bd bbd4 ed3e
00000080: 66a5 af3d cb5a 7abd dd17 0bbe 9149 88bc
00000090: b38e 44bd ddbb e6bd 4229 65bc 1600 183c
000000a0: c232 a3bd 8762 2abe 973d 7c40 4929 133d
000000b0: 848f 813d a693 55bd 5c55 c73b 0e78 883d
000000c0: 6603 5f3e b639 97bf 13d8 1bbd fd91 c8be
000000d0: b7e5 fabf 1578 a53f 1825 de3d 3058 a93d
000000e0: 9b43 6c3f ffe5 26bf 5406 60bd 210d de3e
000000f0: 32df a73e 3959 9fbf 1bdc 093d e071 87bc
00000100: 1a2d 3f3e 186c 95be 1b3e 2440 79c2 863f
00000110: 874b d3bd 45d5 15bf f064 a0be 8616 97bf
00000120: 5cb0 353d f77b bfbc fa29 d33d 3cc5 1abd
00000130: c1da 563e 3cb6 7f3e d77e 013d e8f4 01bf
00000140: b4a3 95bf 9b26 80be 5cdb 283d 052e e73e
00000150: deb7 c13c ea0f 033f 4489 d13f a56d 0abd
00000160: 1581 f2be a7c0 9dbf 0c42 a13c 4ce0 363e
00000170: e93f e9be 0c76 5abe f499 02bf a46c 293e
00000180: 8686 f33b aa64 e63c 78b0 1440 f1bf afbf
00000190: 8bee 693d 3a27 0c3f deaf be3e 0011 7e3f
000001a0: d05a 7fbe 8bc2 df3b f368 883e ca99 893c
000001b0: b1e5 71be c6f7 96be c547 06bd 9479 463f
000001c0: 74b4 e63c ee54 303e 4c8b 1b3d f57f 6c3f
000001d0: 3d3b 163e fd4d fabd 9097 a1be 4d9d 2c40
000001e0: d18a 08be 6654 103d 1da1 893c 5150 5d3d
000001f0: 7867 953f 210f 6fbf 8326 613e be4b 5fbf
00000200: 9e46 8cbf 2031 8e3f b49d 1c3e 4dc7 7c3e
00000210: 92ef 78bd d177 b83f 136c febe 008a b7be
00000220: 841d a23f 7a18 943e 3df6 763d f2f4 353f
00000230: 4cdd 833d 39d7 c4be e1ca dfbe 4c59 5bbe
00000240: ea69 9b3e 9ea7 2c3d ccc5 2c3d 7a42 603e
00000250: 9023 d9be 466f d63e e0da 143f d5be 963f
00000260: f716 8c3f 81b2 92be a4e1 47bd 19bf 833d
00000270: 19de afbf c3b5 0d40 7b7e af3b 75a1 eebe
00000280: a4e0 db3d eb50 613f 8023 fbbc a23d 333e
00000290: f26f 22bf 01a4 a1be 08de 8cbe 02f2 943a
000002a0: 85bd 7fbf 4d50 65be 9f22 3fbd f011 4c40
000002b0: dbd9 b6be 8818 7a3c c57f 0a3f 9bd2 8cbe
000002c0: 8c7d 85be a1cf 4d3f 080c dd3c 350f 813e
000002d0: f442 e6bf 4ed9 eb3f b89d 7cbf de7b 22be
000002e0: d672 efbf 70fb 8b3e e799 9c3d 8c83 1bbf
000002f0: d638 85bf a434 8d3e c912 e23e 4f28 65be
00000300: bd3e 2dbc 6909 abbf 065a 1cbc 1fe2 e8bd
00000310: 0edb 60bf f96b c43f 415f 213f eb33 a83d
00000320: bd56 4abf 623c 893f 5213 fc3d 556d 1c3f
00000330: b06b 473f 1c65 133f 98b8 dfbe 5c37 023f
00000340: 5d29 93be 400e d83d ded7 74bb 50ba 4bbf
00000350: 2c36 1abd 5504 0cbe 9fba 6bbf 9367 133f
00000360: 6911 ae3e 2936 dcbd 5668 513d 9ab0 783e
00000370: c277 8cbe 7cc1 db3b c4fa 893e fa6a 0a40
00000380: 2f48 503e 127a 9b3c d267 963c a1ad 8f3d
00000390: d80f 9fbe f4f6 5cbd 2fc3 9f3f d2cb 8d3e
000003a0: 0686 7abc f40b 0840 04c2 923d cb0b 8fbc
000003b0: 37a9 0dbf 3ff0 dbbe a13d d7bd 93d9 fa3c
000003c0: d048 f23d b839 cc3d 6f3e 3bbd 14eb f33c
000003d0: 79b9 a3bd 9dbd e9be 93e3 00be 4169 963d
000003e0: 34c9 67be 726b cabd 3686 d53b a298 fc3d
000003f0: abcd 8abe 5cd3 ccbc 78dc 41c0 e8e1 ba3c
-2.0267122 0.1280234 0.01729599 -0.28144845 -0.33008608 -0.6749049 -0.04504485 0.22776102
-0.22637801 0.23412736 0.05162948 -0.4287184 0.5275944 0.35472104 -0.07067859 -0.13848732
0.7649751 2.229817 -0.12406305 -0.4043983 -0.776198 0.55178064 1.1895933 0.11513702
0.017358588 -0.18532091 0.0048941746 -0.48230985 1.1915417 -0.23040101 -0.056223646 0.46451363
0.08576469 -0.061121743 -0.13583322 -0.016636642 -0.04798765 -0.11266301 -0.013986887 0.009277364
-0.07968666 -0.16639148 3.9412591 0.035928044 0.063262016 -0.05214276 0.0060831737 0.066635236
0.2177864 -1.1814487 -0.03804786 -0.3917388 -1.9601353 1.2927271 0.10846919 0.082687736
0.9229066 -0.65194696 -0.054693535 0.43369392 0.32787472 -1.2449104 0.033657175 -0.016533792
0.18669549 -0.2918403 2.5662906 1.0528098 -0.1031714 -0.5852855 -0.3132701 -1.1803749
0.044357643 -0.02337454 0.10310741 -0.037785754 0.20981885 0.2497186 0.031615105 -0.5076432
-1.1690583 -0.25029454 0.041224822 0.45152298 0.023647245 0.5119616 1.6370015 -0.03379597
-0.47364107 -1.2324418 0.019684814 0.17859 -0.45556572 -0.21334094 -0.51016164 0.1654535
0.007431808 0.028124172 2.3232708 -1.3730451 0.057112258 0.54747355 0.3724355 0.9924469
-0.24936986 0.0068286113 0.2664257 0.016796965 -0.23622777 -0.2948591 -0.03278329 0.77529263
0.028162219 0.17219898 0.03797464 0.92382747 0.14671035 -0.12221906 -0.31560946 2.6971009
-0.13334204 0.03523674 0.016800458 0.054031674 1.1672201 -0.9338246 0.21987347 -0.8722495
-1.0959051 1.1108742 0.15294534 0.24685402 -0.060775347 1.4411565 -0.4969183 -0.35847473
1.2665257 0.28924924 0.060293425 0.7107688 0.064386934 -0.38445452 -0.43709472 -0.21420783
0.30354244 0.04215204 0.04218082 0.21900359 -0.42409945 0.4188177 0.58146477 1.1776987
1.0944508 -0.28651813 -0.048799172 0.06432933 -1.3739654 2.2142189 0.005355654 -0.46607557
0.10736206 0.88014096 -0.030656576 0.1750398 -0.63452065 -0.31570438 -0.27513146 0.0011363628
-0.9989856 -0.22393914 -0.046663877 3.1885948 -0.35713086 0.015264638 0.5410121 -0.2750443
-0.26072347 0.8039494 0.026983276 0.25206915 -1.7989182 1.8425691 -0.9867816 -0.15867564
-1.870692 0.2734027 0.07646542 -0.607476 -1.040797 0.27579224 0.44154957 -0.22378658
-0.01057404 -1.3362247 -0.009542948 -0.11371254 -0.8783425 1.5345451 0.6303597 0.082130276
-0.790386 1.0721552 0.123083726 0.6110433 0.77898693 0.57576156 -0.4369552 0.5086572
-0.28742495 0.10549593 -0.0037360112 -0.79581165 -0.03764932 -0.13673528 -0.92081636 0.57579917
0.33997658 -0.10752518 0.051124893 0.24286118 -0.27435118 0.0067064147 0.2694913 2.1627793
0.20340036 0.018979106 0.018360052 0.07015539 -0.31066775 -0.05394645 1.248144 0.27694565
-0.015290743 2.1257296 0.07165912 -0.017461678 -0.55336326 -0.4295673 -0.10509802 0.030621326
0.11830294 0.099719465 -0.04571384 0.02977518 -0.079943605 -0.45652476 -0.12586813 0.07344294
-0.22635347 -0.09883775 0.0065162433 0.123338 -0.27110037 -0.025003128 -3.0290813 0.022812799

backbone1.1.block.2.1.weight f4 [16]
00000000: 1ed9 9a3f b55c c33f 2685 303f 8961 b23f
00000010: a76a 1d3f 574f ba3f 2be9 473f 4623 723f
00000020: 6887 c93f 8ad5 be3f 13d0 ad3f f259 b33f
00000030: a2f1 a13f 54d2 163f c5c8 a73f f55d d83f
1.2097509 1.5262667 0.6895317 1.3936015 0.61490864 1.4555463 0.7809016 0.94585073
1.5744448 1.4908917 1.3579124 1.4011824 1.2651865 0.58914685 1.3108145 1.6903673

backbone1.1.block.2.1.bias f4 [16]
00000000: c5e0 cb3a 54b6 1dbd 28a0 08bd a50d 61bd
00000010: cd1e e53b 4015 d73c 756d 173b fc39 4fbd
00000020: 3e69 ef3c 6607 24bd d2b2 b1bb cc9b d53b
00000030: 9a2b 3ebd 910f 23bd 5351 c63b fc73 8d3c
0.0015554657 -0.03850396 -0.033355862 -0.054944653 0.006992197 0.02625525 0.0023106013 -0.050592408
0.029224988 -0.04004612 -0.0054229284 0.0065188166 -0.0464283 -0.039809767 0.006052175 0.01726722

backbone1.1.block.2.1.running_mean f4 [16]
00000000: b5c3 07c0 1c8b 8740 f32c 3a40 fd56 e73f
00000010: 7a74 873e 9591 7a3c 3928 7a40 e706 873e
00000020: a483 9c40 fe02 2040 cedd e0be 0c96 f13f
00000030: 21f2 f23f 73c7 c63f 9cfa f03e 514c d2bf
-2.12132 4.235731 2.9089935 1.8073422 0.26456052 0.0152934985 3.908705 0.26372454
4.8910694 2.5001826 -0.43919224 1.8873916 1.8980142 1.5529617 0.470662 -1.642954

backbone1.1.block.2.1.running_var f4 [16]
00000000: 7b54 043e 0107 923f 35cd 013f 2800 803f
00000010: 10fb 453e ee98 f93e 96a5 693e 431d e13e
00000020: 6edd bd3f 89e5 623f b5a6 db3f eb25 b63f
00000030: b2c9 e93e 7500 023e d9c4 d13e 6762 e03e
0.12922852 1.1408387 0.50703746 1.0000048 0.19334054 0.4874949 0.22817072 0.43967637
1.48332 0.8863149 1.716025 1.4230322 0.45661694 0.12695487 0.40970495 0.43825075

backbone1.2.block.0.0.weight f4 [72, 16, 1, 1]
00000000: b0c8 f13e 7dc4 ecbe 9fc1 ab3d 4f7a afbe
00000010: 1e56 263e 817c 60bf 8d6f 07be 58d9 123e
00000020: c12f d93d fd2d 66be f73e 29be 439b 223e
00000030: 1787 303f 4cc7 2f3e f88c 843f d55a 47be
00000040: 2a6f fdbc e32f a1bc c661 713f 737a 6e3e
00000050: a8f9 c73d e04c 7ebe f982 e83b dce6 153d
00000060: ef37 cd3d ea1d 15bf 6da0 0e3e f3f0 703d
00000070: 87cb 3a3c 06b5 87be e433 a1be ee45 c0be
00000080: 17c4 a5be 1d98 6abf 84f0 04bc a7f8 dbbe
00000090: a5b6 1ebe 7db0 95bc 6c1c 4a3e fceb 47bf
000000a0: 191a d3bd e1ff 853f 1558 823e eab3 953f
000000b0: 5928 7ebf 406e c23e 63ef fb3e 41ad 07be
000000c0: 6f1c df3d bca6 4a3f c1ba 3e3c 38e0 8ebe
000000d0: 1c65 86bd 71aa 063e cfdd bf3d e0a8 12bc
000000e0: 3694 883e fdc5 943d b25d ff3e 871b 383e
000000f0: 4315 ccbe e96f a8bc 0073 8bbd e2c9 e03d
00000100: 4557 9fbd f858 12bd 93f5 aebd 2d91 a93c
00000110: 5374 1f3f a032 023d 459f edbe 1810 aebf
00000120: ecbc 3a3e 983f fbbe 8b3b 133c 4faa 093d
00000130: 8a7b be3b 3008 bdbe a16b d6bd b8fc ffbc
00000140: 9bab b23e d4fe cabd a964 8b3d 1c43 d03d
00000150: f516 053f 4a06 d9be 6af4 12bf f3dd 963c
00000160: f8b2 94be 8c4d 9b3e c4f3 b93d 3be1 7bbf
00000170: 909f 32bf 8786 e23e 92de 283e bfde 1c3e
00000180: 6f81 0c3f 23a5 143e c12c 01bd 969c 913e
00000190: a420 51be d80d bf3f 9070 8f3d 3ae8 34be
000001a0: f064 0d3e b1b3 b23d 9007 afbc b485 15bc
000001b0: 1b66 e1be d3e0 a3bd 6dec 98bf 9866 153f
000001c0: bada 26bd ed47 df3d 5cfc 2e3f fc4a b43e
000001d0: f949 243d 6e5f 84be cd20 a43c 9127 2f3f
000001e0: 453e d43d aee2 4fbf 0d9f b13c bc4b b8bd
000001f0: 7646 01bd 9264 1f3c 7691 46be 2912 06bf
00000200: 83e7 bcbe 9917 41be e716 9b3d 06ba 38be
00000210: e195 fdbd 1715 453e b8a4 2e3e 9569 05bd
00000220: 4927 8e3e 0e27 3fbe 6c9b 26be a537 693f
00000230: f9e2 003f 3e78 cdba ac38 4bbe 31f9 acbe
00000240: 5449 d23f 48bc 32bf 5caf 1bbd 45e3 c6be
00000250: 82af 84bd 1eba 7a3e 8579 12bd b40b c73d
00000260: ce81 963f 55cd c2be c699 93be 775c 403d
00000270: 41a4 bb3e 2925 3a3e aa0f 5b3f 6862 863e
00000280: 8314 13bd d3cf bbbd 232c 903c 70da a0be
00000290: 7a4d f43d df06 45bf 7d24 49be 46d0 59bd
000002a0: bcac bd3e 2c01 cbbd 9daf ffbe 1cbb dcbd
000002b0: 0d77 363f 62b9 f4bd 7a3f 8c3f 1458 d23f
000002c0: abf5 86be 82a9 5dbe 9775 b63d da52 0ebf
000002d0: a5ec 833e 561d b83e eab0 c3be 2963 0f3f
000002e0: 31a4 133e 04c1 8f3e 0099 eb3e 2106 06bf
000002f0: b017 ccbd cdab e8be 9c1b ae3e d49c e4be
00000300: 6f8c 5cbe 9b95 233e efc9 883f 04ad 333d
00000310: 4f6a 8fbf ab22 473e 92b1 c3bf d3af 0bbe
00000320: dd2a 4bbd 3e0e b13d 8881 233c c7f0 413d
00000330: 4c5e 6fbe 02c0 81bd f8c3 b1be ce5b 15bc
00000340: 3553 84be bd72 c23d 3c5e 0dbd 2640 5f3f
00000350: f8d2 c7bd 165d 9c3d 2118 6e3d b895 783f
00000360: bf36 813e 727e 05c0 c409 f6bd eff7 b1bd
00000370: 274e 13bf 60e4 27bc b125 6b3e cde2 65be
00000380: 76a6 2a3d 2b65 0e3e 0b9c 63bd 5108 42bf
00000390: f725 e83e ea2a 083e 9e70 14bf 674a b83e
000003a0: 650c 0b3d 7180 153f dc09 063f 4de2 02bf
000003b0: cd6c 043f e9d2 22bf 0b27 61be a183 edbe
000003c0: b895 afb1 9512 c3ae ec42 54b1 3cfd c0b0
000003d0: 98c1 b22f ddd5 65b1 3b3b 8b31 7bdd 71b1
000003e0: 2386 4d2f 0baf 9230 713a b7b1 754a 0ab1
000003f0: 1425 1c31 c833 c7b0 08c7 a431 e562 0d31
0.47223425 -0.4624366 0.0838654 -0.34273002 0.16243789 -0.8768998 -0.13226147 0.14340723
0.106048115 -0.2247848 -0.16527925 0.1587954 0.6895613 0.1716587 1.035552 -0.19468243
-0.030936796 -0.019676154 0.94289815 0.23288898 0.09764415 -0.24834013 0.0070956913 0.036597118
0.10020434 -0.5824877 0.13928385 0.058823537 0.011401064 -0.26505297 -0.31484902 -0.37553352
-0.32376167 -0.91638356 -0.008113984 -0.42963144 -0.15499361 -0.018272633 0.19737405 -0.7809446
-0.10307712 1.0468713 0.25457826 1.169553 -0.99280316 0.3797474 0.49206075 -0.13249685
0.10894095 0.79160666 0.011641205 -0.2790544 -0.06562254 0.13150956 0.093684785 -0.008951396
0.26675576 0.07264326 0.4987617 0.17979251 -0.3985997 -0.020561175 -0.06809044 0.10976006
-0.07780317 -0.03572938 -0.08542933 0.020699108 0.6228687 0.03178656 -0.46410576 -1.3598661
0.1823613 -0.49071956 0.008986364 0.033609685 0.005813067 -0.3692031 -0.10469747 -0.031248435
0.3489655 -0.09911886 0.06806309 0.1016905 0.51988155 -0.4238761 -0.57404196 0.01841638
-0.29042792 0.303326 0.09079698 -0.9839055 -0.69774723 0.4424326 0.16491154 0.15319346
0.54885 0.1451612 -0.03153682 0.28439778 -0.20422608 1.49261 0.070038915 -0.17666712
0.13808036 0.0872568 -0.02136591 -0.009126116 -0.44023213 -0.08001866 -1.1947151 0.5835967
-0.040735938 0.10902391 0.6835382 0.3521346 0.04010961 -0.25854057 0.020035172 0.6841975
0.103634395 -0.8120526 0.021682287 -0.0899882 -0.031561337 0.009728568 -0.19391426 -0.5237146
-0.3689538 -0.18856658 0.07572728 -0.18039712 -0.12382103 0.19246326 0.17055023 -0.032571394
0.27764347 -0.18667242 -0.16270226 0.9110053 0.5034633 -0.0015676094 -0.19845837 -0.33783868
1.6428628 -0.69818544 -0.038009033 -0.38845268 -0.06478788 0.2448506 -0.03576042 0.09719029
1.1758363 -0.3804728 -0.28828257 0.04696318 0.36648753 0.18178238 0.85570776 0.26246953
-0.035908233 -0.09170499 0.017599171 -0.31416655 0.1192884 -0.7696361 -0.19642825 -0.05317714
0.37045848 -0.09912333 -0.4993867 -0.10777876 0.7127541 -0.119494215 1.0956872 1.6433129
-0.26359305 -0.21646693 0.08909147 -0.5559517 0.25766483 0.35959882 -0.38220912 0.5601068
0.14418103 0.28076947 0.46015167 -0.523531 -0.099654555 -0.45443574 0.3400544 -0.446509
-0.21537946 0.15975039 1.0686625 0.043866172 -1.1204318 0.19446819 -1.5288565 -0.1364129
-0.049601424 0.086452946 0.009979613 0.047348764 -0.23375815 -0.06335451 -0.34719825 -0.009116126
-0.25844732 0.09494541 -0.034513697 0.8720726 -0.09757036 0.07634942 0.05812848 0.9710345
0.2523708 -2.0858426 -0.120135814 -0.08689868 -0.57541126 -0.01024732 0.22963597 -0.22449799
0.041662656 0.1390578 -0.055568736 -0.7579394 0.45341465 0.1329762 -0.5798434 0.35994264
0.033947367 0.5839911 0.52358794 -0.5112656 0.51728517 -0.63603073 -0.2198755 -0.46389487
-5.1101914e-09 -8.870874e-11 -3.08881e-09 -1.4041812e-09 3.2515568e-10 -3.3445453e-09 4.052166e-09 -3.5196013e-09
1.8692296e-10 1.0672648e-09 -5.332645e-09 -2.0123967e-09 2.2722064e-09 -1.4493873e-09 4.7956554e-09 2.0574416e-09

backbone1.2.block.0.1.weight f4 [72]
00000000: d590 683f 8e54 983e 86ec af3f 96b2 8b3e
00000010: 44a1 933e 6ec5 273e 2417 863f 2827 623e
00000020: 39e4 533e 60eb 873f 4f4f b13f a245 b33e
00000030: 1f3e 453f 4eb2 aa3f 03da 413e 6c18 2430
00000040: eb99 c33e 72a0 8b3e dce5 2b3f 2261 e33d
00000050: 906e 64b0 5796 d93f 6c5f 2d3f 1d0a a13e
00000060: 7946 5a3f 8e3c 4c3e af0e 8e3f 9888 8b3f
00000070: fa00 9c3f d6f4 b23d 5bdd 843f 1c8d b63f
00000080: d82d 873e 2519 d73e f549 b73f b0e5 ea31
00000090: 788c ec31 778f 333f bf40 1232 3ef9 0e3e
000000a0: 5835 023f 6374 bc3f 2a70 473e aa99 fd3e
000000b0: b1ec b93e 6239 a23e 519b 923e 1b45 a83e
000000c0: 288e 733e de78 b23f 6e8a 2d3f c3eb da3f
000000d0: 66a5 c33f 6482 923e b330 0c3e 5770 8d3f
000000e0: 3c7e df3d 8b3b 8e3f 15e0 313e 8968 d33e
000000f0: 835c d23f a3ca 193e 7bb0 193f 2498 c73e
00000100: 70eb c53d b222 8f3f f4ee 393e f1b9 a33e
00000110: 71d1 053e 5a1a 013e 97e2 293e 607f b13f
0.90845996 0.2975201 1.3744056 0.27284688 0.28833973 0.16383907 1.0475812 0.2208525
0.20692529 1.0618706 1.3852328 0.35014063 0.77047914 1.3335664 0.18930821 5.969756e-10
0.38203368 0.27270848 0.6714761 0.11102511 -8.3103036e-10 1.6999005 0.6772373 0.31453028
0.8526378 0.19944975 1.1098231 1.090106 1.2187798 0.08738105 1.0380052 1.4261813
0.26402164 0.4201137 1.4319445 6.8364088e-09 6.8844734e-09 0.70140785 8.51304e-09 0.13962266
0.50862646 1.4723018 0.19476381 0.495313 0.36313394 0.31684405 0.28634122 0.32865223
0.23784697 1.3943136 0.6778935 1.7103199 1.5284851 0.28615105 0.13690452 1.1049908
0.10912749 1.1111921 0.17370637 0.41290691 1.6434482 0.15018706 0.6003491 0.38983262
0.09664047 1.1182463 0.1815756 0.319778 0.13068177 0.12607709 0.16590343 1.3866997

backbone1.2.block.0.1.bias f4 [72]
00000000: 567c 5a3e 5d08 4f3f 470f 15be c47d 8a3f
00000010: fd64 1b3f aeed 203f 4bfc 97be 0e98 2c3f
00000020: 263c 223f 4fc9 f8bd 25d6 923b 467f a03e
00000030: 4de7 063d 3f4f 3abe d74a 183f 49b8 4db2
00000040: a6ea a63e e9d2 6c3f 2342 543e 5f75 1f3f
00000050: 7524 bcb2 9bbd 75be 688b bb3e b398 663f
00000060: 2757 543e e7f8 523f fd52 aabe c933 3abe
00000070: 1ad4 c0be 4cd9 283f a6f9 c4be 4661 b9bd
00000080: d18d 2f3f 97c0 853e eecf a33e b110 2ab1
00000090: 981e eab0 7499 a33e 6175 4eb0 b480 443f
000000a0: 5f8a e53e e0ba 70be d703 7c3f 7fcf ff3e
000000b0: 07cd 3a3f 90c0 2b3f 313c 523f 4d05 433f
000000c0: 24b4 073f 8821 813e 352c 6e3d 5b38 883e
000000d0: cd00 cdbe c48c 273f 7297 243f 4259 64be
000000e0: d782 443f 740f a2be fe22 263f 6ed7 133f
000000f0: a038 c1be 88ad 533f 0e3d 053e 21ea c03e
00000100: dc68 573f 4195 b4be a639 313f c450 c83e
00000110: b860 383f 05f5 4e3f 3c20 183f 9834 94be
0.21336493 0.80872136 -0.14556609 1.0819631 0.6070097 0.6286267 -0.29684672 0.6741952
0.6337303 -0.121477716 0.0044810944 0.31347102 0.03293543 -0.18194292 0.59489197 -1.1974472e-08
0.32600898 0.92509323 0.20728354 0.6228847 -2.190266e-08 -0.2399811 0.36629796 0.9007675
0.20736371 0.82411045 -0.3326644 -0.18183817 -0.3766182 0.6595657 -0.38471717 -0.090517566
0.6857577 0.26123497 0.31994575 -2.4747744e-09 -1.7034436e-09 0.31953013 -7.510917e-10 0.76758885
0.4483213 -0.23508787 0.9844336 0.49962994 0.72969097 0.670907 0.82123095 0.76179963
0.5300925 0.25220895 0.058147628 0.26605496 -0.40039673 0.65449166 0.6429359 -0.22299674
0.76762146 -0.31652415 0.64897144 0.57750595 -0.37738514 0.8268666 0.13011572 0.37678626
0.8414438 -0.35270122 0.6922859 0.3912412 0.7202258 0.8084262 0.59424186 -0.28946376

backbone1.2.block.0.1.running_mean f4 [72]
00000000: 44f6 91bc f425 b6bc 4e3d b13d bf0d 7f3c
00000010: 5059 d73d 22ec cdbc 15b0 793d 8017 6dbd
00000020: 4711 293c 40df c03d 6d17 8c3c b7a5 c23c
00000030: 7f36 2bbd 7f38 903c 8651 f0bb 7235 672f
00000040: 8d81 a8bc 276b e33c 9015 63bc 1102 883d
00000050: fb3f fe30 d3c2 5bbd b0f8 843d 5e2d 03be
00000060: e403 363d 767a 0c3b f272 3cbd eeb1 6f3d
00000070: 1d92 93bc f602 553c f88b ac3d e625 443d
00000080: 7d2d fb3d c402 74bd 9808 1c3e f44c 422f
00000090: b47f c2ae 4018 d33d e763 18b0 e38e 11bd
000000a0: f682 073d 1d5f 03bd 3dfc 363d a8ea 3fbc
000000b0: ca1d 6ebc 8de7 3cbd 073d 113d 6d2e 4e3e
000000c0: 77ce d73c d51f 9dbd bb10 8abd 837b 863c
000000d0: 47f0 aa3d bd2a b8bc 0236 69bd 3d3c 72bd
000000e0: 2143 a63c 76ee 513d 38c9 513c fd96 9139
000000f0: 59c9 643d 6a27 d4bc 2a5d eb3c 3797 81bb
00000100: 1721 9fbc b107 8538 cd9b 21bd c601 843c
00000110: 5bf4 c03c 54b7 643b 3d9a cbbc 4f21 663d
-0.017817624 -0.022234894 0.08654271 0.015567242 0.10515082 -0.025137011 0.06095894 -0.05788374
0.010319061 0.094175816 0.017101014 0.02376066 -0.04180002 0.017605064 -0.007333937 2.1028315e-10
-0.020569587 0.027761055 -0.013860121 0.06641019 1.8499117e-09 -0.053652596 0.06492746 -0.12810275
0.044437304 0.0021435297 -0.046008058 0.058519296 -0.018014008 0.013001194 0.084251344 0.047887705
0.122645356 -0.05957295 0.15237653 1.7671536e-10 -8.844783e-11 0.1030736 -5.543925e-10 -0.035536658
0.03308388 -0.03207313 0.044674147 -0.011713661 -0.014533469 -0.04611926 0.03545859 0.20134898
0.026343567 -0.07672087 -0.06741472 0.016416317 0.083466105 -0.022481317 -0.05693627 -0.05913948
0.020295681 0.051252805 0.012804322 0.0002776905 0.055856083 -0.0258977 0.028730948 -0.003954794
-0.019424958 6.343367e-05 -0.039455224 0.016114127 0.023554018 0.003489931 -0.02485382 0.05618411

backbone1.2.block.0.1.running_var f4 [72]
00000000: 5318 ce40 1de3 3c40 bd49 5d41 3041 9d40
00000010: af66 b63f c250 8f3f 3919 5d41 8954 b440
00000020: 6881 6b3f a7b1 1941 1879 3841 f0e5 a740
00000030: 79bb fe3f 154a 8f41 2f62 cd40 138b fe25
00000040: 4cbd 7441 fd41 3d41 cc5a a440 cada 3640
00000050: 2334 0227 572c 2342 789d 7d40 6808 ff3f
00000060: 8cf4 7040 147e ad3f b0db 2a41 07f0 4d41
00000070: 0334 3541 5fc2 d53f 1f22 3341 234a c741
00000080: c0bc 0a40 969d f23f cffc a240 3e37 5425
00000090: 58a5 0325 6080 3d40 5680 a024 4e19 6340
000000a0: d649 3b40 10bb 8741 5d47 7d3f 2849 4940
000000b0: fe4b d240 7299 963f 37ba 1941 b206 7f40
000000c0: bd56 7b40 39c0 d540 ae19 0540 8369 6b42
000000d0: c29f b341 777b 3740 b7b2 3d40 82f9 5841
000000e0: 5150 3c40 4158 1941 1058 f13f fd1c 9840
000000f0: 8de5 e041 fc11 0c41 2528 1340 31c0 1f40
00000100: 0f58 4940 837f 8c41 46eb bd3f 5e30 633f
00000110: 6462 a240 a61b 8340 a7c5 db3f f3c8 8441
6.4404693 2.951362 13.8305025 4.9142075 1.4250087 1.119652 13.818658 5.635319
0.91994333 9.605872 11.529564 5.2468185 1.9900962 17.911173 6.4182353 4.4156217e-16
15.296215 11.82861 5.1360836 2.8571038 1.8069388e-15 40.7933 3.9627361 1.992444
3.764926 1.3554101 10.678635 12.8711 11.325198 1.6699942 11.19583 24.9112
2.1677704 1.8954341 5.0933604 1.8406786e-16 1.141846e-16 2.9609604 6.960635e-17 3.5484195
2.9263816 16.96634 0.98937017 3.14509 6.5717764 1.1765578 9.607963 3.9847836
3.927169 6.6797147 2.0796924 58.85304 22.453007 2.8669107 2.964033 13.560915
2.9424021 9.584046 1.8855 4.7535386 28.112085 8.754391 2.2993252 2.4961054
3.1459997 17.562262 1.4837425 0.8874568 5.0745106 4.097125 1.7169694 16.59812

backbone1.2.block.1.0.weight f4 [72, 1, 3, 3]
00000000: 9351 2b3d 8dab c23d b17b 2fbc 74bf 67be
00000010: d3fe b9be 5df7 ffbe adfa aabe 9019 99be
00000020: e329 d4be 622b 5a3e a8ea cf3d 0881 10bf
00000030: 03fa 903e 562a 853f 543b ef3e 10d8 82bf
00000040: e617 febe a8bb a83d 435a 093a 0883 4fbe
00000050: 0d92 3bbe a3f2 8ebe cc86 10bf e2a9 03bf
00000060: 697f 92be 69dc 24bf c0ce cabe 2248 02bf
00000070: e157 0fbf 1534 ccbe e657 0a3e 14b3 583b
00000080: 300f 153e 72aa 96bd 0734 9dbd 8f8c 713c
00000090: 9352 85bd e25b 0dbf d4ee 333f 4d80 a53e
000000a0: 155b b23f 96ad f3bf 80c3 8ebe cbb8 7cbf
000000b0: 85ed 903f f7f2 5e3d 765e 3ebc 8ee9 10be
000000c0: b950 5a3e 7f54 6b3e 8063 81bf bc1a 4a3e
000000d0: 15d8 693e 5cf2 0fbf 4003 edbd 6918 31be
000000e0: 37e9 e63b 6df5 6bbe 4543 f5be 0952 75be
000000f0: fca7 6dbe 868c 07bf 5452 4dbe 51cc 4cbe
00000100: a27a 173e aabf 843e a51d d03d dd3e 64bf
00000110: 958d 4e3f 8656 ab3e 6c08 70bf d8a9 b63e
00000120: 6f52 cb3d a92e 06bd bedd febd 61f0 2b3f
00000130: e035 28bf f780 dc3c 23ad 1c3f 863f 31bf
00000140: 9dc8 063d 2726 99bd e75c 1fbe 2ea0 b8bd
00000150: 5c07 3dbe 7426 1bbf f465 62be 8758 67be
00000160: 04ad fcbe 63e7 a8be 5627 8bbc 11f7 80bd
00000170: 25ee 08bd 6f0e cbbe 5072 d7be 89d4 7bbe
00000180: 1b93 43be 223c fdbe d110 9dbe 8962 20be
00000190: 0114 493e 8f4c 31bd aff3 9f3e b262 063f
000001a0: 5b0e a4bf 0749 f63d cffa 733e 7294 92bf
000001b0: 2097 a3bc da67 153e 1ddd aa3b 8a9c cd3d
000001c0: e0b5 82be 915f 0dbf 769d 003e b1af 96be
000001d0: a193 06bf 71b0 0c3e 3d2b 9d3e 6cc8 ea3d
000001e0: d6da ba3e dfea 0c3f b24d 083f df09 4d3e
000001f0: c5e8 1a3f bec2 093f d655 053e 44bf 343e
00000200: 354e 7f3e b13c 083e 7871 05c0 b20e 8b3e
00000210: 23da 983e ea9e 9f3c 7553 c93e 5938 9fb0
00000220: 64df 84b0 5745 b4b0 907a 42b0 dcc8 cdb0
00000230: d3eb a7b0 48f9 c4b0 09d6 90b0 ad07 d6b0
00000240: d4e6 493c 0d23 ce3d 1705 f83c 6909 ba3e
00000250: 8549 483f 8008 133f d2f3 433e e77d 2f3f
00000260: dec9 143f 9413 b43d 8cf1 9fbd c6e4 c7bd
00000270: fe71 13be 0389 4abf a541 5ebf f29d 513c
00000280: 2a01 febe 5587 28bf f55c 30bd e8c8 20be
00000290: 4967 09bd 4d6d 69bd cecd 883e a770 193f
000002a0: 2d4c b539 d904 8e3e 9e0d 203f fc40 923e
000002b0: 6ac6 2a3f 9264 2bbf 4a2d 25bf f453 ca3e
000002c0: c88e e63f a627 0d3f b532 e5bf 4d03 e7bd
000002d0: dc0f a531 b7dd 0832 b515 0532 a7b6 4431
000002e0: fb35 5532 90de c731 c0e4 5c31 9d2c 36b0
000002f0: 452a b231 724e a03c 8b10 ab3e c833 573e
00000300: 7090 523e 4c18 573f ef0b 043f 53ab 643e
00000310: fdf5 343f 9490 b53e 619c 883d 4497 423e
00000320: eea5 1e3e 1b05 8e3e e11e 203f fb7a c73e
00000330: 6931 3b3e e164 fb3e de7e ce3e fbdd 2fbb
00000340: 98b4 e13e e39d ff3e afdb 81be 5cf5 00c0
00000350: 4e4f cbbf b28e 5c3e 71d7 be3f 05a3 9c3f
00000360: 839a 3e3d 5000 d43a db24 33bd 59fe b0bd
00000370: 0eb5 78be b444 66be c991 cf3a 1ee7 bebe
00000380: c46b b0be 1b39 333d 41dd 93be a247 c13e
00000390: 55cb 52bd 67be bc3f a1fb b1bf e127 b83d
000003a0: 915c 8fbf 6523 683f 1047 59bd 9ac2 0fbe
000003b0: 51ed 4fbd 2f21 58be 4d86 fabe c415 aebe
000003c0: 28da d4bd 99a9 c1be 3a60 74be 071f 22be
000003d0: 57d1 c0be 34b8 6bbe 16af 8bbe 8355 0cbf
000003e0: e8f9 a4be f0e5 d73d d4b8 16bd d6ae c13d
000003f0: edb7 c33d 602e 9ebd 458b 81be ea5e e2bd
0.041825842 0.09505377 -0.010710643 -0.22631627 -0.36327228 -0.4999341 -0.33394375 -0.29902315
-0.41438207 0.21305612 0.10152179 -0.56446886 0.28315744 1.0403545 0.4672495 -1.0222187
-0.49627608 0.082389176 0.00052395853 -0.20264828 -0.18317433 -0.27919492 -0.56455684 -0.51431096
-0.2861283 -0.6439882 -0.39610863 -0.50891316 -0.5599347 -0.39883485 0.13510093 0.0033065723
0.14556575 -0.073567286 -0.07675939 0.014742984 -0.065098904 -0.5521833 0.702863 0.32324448
1.3934046 -1.9037349 -0.2788353 -0.9871947 1.1322485 0.054430928 -0.011619201 -0.14151594
0.21319856 0.22981451 -1.010849 0.19736761 0.22836335 -0.56229186 -0.115728855 -0.17294468
0.0070468443 -0.23042841 -0.47902885 -0.23957075 -0.23208612 -0.52948797 -0.20050937 -0.19999816
0.14792874 0.25927478 0.10161904 -0.8915842 0.8068479 0.3346445 -0.9376285 0.35676455
0.09927832 -0.032759342 -0.12444638 0.67163664 -0.65707207 0.026916964 0.61201686 -0.69237554
0.032906163 -0.0747798 -0.15562783 -0.09014927 -0.18459839 -0.6060555 -0.22109205 -0.22592364
-0.4935075 -0.32989034 -0.01698653 -0.06297124 -0.033430237 -0.3965945 -0.420794 -0.24592794
-0.19099085 -0.4945994 -0.30676892 -0.15662588 0.19636537 -0.043285903 0.31240603 0.5249435
-1.2816881 0.120256476 0.23826145 -1.1451552 -0.019969523 0.14590397 0.005214347 0.10039623
-0.25529385 -0.5522395 0.12560067 -0.29430917 -0.52569014 0.13739182 0.3069705 0.11464009
0.36495084 0.55045885 0.53243554 0.20023297 0.6051143 0.5381278 0.13021025 0.17651087
0.24932177 0.13304402 -2.0850506 0.2715965 0.29853925 0.019484956 0.39321485 -1.1584788e-09
-9.667755e-10 -1.3116431e-09 -7.075096e-10 -1.4972801e-09 -1.2217874e-09 -1.4331727e-09 -1.0538211e-09 -1.5572731e-09
0.0123231 0.10065279 0.030275865 0.36335304 0.7823718 0.57434845 0.19135979 0.68551487
0.58120525 0.08792797 -0.07809743 -0.09760432 -0.14398953 -0.79115313 -0.86818916 0.012794005
-0.49610263 -0.658315 -0.0430574 -0.1570164 -0.033545766 -0.056989003 0.26719517 0.5993752
0.00034579766 0.27738073 0.6252078 0.28565204 0.66709006 -0.66950333 -0.6452223 0.39517176
1.8012323 0.55138624 -1.79061 -0.112799264 4.803935e-09 7.966654e-09 7.7465545e-09 2.862558e-09
1.24105055e-08 5.8169647e-09 3.2144243e-09 -6.6274614e-10 5.1852873e-09 0.019568656 0.3341106 0.21015847
0.20562911 0.8402145 0.5158071 0.2233098 0.7068785 0.35461867 0.06670452 0.19003016
0.15492985 0.2773827 0.6254712 0.38961014 0.18280567 0.49100402 0.40331167 -0.0026835192
0.44083095 0.49925146 -0.25362918 -2.0149755 -1.5883577 0.21538809 1.4909497 1.223725
0.046534073 0.001617441 -0.04373632 -0.08642263 -0.24287817 -0.22487146 0.0015836294 -0.37285703
-0.3445722 0.043755632 -0.2887974 0.37749964 -0.051463444 1.4745606 -1.3904916 0.08991981
-1.1200124 0.9067901 -0.053046286 -0.14039078 -0.050763432 -0.21106409 -0.48930588 -0.3400098
-0.103931725 -0.37824705 -0.23864833 -0.15832148 -0.37659714 -0.23019487 -0.27282017 -0.5481798
-0.32221913 0.10541904 -0.03679736 0.094571754 0.095565654 -0.07723689 -0.25301567 -0.1105326

backbone1.2.block.1.1.weight f4 [72]
00000000: 9b74 a73f bb5d 523f 21c4 013f b734 523f
00000010: ff47 833f 03f3 903f 17b2 fa3e d014 5a3f
00000020: 5770 873f dcba 853f 3ed5 0840 fdc1 703f
00000030: 71ac 9c3e 5f53 283f c26d b43f edc2 2532
00000040: 0200 783f 613c 7a3f 039c ce3e 0271 243f
00000050: 6d2f 9232 32d9 683f 0e7b a03e 6682 983f
00000060: a002 323f 5bcd 933f dd7b 703f 96fc 903f
00000070: 2678 933f 19cc 853f 5707 813f 8f47 1e3f
00000080: 39df 963f 7ce5 003f 3c5b 543f f82d 8c31
00000090: c905 8931 e491 ac3e af21 5b31 1988 883f
000000a0: decb 523f 0f67 973f b8c6 ac3f fe61 5c3f
000000b0: 331a 913f ce4d a13f b39b b73f 51a0 073f
000000c0: 8d70 803f 6643 e63f c596 ac3e ef5e 903f
000000d0: 33e6 0d3f bca7 723f ce6a 1e3f eca5 523f
000000e0: 0e37 993f 32cf 1b3f 3f0e 833f dbf1 523f
000000f0: eb72 393f 4790 813f 0902 ce3e f7b6 533e
00000100: fc97 753f 8c09 233f 3ef7 673f c77a 7a3f
00000110: ff1a 983f 8627 933f f2e9 553f 2eda a33f
1.308246 0.8217427 0.50689894 0.82111686 1.0256346 1.1324161 0.48963997 0.8518801
1.0581158 1.044765 2.1380153 0.94046 0.30600312 0.65752214 1.4095995 9.648585e-09
0.9687501 0.9774838 0.40353402 0.64234936 1.7018204e-08 0.90956414 0.31343883 1.1914794
0.69535255 1.1547045 0.93939 1.1327083 1.1521041 1.0452911 1.0080365 0.6182794
1.1786872 0.50350165 0.8295171 4.0797623e-09 3.9878825e-09 0.33705056 3.1887841e-09 1.0666534
0.82342327 1.1828326 1.3498144 0.86087024 1.133612 1.2601869 1.4344391 0.52979
1.0034348 1.7989318 0.33708778 1.1278971 0.5542938 0.9478719 0.6188172 0.82284427
1.1969926 0.6086303 1.0238723 0.8240029 0.72440976 1.0122155 0.40235928 0.20675264
0.95935035 0.6368644 0.90611637 0.97843593 1.1883239 1.1496437 0.835601 1.2800958

backbone1.2.block.1.1.bias f4 [72]
00000000: b172 363f 6f93 67bb 93cb 2b40 91d4 fe3d
00000010: 7640 cabb 0899 f8bd 326a a63f fc77 eebc
00000020: 1a05 b6bc 1b52 233f 43bf b7be cb36 95be
00000030: d33f 163f 7d3b 1d3f 0dd3 abbe da9f 1832
00000040: 5e3c 513f 71c0 b5bc dcf0 b43e f1ab bb3d
00000050: d4c6 93b2 4b99 473f 4672 b93e 04fa 06bc
00000060: ea05 143d d962 4cbd 54b7 043e 3c9b 33be
00000070: a671 5e3d 59de 00bd 034b e1bd 369d 4840
00000080: 4e63 dcbd 89a3 6a3e 0471 313f f70a 80b1
00000090: 1f01 6fb1 5c3b c33e 98bd c6b1 a975 bebd
000000a0: c353 cebb c374 c8be 4638 06be bcfa 803d
000000b0: 9f0f b93c f2f1 a3bd 2360 04be 43fe 363f
000000c0: 7711 eeb9 0d5d fabe 06eb 843e d8a5 2e3f
000000d0: da82 3040 cd35 863d 2c3a 963d ac29 7d3e
000000e0: 8c09 a23d bbd7 4b3f 98ef 953c 422d bf3d
000000f0: ec82 1f3f e086 cdbc 938b f03e c8b0 713e
00000100: 9ae5 8dbc 55d2 1d3f e3d7 cfbc 9dbf 10bc
00000110: 277f 11be f0e8 8abb cc2d e1ba 606f 77be
0.71268755 -0.003533568 2.6843002 0.124428876 -0.006172235 -0.121385634 1.3001158 -0.029109947
-0.02221923 0.6379716 -0.3588811 -0.29143366 0.5869114 0.61418897 -0.33559456 8.8839105e-09
0.8173274 -0.02218649 0.3534001 0.091636546 -1.7203469e-08 0.7796828 0.36219996 -0.008238319
0.036138453 -0.049898956 0.12960559 -0.17539686 0.054307602 -0.031462047 -0.110006355 3.1345954
-0.10761128 0.22913946 0.69313073 -3.726537e-09 -3.4779715e-09 0.38131225 -5.7841127e-09 -0.09299786
-0.0062966063 -0.39151582 -0.13107404 0.06297824 0.022590457 -0.08005132 -0.12927298 0.7148172
-0.0004540791 -0.48899117 0.2596056 0.6822181 2.7579865 0.065532304 0.07335314 0.24722928
0.07911977 0.79626054 0.018302724 0.09334804 0.62309146 -0.025088727 0.46981487 0.23602593
-0.017321397 0.61649066 -0.025371497 -0.008834747 -0.14208661 -0.004239194 -0.0017179786 -0.2416358
