Grasping/grasping/grasp_mobilenet_non128.pt (torch, 373082 bytes, 93 tensors)

backbone1.0.0.weight f4 [16, 3, 3, 3]
0	0x3f7ebb4a	0.9950453
1	0x3f9614ae	1.1725061
2	0x3f80ef8e	1.0073106
3	0x3f8f62eb	1.1202062
4	0x3fa13eef	1.2597331
5	0x3f72ed75	0.9489358
6	0x3e55b7a4	0.20870835
7	0x3e380062	0.17968896
8	0xbd349fe1	-0.044097785
9	0xbf2baf0e	-0.6706399
10	0xbf6f6502	-0.935135
11	0xbf56cf78	-0.8391032
12	0xbf2a879d	-0.6661318
13	0xbf75c470	-0.96002865
14	0xbf48ce6e	-0.78439987
15	0x3dbdd771	0.09269608
16	0xbd9c73c2	-0.076392666
17	0xbda3e62d	-0.08002887
18	0x3c1ed77d	0.009694931
19	0xbd89f927	-0.06736975
20	0xbdaee044	-0.08538869
21	0x3db4b16f	0.08822905
22	0xbcdf86ce	-0.02728596
23	0xbd8e0846	-0.06935172
24	0x3dca88d2	0.09889378
25	0xbb64cf99	-0.0034913777
26	0xbd81e0e6	-0.06341724
27	0x39b6db04	0.00034876924
28	0x3c47e622	0.012200864
29	0x3cd86616	0.026415866
30	0x3ed78c0d	0.42099038
31	0x3f3f93a0	0.7483463
32	0x3ed4db5e	0.41573614
33	0xbe9327d9	-0.2874134
34	0xbf3c4da7	-0.7355599
35	0xbec45a69	-0.38350227
36	0x3d319816	0.04335793
37	0x3d387e75	0.045042474
38	0x3d11d0bb	0.03559945
39	0x3f5bc452	0.85846436
40	0x3fd8e20e	1.6943986
41	0x3f6b37aa	0.9188181
42	0xbf318d85	-0.69356567
43	0xbfd8e03e	-1.6943433
44	0xbf680b2c	-0.90642047
45	0x3d126fdd	0.035751212
46	0x3d4f44b4	0.05060263
47	0x3d186acb	0.03721122
48	0x3e5ba1d9	0.21448459
49	0x3e9fc1c0	0.31202507
50	0x3e10ccbb	0.14140598
51	0xbdad4104	-0.08459666
52	0xbea20d72	-0.31650883
53	0xbe2b689f	-0.16739129
54	0x3de789ee	0.11305605
55	0x3ec42abb	0.3831385
56	0x3e75e013	0.24011259
57	0x3edfceb0	0.43712378
58	0x3f31a58e	0.6939324
59	0x3ee97e5d	0.4560422
60	0x3df3f7d5	0.119125046
61	0x3ecfffae	0.40624756
62	0x3e83e2a8	0.25758862
63	0xbf41b02e	-0.75659454
64	0xbfbc9e81	-1.4735872
65	0xbf855e61	-1.0419427
66	0xbfaa9d7f	-1.3329314
67	0xc011606a	-2.2715096
68	0xbfe95aa1	-1.8230783
69	0xbf56387a	-0.83679926
70	0xbfc2f0c4	-1.5229726
71	0xbf9028f6	-1.12625
72	0x3ec1452c	0.37748086
73	0x3f477b9d	0.77922994
74	0x3f0d8d7c	0.55294013
75	0x3f2d194e	0.67616737
76	0x3f89056d	1.0704781
77	0x3f56b12f	0.8386411
78	0x3e94b51c	0.29044425
79	0x3f36d786	0.7142261
80	0x3f061d36	0.5238832
81	0x3c0755e3	0.008260223
82	0x3eaff7e6	0.3436882
83	0xbefc2a73	-0.49251136
84	0xbd9d50c4	-0.076814204
85	0x3eb88b89	0.36043957
86	0x3e9162b0	0.28395605
87	0x3ead59b5	0.33857504
88	0xbec63d1d	-0.387185
89	0x3e39cb04	0.1814385
90	0xbeb1ae8b	-0.34703478
91	0x3df5d5be	0.12003659
92	0x3e24e9d8	0.1610483
93	0xbd8010b1	-0.06253184
94	0xbe0eb510	-0.13936257
95	0x3de8d82b	0.11369356
96	0x4014740c	2.319583
97	0xbd2b2899	-0.041786764
98	0xbe3dabe2	-0.185226
99	0xbd7706a7	-0.06030908
100	0xbe1b9c93	-0.15196447
101	0x3c437444	0.011929575
102	0x3e96d7db	0.2946156
103	0x3df39580	0.11893749
104	0xbcf92aaa	-0.030415852
105	0x3de377b1	0.11106814
106	0x3e838b38	0.25692153
107	0xbc8b2259	-0.016984152
108	0xbe510792	-0.20413044
109	0x3ed69606	0.41911334
110	0xbe2a5c47	-0.16636764
111	0xbee7fff0	-0.45312452
112	0x3f2a034f	0.664113
113	0xbe9fe1bb	-0.31226906
114	0xbe5e511c	-0.21710628
115	0x3eb97599	0.36222532
116	0xbe0c51dc	-0.13703102
117	0xbf150f70	-0.5822668
118	0x3f710565	0.94148856
119	0xbeb4dfc4	-0.3532697
120	0xbf7fd693	-0.9993679
121	0x3fbddf07	1.4833688
122	0xbf0d55f1	-0.5520926
123	0xbee510ee	-0.4473948
124	0x3f3bd4e2	0.7337171
125	0xbe737501	-0.23775102
126	0xbd9e8004	-0.07739261
127	0x3e4ea2d7	0.20179306
128	0xbe0916e4	-0.13387638
129	0xbe4f3397	-0.20234524
130	0x3e9a44a6	0.301305
131	0xbe71429f	-0.2356057
132	0xbda08eb1	-0.07839716
133	0x3e3402ab	0.17579143
134	0xbdc7b883	-0.0975199
135	0xbeebaf3d	-0.46032134
136	0x3e9a7554	0.3016764
137	0x3ded115f	0.11575579
138	0xbf37db7b	-0.71819276
139	0x3f35529c	0.70829177
140	0x3e85a72e	0.2610411
141	0xbed93153	-0.42420444
142	0x3e94c14a	0.29053718
143	0x3d88373f	0.06651162
144	0xbf75fcc1	-0.96088797
145	0x3f3bde45	0.7338603
146	0x3eaec520	0.3413477
147	0xbfd151f4	-1.6353135
148	0x3fab5a70	1.3386974
149	0x3efc644b	0.49295267
150	0xbf56dfa3	-0.8393499
151	0x3f15e2c6	0.58549154
152	0x3e0f620c	0.14002246
153	0xbe819819	-0.25311354
154	0x3deba4b8	0.11506027
155	0x3daa0d5b	0.083033286
156	0xbe9484a8	-0.2900746
157	0x3ea764b7	0.32694027
158	0x3dbbcc4c	0.09169826
159	0xbe632fd9	-0.22186221
160	0x3d59081f	0.05298626
161	0x3c042882	0.008066298
162	0x3dd202c5	0.102544345
163	0x3dbfa6ee	0.09358011
164	0x3e4ab58e	0.1979582
165	0xbe1ef35d	-0.15522523
166	0xbe41d185	-0.18927582
167	0xbe5b90e5	-0.21441992
168	0xbe93959a	-0.28825074
169	0xbe4df92a	-0.2011458
170	0xbeca9ff4	-0.3957516
171	0x3e3b9375	0.18317969
172	0x3e2ba3bd	0.1676168
173	0x3e6ad1d0	0.229316
174	0xbeb4a5ef	-0.35282847
175	0xbefeaa77	-0.4973943
176	0xbf04084b	-0.51575154
177	0xbf07203c	-0.5278356
178	0xbf23b481	-0.639473
179	0xbf3d9d86	-0.74068487
180	0x3d82bd7e	0.06383799
181	0x3d5a2b45	0.05326392
182	0x3df8d8be	0.12150715
183	0xbdcb04db	-0.099130355
184	0xbddce725	-0.10786275
185	0xbdfdf244	-0.12399724
186	0xbdfb44c8	-0.12268978
187	0xbdd7e171	-0.105410464
188	0xbe2dfbe0	-0.16990614
189	0x3e9fdd72	0.31223637
190	0x3ec6f9fe	0.38862604
191	0x3e270d85	0.16313751
192	0x3d9ba74f	0.07600271
193	0xbe2e948b	-0.17048852
194	0xbdee0b10	-0.11623204
195	0xbe598cc0	-0.21245098
196	0xbf3ee24e	-0.74564064
197	0xbf000a70	-0.50015926
198	0x3f155b94	0.5834286
199	0x3f40f661	0.75375944
200	0x3e892e27	0.26793024
201	0x3cb8e761	0.022571268
202	0xbec0d6da	-0.3766392
203	0xbe9c4013	-0.30517635
204	0xbeed43e1	-0.4634085
205	0xbfb19727	-1.3874253
206	0xbf515629	-0.81772095
207	0x3e852854	0.2600733
208	0x3e323a2c	0.17405003
209	0x3d99910d	0.07498369
210	0x3d74385c	0.05962406
211	0xbdd9f8d0	-0.1064316
212	0xbca8d56d	-0.020609582
213	0xbd625576	-0.055257283
214	0xbec8858a	-0.39164382
215	0xbe2fa41e	-0.1715245
216	0xbcac853d	-0.021059627
217	0xbea8451a	-0.3286522
218	0x3e901afe	0.28145593
219	0xbd70f94e	-0.058831505
220	0xbf241dbd	-0.64107877
221	0x3f0e59d9	0.55605847
222	0xbc01c6f7	-0.007920972
223	0xbeb294cd	-0.3487915
224	0x3ed6cb4e	0.41951984
225	0xbcdedb82	-0.027204279
226	0xbf3e504c	-0.74341273
227	0x3f3cef83	0.73802966
228	0xbd87b9eb	-0.06627258
229	0xbfb2c8d0	-1.3967533
230	0x3fa410ff	1.2817687
231	0x3d025125	0.031815667
232	0xbf39cbac	-0.72576404
233	0x3f4bca4b	0.7960555
234	0xbca15e82	-0.019698385
235	0xbe0ce703	-0.13759999
236	0x3e0cdcc0	0.13756084
237	0xbcf2e002	-0.02964783
238	0xbe9fb0f8	-0.31189704
239	0x3e5a8f39	0.21343698
240	0xbc84b08f	-0.016197471
241	0xbe125763	-0.14291148
242	0x3e388c90	0.1802237
243	0xbd676c7b	-0.05649994
244	0xbe4cf70b	-0.20016114
245	0xbe1feb02	-0.15616992
246	0xbc73e7a5	-0.014886771
247	0x3bf6efcd	0.0075359107
248	0xbdcb5c7d	-0.0992975
249	0xbcf6f43c	-0.030145757
250	0xbdeac769	-0.11463816
251	0xbde2e3a2	-0.11078574
252	0xbf3cca45	-0.7374614
253	0xbf845f41	-1.0341569
254	0xbf4c71f7	-0.79861397
255	0xbf3d6624	-0.7398398

backbone1.0.1.weight f4 [16]
0	0x3e644d46	0.22295102
1	0x3fa0e440	1.2569656
2	0x3f080a6a	0.5314089
3	0x3ffdbdc3	1.9823536
4	0x3ee8d471	0.4547458
5	0x3f1df055	0.6169484
6	0x3d9a438c	0.07532415
7	0x3dbe1b71	0.09282578
8	0x3eed418d	0.46339074
9	0x3ee19b94	0.4406401
10	0x3f08433f	0.5322761
11	0x410cff93	8.812396
12	0x3df1946a	0.11795886
13	0x3df3c54c	0.11902866
14	0x3dbeb61b	0.093120776
15	0x403df5b6	2.968122

backbone1.0.1.bias f4 [16]
0	0x4094f838	4.6553
1	0x40207711	2.5072672
2	0x40283eb0	2.6288261
3	0xc02baefe	-2.6825557
4	0x40348090	2.8203468
5	0x402d06bd	2.7035363
6	0x3e906b07	0.28206655
7	0xbc88464e	-0.016635086
8	0x4029b287	2.6515214
9	0x4030f35c	2.7648535
10	0x402f5b81	2.73996
11	0xbf4cb98b	-0.79970616
12	0x3e9ecf6e	0.3101763
13	0x3f00a743	0.5025522
14	0x3f8dfd60	1.1092949
15	0xc01f0a53	-2.4850051

backbone1.0.1.running_mean f4 [16]
0	0x3fcbbf08	1.5917673
1	0x3f2b87cc	0.67004085
2	0xc0394e58	-2.8954067
3	0x402eed54	2.7332354
4	0xbe1606bc	-0.14651006
5	0x3ecb703c	0.39734066
6	0xc07b8fb6	-3.9306464
7	0xc02aa5bf	-2.6663663
8	0xbea6f9be	-0.32612413
9	0x3e445f40	0.1917696
10	0x3f807119	1.0034515
11	0xbf722662	-0.9458982
12	0xc07fda84	-3.9977121
13	0x40754f2e	3.8329577
14	0x409e19d1	4.9406514
15	0xc00dbf90	-2.214817

backbone1.0.1.running_var f4 [16]
0	0x3df5364e	0.119732484
1	0x3d71a217	0.05899247
2	0x3e887142	0.2664891
3	0x3e784fbd	0.24249168
4	0x3e9c466d	0.3052248
5	0x3f6e9b12	0.9320537
6	0x3e59a1cb	0.21253125
7	0x3eacc981	0.33747485
8	0x3d121c45	0.03567149
9	0x3d732663	0.05936278
10	0x3e13fc88	0.14451802
11	0x3e0f5b45	0.1399966
12	0x3e9f48b2	0.3111015
13	0x3e1f7e6d	0.15575571
14	0x3eb40af5	0.3516461
15	0x3ec2f396	0.38076466

backbone1.1.block.0.0.weight f4 [16, 1, 3, 3]
0	0xbe766c5d	-0.24064775
1	0x3de6c55f	0.11268114
2	0x3e30ad1f	0.1725354
3	0x4026f68b	2.6087978
4	0x3ecf6644	0.4050771
5	0xc02c54f8	-2.692686
6	0x40057217	2.0850885
7	0x3e8d2d78	0.27573752
8	0xc011c2ef	-2.2775228
9	0xbdf526ad	-0.119702674
10	0xbf1ca1b5	-0.61184245
11	0xbe9a0b7d	-0.3008689
12	0x3f004aeb	0.50114316
13	0x3fa44479	1.2833396
14	0x3f3750f0	0.71607876
15	0xbe48a977	-0.19595896
16	0xbf5e7f3c	-0.86912894
17	0xbeec8dde	-0.46201986
18	0x3ca7689f	0.02043563
19	0xbc7a7e59	-0.015288913
20	0x3d8f2723	0.069898866
21	0x3d322e91	0.04350144
22	0xbf4308a7	-0.7618508
23	0xbf832631	-1.024603
24	0x3da49f83	0.08038237
25	0xbf05ace6	-0.5221695
26	0xbf3dd76d	-0.7415684
27	0xbe9567ed	-0.29180852
28	0x3e8ac0dc	0.27100265
29	0x3ef4a411	0.47781423
30	0xbeaf1dd6	-0.3420245
31	0x3eb9ef12	0.3631521
32	0x3f309ec7	0.68992275
33	0x3d292735	0.041297156
34	0xbca81316	-0.020516913
35	0x3e513b10	0.20432687
36	0x3b3848b0	0.0028119497
37	0x3daa1d86	0.083064124
38	0xbd65e0b6	-0.056122504
39	0xbe0a284e	-0.13491938
40	0x3fa7e961	1.3118097
41	0xbfa9b430	-1.3258114
42	0xbdc56892	-0.09639086
43	0x3f82719f	1.0190924
44	0xbf5b663a	-0.8570286
45	0xbcd08be5	-0.025457332
46	0x3e94ca3b	0.2906054
47	0xbe4d5793	-0.20052938
48	0x3e3d8115	0.18506272
49	0x3f963b02	1.1736758
50	0xbfc627a3	-1.5480846
51	0x3d120a0c	0.035654113
52	0x3f4a56ec	0.7903888
53	0xbf88ab55	-1.0677286
54	0x4002e204	2.045045
55	0xbcce587d	-0.025188679
56	0xc012c45d	-2.293235
57	0x40833f02	4.1014414
58	0xbcf37f32	-0.029723737
59	0xc081fd34	-4.0621586
60	0x3f4d8c9e	0.8029269
61	0xbdf1a66b	-0.1179932
62	0xbf8cb79a	-1.0993531
63	0xbeb8e934	-0.3611542
64	0xbf2ee49d	-0.68317586
65	0xbef81719	-0.48455122
66	0xbe45ac0f	-0.19303916
67	0xbf255059	-0.64575726
68	0xbf1ded9d	-0.61690694
69	0x3e3b7022	0.18304494
70	0x3ef319b7	0.47480556
71	0xbce71915	-0.028210202
72	0xbe3b4601	-0.18288423
73	0x3e48a192	0.19592884
74	0xbdb5bfdc	-0.08874485
75	0xbf8f9d60	-1.1219902
76	0x3f894e27	1.0726975
77	0xbe0ddbba	-0.1385335
78	0xbf5cdcc3	-0.86274356
79	0x3f647110	0.8923502
80	0xbd5869b4	-0.05283518
81	0x3e48645a	0.19569531
82	0xbccbc6f6	-0.024875145
83	0xbe1d6a6c	-0.15372628
84	0xc00955a4	-2.145852
85	0xbedb36f3	-0.4281536
86	0x402471db	2.5694492
87	0xbfe3e3ee	-1.7803934
88	0xbe9039e5	-0.2816917
89	0x400fd9dc	2.247672
90	0x3e41b371	0.18916108
91	0x3df5901e	0.11990379
92	0xbb816da7	-0.003949839
93	0x3ed3c366	0.41360015
94	0x3f69886c	0.9122379
95	0x3f34a0ea	0.70558035
96	0x3ddbe5bf	0.1073718
97	0x3f289cbe	0.6586417
98	0x3f390e9a	0.72287905
99	0x3dfe94c8	0.124307215
100	0x3ee02880	0.437809
101	0x3e92779f	0.2860689
102	0x3ec1a9be	0.37824816
103	0x3f3c0662	0.7344724
104	0x3ebeb857	0.37250015
105	0x3e663caa	0.22484079
106	0x3edc6457	0.43045303
107	0x3ed93adf	0.42427728
108	0x3caec6a0	0.021334946
109	0x404e471d	3.2230904
110	0x403218c5	2.7827618
111	0xbe19ae4c	-0.15007895
112	0x3ed6880c	0.4190067
113	0x3eaf790b	0.34272036
114	0x3dad7184	0.08468917
115	0xc05391a3	-3.305764
116	0xc0445f52	-3.068318
117	0x3ff67e4b	1.9257292
118	0x40656a78	3.5846233
119	0x3f1a37cb	0.60241383
120	0x3f1895bd	0.5960348
121	0x3f101c7e	0.56293476
122	0xbcd2b53f	-0.02572119
123	0xc020df81	-2.5136416
124	0xc0748ed5	-3.8212178
125	0xbf362faf	-0.7116651
126	0xbe69bcb3	-0.2282589
127	0xbbc089ea	-0.0058758156
128	0x3e16e9b9	0.14737596
129	0x407a2438	3.9084606
130	0x3e549432	0.20759657
131	0xc0812fef	-4.0371013
132	0x40621525	3.5325406
133	0x3dcfdda6	0.10149698
134	0xc06b8501	-3.679993
135	0x3ea8d090	0.3297162
136	0x3e3a0822	0.18167165
137	0x3ec59af4	0.38594782
138	0x3e92ba86	0.2865793
139	0xbe8ab8bd	-0.2709407
140	0xbf11954a	-0.5686842
141	0x3e6bea36	0.23038563
142	0xbefa4f45	-0.48888603
143	0xbf2bb96f	-0.67079824

backbone1.1.block.0.1.weight f4 [16]
0	0x3fc26519	1.5187103
1	0x3f3c4671	0.73544985
2	0x3e3bd698	0.1834358
3	0x3ef057ea	0.46942073
4	0x3fcc473a	1.5959237
5	0x3efd08b6	0.49420708
6	0x3fc1aa49	1.5130092
7	0x3ee80070	0.45312834
8	0x3f299e5e	0.66257274
9	0x3f564094	0.8369229
10	0x3e790dbc	0.24321645
11	0x3f1de7c4	0.6168177
12	0x3fa726c9	1.3058711
13	0x3fd03004	1.6264653
14	0x401c5d5b	2.443198
15	0x3e51968d	0.20467587

backbone1.1.block.0.1.bias f4 [16]
0	0x3e6da8cd	0.23208924
1	0x3fde8093	1.7382988
2	0x3fc89d64	1.5673032
3	0x3e3afad5	0.18259747
4	0x3d57d20c	0.05269055
5	0x403409a4	2.8130884
6	0x3e529e60	0.20568228
7	0x3f4e4a62	0.8058225
8	0x3fd60c38	1.6722479
9	0x3e8fd13b	0.28089318
10	0x3fb60858	1.4221296
11	0x3ee1d6dd	0.4410924
12	0x3e9398f9	0.28827646
13	0x3e035fa1	0.12829448
14	0xbe9cedce	-0.3065018
15	0x3fcabc45	1.5838705

backbone1.1.block.0.1.running_mean f4 [16]
0	0x3f4cfbb6	0.8007158
1	0xbe5fa671	-0.21840836
2	0xc0e13c4d	-7.038611
3	0xbec00bea	-0.3750909
4	0x3e9f2cbc	0.31088817
5	0xbeda5b14	-0.42647612
6	0xbe286583	-0.16444974
7	0x3ca90025	0.020629952
8	0xbe91942a	-0.28433353
9	0x3f8c91fc	1.0982051
10	0x411facb0	9.97966
11	0x3fbe9742	1.488991
12	0x3bdc3004	0.006719591
13	0xbd82e110	-0.063905835
14	0xbec3cb7d	-0.38241187
15	0xbf20ed02	-0.62861645

backbone1.1.block.0.1.running_var f4 [16]
0	0x41ddd370	27.728241
1	0x40a0aa66	5.0208006
2	0x40126020	2.287117
3	0x3be98bbd	0.007127254
4	0x40441607	3.0638444
5	0x406db533	3.7141845
6	0x3de57912	0.11204733
7	0x3c085edc	0.0083233975
8	0x40667e70	3.6014671
9	0x4106ec9b	8.432765
10	0x40561a27	3.3453462
11	0x42fd7ced	126.743996
12	0x3e0080eb	0.12549178
13	0x3ea2fc22	0.31832987
14	0x3ff9a319	1.9502898
15	0x404052e6	3.0050597

backbone1.1.block.1.fc1.weight f4 [8, 16, 1, 1]
0	0xb07a6ccd	-9.1104085e-10
1	0xb1ac0d41	-5.0073656e-09
2	0x30262920	6.044889e-10
3	0xb098f50b	-1.1129101e-09
4	0xb2281b8d	-9.785151e-09
5	0xb0e03f01	-1.6316052e-09
6	0xb1a5ec15	-4.8289714e-09
7	0xb085cfd1	-9.736089e-10
8	0x31f7789b	7.2023574e-09
9	0xb18add7f	-4.04151e-09
10	0xb11876c7	-2.2186428e-09
11	0xb0d8aedf	-1.576577e-09
12	0xb15783f3	-3.1361622e-09
13	0xb15bc6ab	-3.1981624e-09
14	0xb1480988	-2.9109248e-09
15	0x31451981	2.868177e-09
16	0xb0d2ac73	-1.5328524e-09
17	0xb114da75	-2.1661013e-09
18	0xb09b86a5	-1.1316003e-09
19	0xb1a0106d	-4.6584803e-09
20	0xb1ebd257	-6.863313e-09
21	0xb16625d1	-3.3490901e-09
22	0xb175d1ef	-3.5771526e-09
23	0xb16bdb65	-3.4321712e-09
24	0x312dde9d	2.5301354e-09
25	0xb0085d45	-4.9609056e-10
26	0xb01759e7	-5.506124e-10
27	0x316a4b2b	3.409421e-09
28	0xb19b0b34	-4.5123674e-09
29	0xb1845895	-3.8517762e-09
30	0x319f32a4	4.633266e-09
31	0xb103a2ff	-1.9155662e-09
32	0xbab0ebf3	-0.0013498053
33	0xba41aedf	-0.00073884235
34	0xbaef3087	-0.0018248715
35	0xb9fc79c1	-0.000481559
36	0xba23c7dd	-0.00062477385
37	0xba165610	-0.000573487
38	0xba45127b	-0.00075177074
39	0xbaec8935	-0.0018046262
40	0xba32a035	-0.0006814034
41	0xba87b590	-0.0010353792
42	0xbb399e95	-0.0028323282
43	0x3a6916a0	0.0008891616
44	0xb9603755	-0.00021382917
45	0xb9da55a4	-0.00041644007
46	0xba956647	-0.0011398279
47	0xbaa29071	-0.0012402666
48	0xb11a9975	-2.249718e-09
49	0xb13679f9	-2.655382e-09
50	0x3187a7e1	3.9481027e-09
51	0x317207a5	3.521998e-09
52	0xb1936ef5	-4.2908774e-09
53	0xb14a3e28	-2.94302e-09
54	0xb1155299	-2.1729305e-09
55	0xb1094085	-1.99728e-09
56	0xb1c863e8	-5.832124e-09
57	0x30b375f5	1.305749e-09
58	0xb0c36cb4	-1.4219013e-09
59	0xb1238dd9	-2.3800253e-09
60	0xb113ac0d	-2.1489115e-09
61	0xab64588f	-8.112477e-13
62	0xb1663058	-3.3496885e-09
63	0xb10d02b5	-2.051974e-09
64	0xaea7e097	-7.634176e-11
65	0xb1d98ae9	-6.3313235e-09
66	0xb0d437df	-1.544091e-09
67	0xb0a6455d	-1.2097804e-09
68	0xb187e27d	-3.954766e-09
69	0x30cb4130	1.4788721e-09
70	0x2fe0611c	4.0814363e-10
71	0xb1959379	-4.3532364e-09
72	0xad19b81d	-8.7379244e-12
73	0xb0d2cc0d	-1.5337506e-09
74	0x2f9704f1	2.747025e-10
75	0xb1b06d8c	-5.134728e-09
76	0xb14bd2b7	-2.9660165e-09
77	0xaed42735	-9.6476084e-11
78	0x30dfc86b	1.6282348e-09
79	0xafab1fe5	-3.112738e-10
80	0xb1b76125	-5.337045e-09
81	0xb0d04745	-1.5154248e-09
82	0xb24a69fc	-1.1782046e-08
83	0xb29738fd	-1.7604629e-08
84	0xb254ecb8	-1.2393848e-08
85	0x30e1ddaf	1.6433911e-09
86	0xb0b96c15	-1.349124e-09
87	0xaf9adafa	-2.816803e-10
88	0x324d26dd	1.1941407e-08
89	0xb20c7bbd	-8.177207e-09
90	0xb19f35f0	-4.633641e-09
91	0xb1e31ec7	-6.6100685e-09
92	0xb20121f0	-7.516505e-09
93	0xb2675beb	-1.3466869e-08
94	0xb224e316	-9.59769e-09
95	0xb217c140	-8.833297e-09
96	0xb164f47f	-3.3317347e-09
97	0xb14f65e4	-3.0180383e-09
98	0x31ccc9fd	5.960145e-09
99	0x3116f405	2.1966582e-09
100	0xb1484ad5	-2.9146368e-09
101	0xb10b0089	-2.0227466e-09
102	0xb1af6848	-5.1050257e-09
103	0xb092ebb5	-1.068989e-09
104	0xb18b5fb7	-4.056314e-09
105	0xafb20c54	-3.238677e-10
106	0xb1762690	-3.5819632e-09
107	0xb1d7d0a5	-6.2810437e-09
108	0xb22a02cb	-9.895937e-09
109	0xb14dbb95	-2.9938054e-09
110	0xafb2e1f8	-3.2538572e-10
111	0xb14b717d	-2.9604899e-09
112	0xb09e5aa4	-1.1521775e-09
113	0xb1c0ba95	-5.6091474e-09
114	0xb0c52903	-1.4345293e-09
115	0xb154cf08	-3.0967744e-09
116	0xb1b92f9c	-5.389621e-09
117	0xb1624dac	-3.293148e-09
118	0xb171bb3c	-3.5176546e-09
119	0x2e927bc5	6.661297e-11
120	0xb0c26784	-1.4144779e-09
121	0xb1884efd	-3.967101e-09
122	0xb10f8ef7	-2.0890505e-09
123	0xb11de783	-2.2978106e-09
124	0x31853069	3.876313e-09
125	0xb205ef07	-7.795967e-09
126	0x304be783	7.417997e-10
127	0x3007ea0f	4.944533e-10

backbone1.1.block.1.fc1.bias f4 [8]
0	0xb0ec5191	-1.7194443e-09
1	0xb11f3295	-2.3166298e-09
2	0xb92b7fa7	-0.00016355385
3	0xb10104bd	-1.8774664e-09
4	0xb0b12da1	-1.2891413e-09
5	0x32969991	1.7532132e-08
6	0xb1c26057	-5.6570957e-09
7	0x2ed4b235	9.6723e-11

backbone1.1.block.1.fc2.weight f4 [16, 8, 1, 1]
0	0xb029249e	-6.153388e-10
1	0x314adc51	2.9520104e-09
2	0x3b0faafd	0.0021921985
3	0x2f852661	2.421983e-10
4	0xb100de79	-1.8752913e-09
5	0x328ae5b1	1.6169766e-08
6	0x31eb377b	6.8457076e-09
7	0x31707ae0	3.4994443e-09
8	0x308735e0	9.837855e-10
9	0xb052d1d3	-7.6695733e-10
10	0x3accaebf	0.0015616043
11	0x307e086b	9.2416624e-10
12	0xb1d51515	-6.2015126e-09
13	0x327ee2e0	1.4836331e-08
14	0x3181e05d	3.7799013e-09
15	0x31652bed	3.3348855e-09
16	0xb0455ac4	-7.179717e-10
17	0x31662b50	3.3494025e-09
18	0x3a91cd34	0.0011123777
19	0xb117d607	-2.2095052e-09
20	0xb107f414	-1.9783828e-09
21	0x3204fc13	7.740726e-09
22	0xb18a92db	-4.033024e-09
23	0x315639b5	3.1173901e-09
24	0xb1444ed8	-2.8566571e-09
25	0x31a9ade4	4.9383164e-09
26	0x3afcbfd3	0.0019283242
27	0xb032ed60	-6.5093353e-10
28	0x304e4149	7.503514e-10
29	0x320dade5	8.246819e-09
30	0xb00b0205	-5.0570775e-10
31	0x308df4e4	1.0328702e-09
32	0xb0c68a13	-1.4445639e-09
33	0x30ca179c	1.4704145e-09
34	0x3b1f821b	0.0024339024
35	0x2f460fad	1.8013564e-10
36	0xb00f35ad	-5.2099375e-10
37	0x3132f715	2.604286e-09
38	0x31914875	4.228293e-09
39	0x30cb951b	1.4812572e-09
40	0xb19d739c	-4.5824446e-09
41	0xb01e1aa3	-5.751792e-10
42	0x39ee67f4	0.0004547235
43	0xb0b7ebdc	-1.3382038e-09
44	0x30465cd5	7.21639e-10
45	0x32681738	1.3509457e-08
46	0xb0489cdd	-7.298249e-10
47	0xb0ca696b	-1.4727396e-09
48	0x3025da00	6.0336447e-10
49	0xb19bb835	-4.5320356e-09
50	0x3b13c1ec	0.0022546006
51	0xb0ae2c9f	-1.2672848e-09
52	0x310a48a9	2.0122946e-09
53	0x3255ca28	1.2444197e-08
54	0x3107987d	1.9731765e-09
55	0xb0db257d	-1.5945002e-09
56	0xadbec26f	-2.1686845e-11
57	0x3083be7d	9.585645e-10
58	0x3b02f039	0.001997961
59	0xb14454c4	-2.8569938e-09
60	0x318e1575	4.1351833e-09
61	0x30e01378	1.6303678e-09
62	0x312c0bcb	2.5035998e-09
63	0xb00516a3	-4.8417287e-10
64	0xb164bd7d	-3.3286078e-09
65	0xb03692a1	-6.6419586e-10
66	0x3abba70f	0.0014316755
67	0x31bd7088	5.5134173e-09
68	0x30062921	4.8807364e-10
69	0x3218578d	8.867471e-09
70	0x3048f12c	7.31023e-10
71	0x30977944	1.1021162e-09
72	0xb17b5dfc	-3.6578731e-09
73	0x3152c9b5	3.067368e-09
74	0x3adb5615	0.0016734028
75	0x312eaf8f	2.5420126e-09
76	0xb118fb64	-2.226181e-09
77	0x3252ca30	1.2269581e-08
78	0xb17c9e5d	-3.6760845e-09
79	0x3149e71d	2.9380722e-09
80	0x2e8ac7af	6.3109844e-11
81	0xae7036a5	-5.4618216e-11
82	0x3a730473	0.00092703773
83	0xb0f5b77b	-1.7878244e-09
84	0x31066f4b	1.956283e-09
85	0x325720a0	1.2522065e-08
86	0xb0faa8e5	-1.8237897e-09
87	0xb1ee6858	-6.938574e-09
88	0xb05065bf	-7.581455e-10
89	0x3119103b	2.2273656e-09
90	0x3a89ceed	0.0010513939
91	0x30107e05	5.256598e-10
92	0xb1645084	-3.3224135e-09
93	0x32476150	1.1605451e-08
94	0x317a18a3	3.6393792e-09
95	0xb0b4fe15	-1.3168938e-09
96	0x318a3390	4.0221906e-09
97	0xb0961ee1	-1.0922713e-09
98	0x3b0a3d31	0.0021093602
99	0x3033607f	6.525695e-10
100	0x30880230	9.895924e-10
101	0x31c21b18	5.6492233e-09
102	0xafd9c475	-3.961166e-10
103	0xb041b1eb	-7.046583e-10
104	0xb0472c08	-7.245835e-10
105	0x31aec2cd	5.086213e-09
106	0x3b2f776d	0.0026774064
107	0xb1765371	-3.5845142e-09
108	0xb017e734	-5.526204e-10
109	0x3262796c	1.31825395e-08
110	0x30969ec1	1.0959057e-09
111	0xb0b297f7	-1.2994396e-09
112	0x309a00b9	1.120518e-09
113	0x315963cd	3.1634386e-09
114	0x3b09c989	0.0021024665
115	0x312671fd	2.4220974e-09
116	0xb0bb3e19	-1.362369e-09
117	0x32515075	1.2183695e-08
118	0x309e8095	1.1532558e-09
119	0xb09a6e38	-1.1236301e-09
120	0xb11f4eac	-2.3182265e-09
121	0xb10a7e67	-2.0153494e-09
122	0x3a898e23	0.001049463
123	0xb16726f4	-3.3637066e-09
124	0xb01bbef9	-5.666006e-10
125	0x31e0d3d8	6.543342e-09
126	0xb108d1a8	-1.990978e-09
127	0xb0b0d8e8	-1.2867334e-09

backbone1.1.block.1.fc2.bias f4 [16]
0	0x3edea3bb	0.4348429
1	0x3f2865ae	0.6578015
2	0x3e146612	0.14492062
3	0xbf84c29c	-1.037189
4	0xbf2fbb78	-0.6864543
5	0x3fb2009f	1.390644
6	0xbea8150f	-0.32828566
7	0xbf0199d7	-0.50625366
8	0x3f1772b9	0.5915943
9	0xbecdec47	-0.40219328
10	0x3f0a1460	0.5393734
11	0xbe8ba33d	-0.27272978
12	0xbeca12bd	-0.3946742
13	0xbd9277bc	-0.07151744
14	0x3dd8c389	0.1058417
15	0xbed08579	-0.40726832

backbone1.1.block.2.0.weight f4 [16, 16, 1, 1]
0	0xbffd5c61	-1.9793817
1	0x3de59c11	0.11211408
2	0x3c3082dc	0.010773387
3	0xbe9dfce8	-0.30857015
4	0xbea9f0b9	-0.3319147
5	0xbf2bc99b	-0.671045
6	0xbcf2a8f2	-0.029621575
7	0x3e68f07d	0.22747989
8	0xbe69bddc	-0.22826332
9	0x3e7a1cd7	0.24425064
10	0x3dacd1d2	0.084384575
11	0xbee51333	-0.4474121
12	0x3f0a6f05	0.5407565
13	0x3ebfe807	0.3748171
14	0xbd94d55c	-0.072672576
15	0xbdd857ec	-0.10563645
16	0x3f48ee3c	0.78488517
17	0x400f4729	2.2387183
18	0xbe070313	-0.13184766
19	0xbed58d75	-0.41709486
20	0xbf45d527	-0.7727837
21	0x3f0b45f1	0.544036
22	0x3f976ea6	1.1830642
23	0x3dccee5a	0.100063995
24	0x3c140488	0.009034283
25	0xbe4e5373	-0.20149021
26	0xbc468ca4	-0.012118492
27	0xbef3268b	-0.47490343
28	0x3f9891b9	1.1919471
29	0xbe64e266	-0.22351989
30	0xbd24c5cc	-0.040227696
31	0x3eea42b7	0.45754024
32	0x3d8552f8	0.06509966
33	0xbced68f1	-0.028980704
34	0xbddc50e2	-0.10757615
35	0xbd08a802	-0.03336335
36	0xbdc8cecc	-0.098050684
37	0xbe1c2016	-0.15246615
38	0xbc61888c	-0.0137654655
39	0xbbd2429f	-0.0064166333
40	0xbdf26ef6	-0.1183757
41	0xbe709feb	-0.23498504
42	0x4079326c	3.8937025
43	0x3d766f6a	0.060164846
44	0x3d7cbc88	0.061703235
45	0xbd585f63	-0.052825343
46	0x3ca8d824	0.020610876
47	0x3deda1d0	0.11603129
48	0x3e51c0ff	0.20483778
49	0xbf93da9b	-1.1551088
50	0xbd26f1bb	-0.040757876
51	0xbec72d37	-0.38901684
52	0xbffc96b2	-1.9733489
53	0x3fa5e61c	1.2960849
54	0x3df62d85	0.12020401
55	0x3d7f54cf	0.06233674
56	0x3f739a8e	0.95157707
57	0xbf257d10	-0.64643955
58	0xbd85edd2	-0.06539501
59	0x3ee445f1	0.4458461
60	0x3ea41598	0.32047725
61	0xbf9ed1ad	-1.2407738
62	0x3d041ce1	0.032254104
63	0xbc4b5354	-0.012410004
64	0x3e5363c6	0.2064353
65	0xbe9e1468	-0.30874944
66	0x402484c5	2.5706036
67	0x3f87aa47	1.059884
68	0xbdee05e8	-0.1162222
69	0xbf1a4498	-0.60260916
70	0xbea14f43	-0.31505784
71	0xbf9578ae	-1.1677454
72	0x3d187ce7	0.03722849
73	0xbc8faa27	-0.01753719
74	0x3d4d36e3	0.050101172
75	0xbd8cbc6e	-0.068718776
76	0x3e2f97d0	0.17147756
77	0x3e740382	0.23829463
78	0x3cabe3a7	0.020982577
79	0xbef1b9ed	-0.47212163
80	0xbf959a4d	-1.1687714
81	0xbe708a21	-0.23490192
82	0x3cc4c67c	0.024020426
83	0x3ef479bb	0.47749123
84	0x3c9feb5b	0.019521406
85	0x3f05c013	0.52246207
86	0x3fd11cf4	1.6336961
87	0xbd5c2406	-0.053745292
88	0xbefefd64	-0.49802697
89	0xbf9b6012	-1.2138693
90	0x3d485bc5	0.048915643
91	0x3e6d3b4c	0.23167151
92	0xbee6c560	-0.4507246
93	0xbe461e77	-0.19347559
94	0xbf071809	-0.5277105
95	0x3e0bbb93	0.13645773
96	0xbca78134	-0.020447351
97	0x3c9f95d7	0.019480629
98	0x400f3014	2.2373095
99	0xbfb96da0	-1.448658
100	0x3d8d35bb	0.06895014
101	0x3f0f7f1c	0.5605333
102	0x3ec0ca61	0.37654403
103	0x3f7f29e1	0.9967328
104	0xbe8e426b	-0.27785048
105	0x3bde73bf	0.0067887004
106	0x3e8699a8	0.26289105
107	0x3c64bdb8	0.013961248
108	0xbe6e2c38	-0.23259056
109	0xbe9d788f	-0.3075604
110	0xbd81a4cf	-0.06330263
111	0x3f49a7ee	0.78771865
112	0x3ce3d804	0.027812965
113	0x3e2fc857	0.17166267
114	0x3c806429	0.01567276
115	0x3f62280f	0.88342375
116	0x3e1db75a	0.15401974
117	0xbded9830	-0.11601293
118	0xbe9e5bb9	-0.30929354
119	0x402cf7ca	2.7026238
120	0xbe12c10a	-0.14331451
121	0x3cb4d5ce	0.022074606
122	0x3d05cf06	0.032668136
123	0x3d7cdf45	0.061736364
124	0x3f9814ed	1.1881386
125	0xbf6baeb0	-0.92063427
126	0x3e5cb553	0.21553545
127	0xbf5fec51	-0.87469965
128	0xbf8d693d	-1.1047741
129	0x3f8d6236	1.1045597
130	0x3e196805	0.14981087
131	0x3e70c9e1	0.2351451
132	0xbd914c4c	-0.070946306
133	0x3fb8e134	1.4443727
134	0xbefd4880	-0.49469376
135	0xbeb784da	-0.35843545
136	0x3fa4b040	1.2866287
137	0x3e88f397	0.26748344
138	0x3d4f007c	0.05053757
139	0x3f359f0d	0.7094582
140	0x3d463fce	0.048400693
141	0xbec2e192	-0.38062721
142	0xbee7f890	-0.45306826
143	0xbe56a6f8	-0.20962131
144	0x3e9573fd	0.29190055
145	0x3d3386f2	0.043829866
146	0x3d57dded	0.05270188
147	0x3e4346b1	0.19069935
148	0xbed1ba2e	-0.40962356
149	0x3edbb9ea	0.4291528
150	0x3f16a7b5	0.5884965
151	0x3f9596b9	1.1686622
152	0x3f8da337	1.1065434
153	0xbe8bd805	-0.27313247
154	0xbce1e2b2	-0.027573917
155	0x3d249a53	0.040186238
156	0xbfb1b647	-1.3883752
157	0x400d41a6	2.2071319
158	0xbd0b4196	-0.033998094
159	0xbef21096	-0.4727828
160	0x3dc47ac0	0.09593725
161	0x3f651eab	0.8949992
162	0xbc85a6fa	-0.016314972
163	0x3e2ace15	0.16680177
164	0xbf229589	-0.6350942
165	0xbea30f8f	-0.31847808
166	0xbe8f528f	-0.27992675
167	0xbbb26951	-0.0054446836
168	0xbf7da4c5	-0.99079543
169	0xbe5775dd	-0.21041055
170	0xbd12beb4	-0.0358264
171	0x404c29a1	3.1900408
172	0xbebd5f47	-0.36986753
173	0x3b74a78d	0.0037331313
174	0x3f025caf	0.50922674
175	0xbe8200e9	-0.2539132
176	0xbe914683	-0.2837411
177	0x3f47354e	0.7781571
178	0x3d37789c	0.044792756
179	0x3e72d32a	0.23713365
180	0xbfe82acb	-1.8138059
181	0x3fec6b49	1.8470241
182	0xbf7e2d5c	-0.9928796
183	0xbe102026	-0.14074764
184	0xbfeee8a3	-1.8664745
185	0x3e786d8d	0.2426054
186	0x3da72dad	0.08163009
187	0xbf1a733a	-0.6033207
188	0xbf8655f9	-1.0494987
189	0x3e92cda5	0.2867252
190	0x3ed7c756	0.4214427
191	0xbe5ec447	-0.21754561
192	0xbd220ebb	-0.03956483
193	0xbfaba7b2	-1.3410552
194	0xbc7c298d	-0.015390766
195	0xbdbcf8ae	-0.092271194
196	0xbf5b589b	-0.85682076
197	0x3fc62e3a	1.5482857
198	0x3f2869e6	0.6578659
199	0x3dcc67c4	0.09980729
200	0xbf3f8d12	-0.7482463
201	0x3f8a9535	1.0826784
202	0x3dd08b02	0.10182764
203	0x3f1f1d54	0.62154126
204	0x3f43ff43	0.76561373
205	0x3f165022	0.5871602
206	0xbee441dc	-0.44581497
207	0x3efc7deb	0.49314818
208	0xbe85ca58	-0.2613094
209	0x3de3c937	0.11122363
210	0x3b43f982	0.0029903357
211	0xbf539ded	-0.8266285
212	0xbd081197	-0.0332199
213	0xbe083c6f	-0.13304304
214	0xbf67232e	-0.90288055
215	0x3f15bb99	0.58489376
216	0x3eab1414	0.33413756
217	0xbdc8c936	-0.09804003
218	0x3da02559	0.078196235
219	0x3e74cce5	0.23906286
220	0xbe830424	-0.25589097
221	0x3cc8529c	0.024453454
222	0x3e81c6b5	0.25346914
223	0x400cbb3d	2.198928
224	0x3e521f45	0.20519741
225	0xbb60f74b	-0.0034327086
226	0x3c334519	0.010941767
227	0x3d80dff5	0.062927164
228	0xbe9e0a1b	-0.30867085
229	0xbd87a8eb	-0.066240154
230	0x3fa18569	1.2618839
231	0x3e94fae6	0.2909767
232	0x3d0117d9	0.031516884
233	0x40075c99	2.1150267
234	0x3d95a064	0.07305983
235	0xbce22587	-0.027605785
236	0xbf0f7a62	-0.56046116
237	0xbedca872	-0.43097264
238	0xbda35ec0	-0.079770565
239	0x3d44403e	0.04791283
240	0x3e0f692b	0.14004962
241	0x3dd54186	0.10412888
242	0xbd2d0837	-0.042244162
243	0x3d396f14	0.045271948
244	0xbdf0e403	-0.1176224
245	0xbef6fca6	-0.4823963
246	0xbde61ca7	-0.11235934
247	0x3d8436eb	0.06455787
248	0xbe72a798	-0.23696744
249	0xbde51003	-0.111846946
250	0x3c58c045	0.013229434
251	0x3dc8f501	0.09812356
252	0xbe81365e	-0.2523679
253	0xbd3b4ffa	-0.04573057
254	0xc0416627	-3.02186
255	0x3d9f84c1	0.07788993

backbone1.1.block.2.1.weight f4 [16]
0	0x3f9854ad	1.1900841
1	0x3fc40f3d	1.531715
2	0x3f210dbb	0.62911576
3	0x3fb20cb1	1.3910123
4	0x3f1ff3c7	0.6248135
5	0x3fb9a53e	1.4503553
6	0x3f4e49e1	0.8058148
7	0x3f76c622	0.96396077
8	0x3fcdf3a0	1.6089973
9	0x3fbd31f5	1.4780871
10	0x3fafa014	1.3720727
11	0x3fb1175d	1.3835255
12	0x3fa0069f	1.2502021
13	0x3f16f197	0.58962387
14	0x3fa8b024	1.3178754
15	0x3fd7b155	1.6850992

backbone1.1.block.2.1.bias f4 [16]
0	0x3ba187ce	0.0049295193
1	0xbd63d5d9	-0.055623863
2	0xbd566ad8	-0.052347988
3	0xbd8fedab	-0.070277534
4	0xbc4b1f5b	-0.012397612
5	0x3b9b404b	0.004737889
6	0xbc74d501	-0.014943362
7	0xbdf43de7	-0.119258694
8	0x3d06141e	0.03273403
9	0xbccaffa4	-0.024780102
10	0x3ca8ed42	0.020620946
11	0xba515adc	-0.00079862564
12	0xbd1831e0	-0.03715694
13	0xbd896ab9	-0.06709809
14	0xbc9de992	-0.019276414
15	0xbbd9ff9f	-0.006652787

backbone1.1.block.2.1.running_mean f4 [16]
0	0xbfffb7f8	-1.9978018
1	0x4087b82f	4.2412333
2	0x4031a37a	2.7756028
3	0x3fed0fcb	1.8520445
4	0x3d20310b	0.03910927
5	0x3e03a1a2	0.12854627
6	0x406cfec0	3.7030487
7	0x3e8c3e6d	0.27391377
8	0x409b86bd	4.8601975
9	0x4020a9ba	2.5103593
10	0xbed8a707	-0.42314932
11	0x3feef000	1.8666992
12	0x3ffc8bf8	1.9730215
13	0x3fcd3e63	1.6034664
14	0x3ee4ae36	0.44664162
15	0xbfd3df14	-1.6552453

backbone1.1.block.2.1.running_var f4 [16]
0	0x3deb7513	0.114969395
1	0x3f88297a	1.0637658
2	0x3f01eff5	0.5075677
3	0x3f6917fd	0.9105223
4	0x3e420c4f	0.18950008
5	0x3ee4d0b3	0.44690475
6	0x3e806f41	0.2508488
7	0x3edb7513	0.42862758
8	0x3fc2d870	1.5222301
9	0x3f5ae1a9	0.8550058
10	0x3fe49904	1.7859197
11	0x3fb54bc7	1.416375
12	0x3ee0efa2	0.43932825
13	0x3dda5993	0.10661616
14	0x3ebadf56	0.36498517
15	0x3eea07e4	0.45709145

backbone1.2.block.0.0.weight f4 [72, 16, 1, 1]
0	0x3ee9edba	0.45689183
1	0xbeec4f84	-0.46154416
2	0x3de2edaf	0.11080491
3	0xbeac1f13	-0.33617458
4	0x3e22b8a4	0.15890747
5	0xbf64bc50	-0.8934984
6	0xbd789f12	-0.060698576
7	0x3e30f7cc	0.17282027
8	0x3d2eef2b	0.042708557
9	0xbe60aa79	-0.2194003
10	0xbe5d943c	-0.21638578
11	0x3e2836ae	0.16427109
12	0x3f37ade1	0.71749693
13	0x3e7157d9	0.23568667
14	0x3f81251c	1.008945
15	0xbe3901db	-0.18067114
16	0xbc5e4e91	-0.013568536
17	0x3ac7a895	0.0015232736
18	0x3f6e998e	0.93203056
19	0x3e5a3fb2	0.2131336
20	0x3d454bde	0.048168056
21	0xbe73ffda	-0.23828068
22	0x3dac1cff	0.08403968
23	0x3dab5829	0.083664246
24	0x3e0e5eed	0.13903399
25	0xbf193094	-0.5983975
26	0x3de79a91	0.11308778
27	0x3da50151	0.08056892
28	0xbd402fac	-0.046920463
29	0xbe57f919	-0.21091117
30	0xbead5cc4	-0.33859837
31	0xbec11e41	-0.37718394
32	0xbea74b3f	-0.32674596
33	0xbf6db73b	-0.9285771
34	0x3d004e42	0.031324632
35	0xbedc12a2	-0.42982966
36	0xbe09ad97	-0.13445126
37	0xbc92e6be	-0.017932292
38	0x3e618293	0.22022466
39	0xbf4b51ae	-0.7942151
40	0xbde9a66e	-0.11408697
41	0x3f8437fb	1.0329584
42	0x3e868331	0.26271966
43	0x3f9899f2	1.192198
44	0xbf79330f	-0.97343534
45	0x3eca2af2	0.3948589
46	0x3ef9259f	0.48661515
47	0xbde8e9b0	-0.11372697
48	0x3e290c1a	0.16508523
49	0x3f568fa2	0.83812916
50	0x3c044571	0.008073197
51	0xbe8d48b8	-0.27594543
52	0xbdecbde4	-0.11559656
53	0x3dd88725	0.10572652
54	0x3d4b2494	0.04959543
55	0xbcd715c7	-0.026255501
56	0x3e8e43d8	0.27786136
57	0x3db34150	0.08752692
58	0x3eed578c	0.46355855
59	0x3e376fa3	0.1791368
60	0xbeb7194d	-0.3576149
61	0xbd876a81	-0.06612111
62	0xbcbdf0e4	-0.023186155
63	0x3e0df9ed	0.1386487
64	0xbd89b62e	-0.06724201
65	0xbd0e66e8	-0.034766108
66	0xbdf8c7e9	-0.12147505
67	0x3c82bf08	0.015960231
68	0x3f2e48b7	0.68079704
69	0x3d0aefee	0.03392022
70	0xbee93f34	-0.45556033
71	0xbfac4e3d	-1.3461376
72	0x3e3379bd	0.17526908
73	0xbf00367d	-0.5008314
74	0x3cdecada	0.027196337
75	0x3d0e2dbd	0.03471159
76	0x3c50077e	0.012697099
77	0xbebe4185	-0.37159362
78	0xbdcc0f49	-0.09963853
79	0xbd04540b	-0.032306712
80	0x3eab7b6f	0.3349261
81	0xbdeca9bc	-0.11555812
82	0x3db234cf	0.08701479
83	0x3df851ee	0.12125002
84	0x3f068d6c	0.5255954
85	0xbee0dd1a	-0.43918687
86	0xbf148de2	-0.58028996
87	0x3cc520c4	0.024063475
88	0xbe9cdbac	-0.30636346
89	0x3e9bfa80	0.30464554
90	0x3da773e8	0.08176404
91	0xbf7fe0f0	-0.999526
92	0xbf2ae08d	-0.6674889
93	0x3ee29504	0.44254315
94	0x3e1d5798	0.15365446
95	0x3e34c1ae	0.17652008
96	0x3f07ec89	0.530953
97	0x3e0d6133	0.1380661
98	0xbd304531	-0.043034736
99	0x3e929a7c	0.28633487
100	0xbe5d42d6	-0.21607527
101	0x3fbf688c	1.495378
102	0x3d4aed20	0.049542546
103	0xbe2a7857	-0.16647469
104	0x3e067a27	0.13132535
105	0x3dc2ada7	0.09505778
106	0x3c3069d4	0.010767419
107	0x3b5cc029	0.0033683872
108	0xbed55922	-0.41669565
109	0xbd83d8bc	-0.06437823
110	0xbf9bdd82	-1.2176974
111	0x3f197823	0.5994894
112	0xbd4498f6	-0.047997437
113	0x3dcaa3cb	0.09894522
114	0x3f22a6fa	0.63536036
115	0x3ec0ff54	0.376948
116	0x3cc6242d	0.024187172
117	0xbe692f6f	-0.22772
118	0x3adbfbf1	0.0016783458
119	0x3f2f1c9c	0.6840303
120	0x3dcaaab7	0.098958425
121	0xbf5834ef	-0.8445577
122	0x3bf5fd7a	0.0075070234
123	0xbe084e44	-0.13311106
124	0x3b07b82d	0.0020709143
125	0xbd0c089c	-0.034187898
126	0xbe45813f	-0.19287585
127	0xbf06d872	-0.5267402
128	0xbeb3aa15	-0.350907
129	0xbe424938	-0.18973243
130	0x3da42cad	0.08016334
131	0xbe15b602	-0.14620212
132	0xbe0d5334	-0.1380127
133	0x3e49a962	0.1969352
134	0x3e53a322	0.20667699
135	0xbb629564	-0.0034573907
136	0x3e963ee9	0.29344872
137	0xbe4705f7	-0.19435869
138	0xbe4b48bd	-0.19851966
139	0x3f68fcff	0.9101104
140	0x3f01cc4e	0.5070237
141	0x3c273960	0.01020655
142	0xbe5aad8f	-0.2135527
143	0xbea33993	-0.31879863
144	0x3fcbb069	1.5913211
145	0xbf37eadb	-0.71842736
146	0xbd55a65f	-0.052160617
147	0xbed61fd4	-0.41821158
148	0xbdc2f1ab	-0.09518751
149	0x3e869355	0.2628428
150	0xbd95a20a	-0.07306297
151	0x3d852364	0.06500891
152	0x3f9c85e4	1.222836
153	0xbeab873f	-0.33501622
154	0xbe879437	-0.26480266
155	0x3c92fd09	0.017942922
156	0x3ebc86c5	0.3682157
157	0x3e12d1ee	0.14337894
158	0x3f66da7a	0.9017712
159	0x3e822f56	0.2542674
160	0xbcda4559	-0.026644396
161	0xbdc40fd0	-0.095733285
162	0xbd09e02a	-0.033661045
163	0xbe95d3a2	-0.29263026
164	0x3e1a912f	0.15094446
165	0xbf3eed99	-0.74581295
166	0xbe5db612	-0.21651486
167	0xbd4f1123	-0.050553452
168	0x3e94fd9e	0.29099745
169	0xbdd8e897	-0.10591238
170	0xbf0ed14e	-0.55788124
171	0xbde13627	-0.10996657
172	0x3f330f75	0.6994546
173	0xbe21cf82	-0.15801814
174	0x3f8b1756	1.0866497
175	0x3fd7555b	1.6822923
176	0xbe856aa8	-0.26057935
177	0xbe306a50	-0.17228055
178	0x3dd73a01	0.1050911
179	0xbf115f4c	-0.56786036
180	0x3e76ff4a	0.24120823
181	0x3ec62688	0.38701272
182	0xbea3bd15	-0.31980196
183	0x3f0c0a7b	0.5470349
184	0x3e0b11c7	0.13581
185	0x3e988d1e	0.29795164
186	0x3ef9ec5e	0.48813146
187	0xbf017809	-0.50573784
188	0xbddacfea	-0.10684188
189	0xbee72d66	-0.45151824
190	0x3eb40e92	0.35167366
191	0xbee8567a	-0.45378476
192	0xbe69d933	-0.22836761
193	0x3e60233d	0.21888442
194	0x3f84fde5	1.0389982
195	0xbd6d85c3	-0.057988893
196	0xbf8e3e09	-1.1112682
197	0x3e1ed442	0.15510657
198	0xbfbda327	-1.4815415
199	0xbe281952	-0.16415909
200	0x3c20b74d	0.009809327
201	0x3e02cf9c	0.12774509
202	0x3d6d2ca8	0.057903916
203	0x3df18556	0.1179301
204	0xbeaa1c4c	-0.33224714
205	0xbcbb1601	-0.02283764
206	0xbeb434a2	-0.35196406
207	0xbc5c311e	-0.013439445
208	0xbe85ecce	-0.2615723
209	0x3dc2d677	0.09513562
210	0xbd384542	-0.044987924
211	0x3f59f9af	0.8514661
212	0xbddd7e93	-0.10815158
213	0x3d26c465	0.04071464
214	0x3d68d50c	0.056843802
215	0x3f778aa9	0.96695954
216	0x3e9c2080	0.30493546
217	0xc005c30d	-2.09003
218	0xbe01a255	-0.12659581
219	0xbd372e80	-0.04472208
220	0xbf15e8ed	-0.5855854
221	0x3d3d329b	0.04619084
222	0x3e5f5ea4	0.21813446
223	0xbe65222d	-0.22376318
224	0x3cd700b8	0.02624546
225	0x3dcfe8f3	0.101518534
226	0xbd6109bb	-0.05494092
227	0xbf56af0d	-0.83860856
228	0x3ef48fa9	0.47765854
229	0x3e02d3c7	0.12776099
230	0xbf17c518	-0.59285116
231	0x3e94940b	0.29019198
232	0x3bfb79fa	0.007674453
233	0x3f236f5e	0.6384181
234	0x3f0ca3eb	0.5493762
235	0xbeda78b1	-0.42670205
236	0x3ef05f15	0.46947542
237	0xbf1d98df	-0.6156139
238	0xbe6b0cb7	-0.22954069
239	0xbedf01eb	-0.4355615
240	0xb1af95b8	-5.1101914e-09
241	0xaec31295	-8.870874e-11
242	0xb15442ec	-3.08881e-09
243	0xb0c0fd3c	-1.4041812e-09
244	0x2fb2c198	3.2515568e-10
245	0xb165d5dd	-3.3445453e-09
246	0x318b3b3b	4.052166e-09
247	0xb171dd7b	-3.5196013e-09
248	0x2f4d8623	1.8692296e-10
249	0x3092af0b	1.0672648e-09
250	0xb1b73a71	-5.332645e-09
251	0xb10a4a75	-2.0123967e-09
252	0x311c2514	2.2722064e-09
253	0xb0c733c8	-1.4493873e-09
254	0x31a4c708	4.7956554e-09
255	0x310d62e5	2.0574416e-09

backbone1.2.block.0.1.weight f4 [72]
0	0x3f6efdc1	0.9335595
1	0x3ea7274b	0.32647166
2	0x3fb1aff1	1.3881818
3	0x3e801a9b	0.25020298
4	0x3e82b4df	0.2552862
5	0x3e2ee339	0.17078866
6	0x3f88b5d5	1.0680491
7	0x3e637593	0.2221282
8	0x3e7c99b5	0.2466801
9	0x3f872366	1.0557678
10	0x3fad2222	1.3526042
11	0x3ebc8fcb	0.36828455
12	0x3f4ac1f5	0.79202205
13	0x3facaa41	1.3489457
14	0x3e3be724	0.18349892
15	0x3024186c	5.969756e-10
16	0x3ec2fe86	0.3808481
17	0x3e97e2eb	0.29665312
18	0x3f2acee6	0.6672195
19	0x3d8f30f1	0.06991757
20	0xb0646e90	-8.3103036e-10
21	0x3fdaa9a8	1.7083025
22	0x3f38441c	0.71978927
23	0x3ea74a60	0.3267393
24	0x3f517be0	0.81829643
25	0x3e5a75e9	0.21334042
26	0x3f8d9794	1.1061883
27	0x3f87f6a8	1.0622149
28	0x3f9dc2d8	1.2325087
29	0x3da69169	0.081332035
30	0x3f8309db	1.0237383
31	0x3fb5b604	1.4196172
32	0x3e850202	0.25978094
33	0x3ee3372b	0.44378027
34	0x3fb2aecc	1.3959594
35	0x31eae5b0	6.8364088e-09
36	0x31ec8c78	6.8844734e-09
37	0x3f30decd	0.69089967
38	0x321240bf	8.51304e-09
39	0x3e08d3f2	0.133621
40	0x3f02772b	0.50963086
41	0x3fbc7463	1.4723018
42	0x3e3779da	0.17917576
43	0x3ef13f3d	0.4711856
44	0x3ebdb534	0.3705231
45	0x3ebad201	0.36488345
46	0x3e94dae7	0.2907326
47	0x3eb8ef19	0.36119917
48	0x3e7c0773	0.24612217
49	0x3fb2b039	1.3960029
50	0x3f1d3eaa	0.6142374
51	0x3fdc714b	1.7222074
52	0x3fc57fa5	1.5429579
53	0x3e9b2970	0.30305052
54	0x3e2d1f1b	0.16906397
55	0x3f8eaa7d	1.1145779
56	0x3dbb18c9	0.09135587
57	0x3f90fd69	1.1327335
58	0x3e264324	0.1623655
59	0x3ed7325d	0.42030612
60	0x3fcfef0c	1.6244826
61	0x3e27d529	0.16389908
62	0x3f111a6b	0.56680936
63	0x3ec042c0	0.37550926
64	0x3db6a465	0.089180745
65	0x3f8f250f	1.1183184
66	0x3e389c35	0.18028338
67	0x3ea851d2	0.32874924
68	0x3dde5912	0.108568326
69	0x3dedaa1a	0.1160471
70	0x3e326835	0.17422564
71	0x3fb21bca	1.391473

backbone1.2.block.0.1.bias f4 [72]
0	0x3e41221c	0.18860668
1	0x3f47b21f	0.78006166
2	0xbe082233	-0.13294296
3	0x3f8d6af2	1.1048262
4	0x3f233ec7	0.63767666
5	0x3f1f5290	0.62235355
6	0xbe8d69ab	-0.2761968
7	0x3f2c6357	0.6733908
8	0x3f17c4cc	0.59284663
9	0xbe041537	-0.12898718
10	0x3d4cdcd0	0.05001527
11	0x3e97f8f2	0.29682118
12	0xbba7f40f	-0.0051255296
13	0xbe2bafdc	-0.16766304
14	0x3f1aa67e	0.60410297
15	0xb24db849	-1.1974472e-08
16	0x3ea860eb	0.32886443
17	0x3f66d8e7	0.90174717
18	0x3e59a426	0.21254024
19	0x3f290c56	0.6603445
20	0xb2bc2475	-2.190266e-08
21	0xbe6c5cb6	-0.23082241
22	0x3ea3c137	0.3198335
23	0x3f63b5c7	0.88949245
24	0x3e7640ea	0.240482
25	0x3f4f8aeb	0.81071347
26	0xbeac49ae	-0.33649963
27	0xbe56c044	-0.20971781
28	0xbeba474c	-0.3638252
29	0x3f29040c	0.660218
30	0xbecd0baa	-0.4004796
31	0xbdc9b2e1	-0.098485716
32	0x3f30ff64	0.69139695
33	0x3e70c29c	0.23511738
34	0x3eb594da	0.35465127
35	0xb12a10b1	-2.4747744e-09
36	0xb0ea1e98	-1.7034436e-09
37	0x3ea94fb5	0.33068624
38	0xb04e7561	-7.510917e-10
39	0x3f46a027	0.77588123
40	0x3ee514c7	0.44742414
41	0xbe70bae0	-0.23508787
42	0x3f8028dd	1.001247
43	0x3f060cd1	0.52363306
44	0x3f392143	0.7231638
45	0x3f1ecaeb	0.6202838
46	0x3f5137e0	0.81725883
47	0x3f3a6cee	0.72822464
48	0x3f05b6aa	0.5223185
49	0x3e80aae3	0.25130376
50	0x3dd31766	0.10307197
51	0x3e826cf6	0.25473756
52	0xbec6180b	-0.38690218
53	0x3f233cee	0.63764846
54	0x3f1be981	0.60903174
55	0xbe5b14d8	-0.2139467
56	0x3f487b20	0.78312874
57	0xbe9749b9	-0.29548433
58	0x3f2990e6	0.6623672
59	0x3f12118b	0.5705802
60	0xbecafa79	-0.3964422
61	0x3f507458	0.81427526
62	0x3e24f93a	0.16110697
63	0x3ec72a04	0.38899243
64	0x3f58f1a5	0.8474372
65	0xbeb4d554	-0.35319006
66	0x3f32480d	0.6964119
67	0x3ec39783	0.38201532
68	0x3f3df1b9	0.74196965
69	0x3f521f20	0.82078743
70	0x3f163ae6	0.5868362
71	0xbe92b303	-0.286522

backbone1.2.block.0.1.running_mean f4 [72]
0	0xbd253ff4	-0.040344194
1	0xbcf9acba	-0.03047787
2	0x3e17781b	0.1479191
3	0x3c98199b	0.018566897
4	0x3e416d42	0.18889335
5	0xbd147a5d	-0.036249507
6	0x3d51ada0	0.051190972
7	0xbdde9285	-0.1086779
8	0x3c637d38	0.013884835
9	0x3d976c24	0.07393673
10	0xbc579bd0	-0.013159707
11	0x3cb6c1b3	0.02230916
12	0x3c5c763f	0.013455926
13	0xbdb2cc61	-0.087303884
14	0x3d44a36a	0.048007406
15	0x2f9cac23	2.8498545e-10
16	0x3dce07b4	0.10060063
17	0x3bf167d3	0.007367113
18	0x3daa0436	0.083015844
19	0x3df83830	0.12120092
20	0x315548f4	3.1037048e-09
21	0xbdc9081f	-0.09816002
22	0x3d1ad036	0.03779622
23	0xbe61fd8e	-0.2206938
24	0x3df3e00f	0.1190797
25	0xbca9f666	-0.020747375
26	0xbd36ba49	-0.04461125
27	0x3d6eb4e0	0.058277965
28	0xbc3c6bf3	-0.0115003465
29	0x3c012778	0.007882945
30	0x3d4a5c11	0.049404208
31	0x3cdf6af4	0.027272679
32	0x3e6d36b0	0.23165393
33	0xbd188f2a	-0.037245907
34	0x3e377d83	0.17918973
35	0x2fdf22d7	4.058822e-10
36	0x2f51ec82	1.9092464e-10
37	0x3dfa11b6	0.12210409
38	0xb04e3d5e	-7.502957e-10
39	0xbdc5fb49	-0.096670695
40	0x3c5c7b12	0.013457077
41	0xbdfeedc4	-0.12447694
42	0x3d326190	0.043550074
43	0xbd6501a9	-0.055909786
44	0x3ccd22dc	0.025041036
45	0xbd5c1cf6	-0.053738557
46	0x3d05ab57	0.032634106
47	0x3eb88dd3	0.36045703
48	0x3db5aaf3	0.088704966
49	0xbd9f68f7	-0.07783692
50	0xbdcf95f6	-0.10136025
51	0x3c3a2ff2	0.01136397
52	0x3d7dfdda	0.06200967
53	0x3b3d6d4c	0.0028904257
54	0xbddd18b1	-0.10795725
55	0xbd2d2938	-0.042275637
56	0x38a70409	7.963932e-05
57	0x3d8b80a0	0.06811643
58	0xbb9cae81	-0.0047815447
59	0x3d893e15	0.06701294
60	0xbd4607be	-0.048347227
61	0xbdce10c3	-0.10061791
62	0x3db9c75e	0.090712294
63	0xbd9d5b88	-0.07683474
64	0xbd093f25	-0.033507485
65	0x3c77cc0e	0.015124334
66	0xbd35b36a	-0.044360556
67	0x3cabe90e	0.020985153
68	0x3cf8f316	0.03038935
69	0xbbfcb1e2	-0.007711635
70	0xbd3162f3	-0.043307256
71	0x3de351ec	0.1109961

backbone1.2.block.0.1.running_var f4 [72]
0	0x40c9211d	6.285292
1	0x4034fb96	2.8278556
2	0x41566fec	13.402325
3	0x40a00fac	5.001913
4	0x3fcae585	1.5851294
5	0x3f8c56fa	1.0964043
6	0x416eae02	14.917482
7	0x40b50cc5	5.657809
8	0x3f65381f	0.8953876
9	0x410988a1	8.595857
10	0x4135b1d3	11.355914
11	0x40acb4a1	5.3970494
12	0x402254da	2.536429
13	0x4186d1aa	16.852375
14	0x40ca8089	6.3281903
15	0x260ca530	4.879613e-16
16	0x4178f962	15.560884
17	0x41300ae1	11.002656
18	0x40b05cb2	5.5113153
19	0x402eed2e	2.7332263
20	0x270e197e	1.9720278e-15
21	0x421bf423	38.988415
22	0x40a5b271	5.1780324
23	0x400f9fa9	2.24412
24	0x405a2eaa	3.4090981
25	0x3fa77196	1.3081539
26	0x4122ad44	10.167301
27	0x4147e223	12.492709
28	0x4123e52f	10.243453
29	0x3fde9837	1.7390202
30	0x412729a3	10.447665
31	0x41c2ffbb	24.374868
32	0x401623d4	2.3459368
33	0x3fbfc1a0	1.4980965
34	0x40da979a	6.831006
35	0x25761105	2.1342865e-16
36	0x25033b82	1.1382601e-16
37	0x402a4b85	2.6608593
38	0x24ad42a0	7.513966e-17
39	0x405eb684	3.4798899
40	0x402c8448	2.6955738
41	0x41812dcd	16.147364
42	0x3f8c7d54	1.0975747
43	0x403d9ff2	2.9628873
44	0x40d2d787	6.5888095
45	0x3f9d45f3	1.2286972
46	0x41133df5	9.202626
47	0x40867ca0	4.202713
48	0x4071847d	3.7737114
49	0x40cd0014	6.4062595
50	0x3fde4b1a	1.7366669
51	0x42826803	65.20315
52	0x41ae377f	21.777098
53	0x4031b946	2.7769332
54	0x40443166	3.065515
55	0x414a5fec	12.648418
56	0x402cddf3	2.7010467
57	0x41086f94	8.527241
58	0x3ff09758	1.8796186
59	0x408f7bb2	4.4838495
60	0x41d4ff31	26.624605
61	0x4108b4aa	8.544107
62	0x40151bb2	2.3298154
63	0x40273201	2.612427
64	0x4044d61a	3.0755677
65	0x419838fd	19.027826
66	0x3fadafe5	1.3569304
67	0x3f6f1856	0.9339651
68	0x40972271	4.7229543
69	0x407300df	3.7969282
70	0x3fd2bcec	1.6463904
71	0x41839663	16.448431

backbone1.2.block.1.0.weight f4 [72, 1, 3, 3]
0	0x3d3f8b9b	0.046763998
1	0x3d8ce5b1	0.06879748
2	0xbcfff971	-0.031246873
3	0xbe711b5f	-0.23545597
4	0xbead18ce	-0.33807987
5	0xbeebbefb	-0.46044144
6	0xbed5cc56	-0.41757458
7	0xbe83ebe6	-0.25765914
8	0xbed9034f	-0.42385337
9	0x3e284996	0.16434321
10	0x3de708dc	0.11280987
11	0xbf080c08	-0.5314336
12	0x3e868aee	0.2627787
13	0x3f82ad7e	1.0209196
14	0x3efabfdd	0.48974505
15	0xbf8671d6	-1.050349
16	0xbf058c9f	-0.52167696
17	0x3da87547	0.08225494
18	0x3a3f4a8a	0.0007297179
19	0xbe4af369	-0.19819416
20	0xbe5deadc	-0.21671623
21	0xbe9c6d92	-0.30552346
22	0xbf0fa98d	-0.5611809
23	0xbf06061d	-0.5235308
24	0xbe8b919b	-0.27259526
25	0xbf1fb71c	-0.6238878
26	0xbec7b427	-0.39004633
27	0xbf052fe5	-0.52026206
28	0xbf0fbf38	-0.5615115
29	0xbeb1a042	-0.3469258
30	0x3e0e607c	0.13903993
31	0xbbb39968	-0.005480934
32	0x3e41003d	0.18847747
33	0xbd83ff58	-0.06445187
34	0xbdb9ca6d	-0.09071813
35	0xba841287	-0.0010076322
36	0xbca39a37	-0.019970996
37	0xbf065395	-0.52471286
38	0x3f38cd18	0.7218795
39	0x3eb297ed	0.34881535
40	0x3fb2bdc1	1.3964158
41	0xbff443ca	-1.9083188
42	0xbe820c3a	-0.25399953
43	0xbf80504b	-1.0024503
44	0x3f8d3343	1.1031269
45	0x3d1f6db3	0.038922977
46	0xbc919670	-0.01777193
47	0xbe11c525	-0.14235361
48	0x3e8ad300	0.27114105
49	0x3e7114e1	0.23543121
50	0xbf6eb318	-0.93242025
51	0x3e80713b	0.25086388
52	0x3e814c22	0.25253397
53	0xbf130903	-0.57435626
54	0xbe094c1e	-0.13407943
55	0xbe126eb6	-0.14300045
56	0x3d3c3a48	0.04595402
57	0xbe588297	-0.21143566
58	0xbeef17c8	-0.4669783
59	0xbe3de254	-0.18543369
60	0xbe70823a	-0.23487177
61	0xbf20bdbd	-0.6278952
62	0xbe23175d	-0.15926881
63	0xbe76301d	-0.24041791
64	0x3e03b860	0.12863302
65	0x3e7b094c	0.24515265
66	0x3dab97fd	0.08378599
67	0xbf685418	-0.90753317
68	0x3f4d7358	0.80254126
69	0x3ea39dc6	0.3195631
70	0xbf753286	-0.9578022
71	0x3e9d25d0	0.3069291
72	0x3db47912	0.08812155
73	0xbd08f26e	-0.033434324
74	0xbe16f3e1	-0.1474147
75	0x3f273214	0.6531079
76	0xbf266f3a	-0.6501347
77	0x3d101c33	0.035183143
78	0x3f205f91	0.6264582
79	0xbf33e69f	-0.70273775
80	0x3b9c947c	0.004778443
81	0xbdeee280	-0.11664295
82	0xbe2815dd	-0.1641459
83	0xbd34392c	-0.043999836
84	0xbdcc8301	-0.099859245
85	0xbf1d4025	-0.61426
86	0xbd935f5a	-0.07195921
87	0xbe7af481	-0.24507333
88	0xbf070d69	-0.5275484
89	0xbebbcfba	-0.3668192
90	0x3c70e443	0.014702859
91	0xbd9f49f2	-0.07777776
92	0xbd51072b	-0.051032227
93	0xbedee98a	-0.4353755
94	0xbeaf8357	-0.34279892
95	0xbe8c3c06	-0.27389544
96	0xbe0b829c	-0.13624042
97	0xbef90257	-0.48634598
98	0xbeba41fd	-0.3637847
99	0xbe3abfa5	-0.18237169
100	0x3e42d213	0.1902545
101	0xbce0582c	-0.027385794
102	0x3eb4bc66	0.35299987
103	0x3f111548	0.566731
104	0xbf9f4c72	-1.2445204
105	0x3e14fa64	0.14548641
106	0x3e85fc25	0.26168934
107	0xbf8b3b03	-1.0877384
108	0xbd7695f5	-0.060201604
109	0x3e5a6865	0.21328886
110	0x3d0fe5c3	0.035131227
111	0x3e09368f	0.13399719
112	0xbe7c09a6	-0.24613056
113	0xbef174fb	-0.47159562
114	0x3e12f32e	0.14350578
115	0xbe8ad6ef	-0.27117106
116	0xbf013adc	-0.5048044
117	0x3e1987eb	0.14993255
118	0x3ea17a4c	0.31538618
119	0x3def63be	0.11688946
120	0x3ebce97a	0.36896878
121	0x3f0bfd1c	0.5468309
122	0x3f07baa9	0.53019196
123	0x3e428a1c	0.18997997
124	0x3f1cc143	0.61232394
125	0x3f07fb33	0.53117675
126	0x3e40e0e3	0.18835787
127	0x3e3d5e27	0.18492948
128	0x3e960a28	0.29304624
129	0x3df3b27f	0.1189928
130	0xc001ab7a	-2.026091
131	0x3e9095a7	0.28239176
132	0x3eb40b51	0.35164884
133	0xbd585b28	-0.05282131
134	0x3ed83e27	0.42234918
135	0xb09f3859	-1.1584788e-09
136	0xb084df64	-9.667755e-10
137	0xb0b44557	-1.3116431e-09
138	0xb0427a90	-7.075096e-10
139	0xb0cdc8dc	-1.4972801e-09
140	0xb0a7ebd3	-1.2217874e-09
141	0xb0c4f948	-1.4331727e-09
142	0xb090d609	-1.0538211e-09
143	0xb0d607ad	-1.5572731e-09
144	0x3d118414	0.03552635
145	0x3da82ca5	0.0821164
146	0x3d6e22a8	0.05813852
147	0x3ecfbd89	0.4057429
148	0x3f45eeb0	0.77317333
149	0x3f0949e7	0.5362839
150	0x3e36673a	0.17812815
151	0x3f289b14	0.6586163
152	0x3f207119	0.62672573
153	0x3dac9bd4	0.08428159
154	0xbdc84cac	-0.09780249
155	0xbdfd1931	-0.123583205
156	0xbdf6bd85	-0.12047867
157	0xbf42b5e1	-0.76058775
158	0xbf57a70d	-0.84239274
159	0x3d574edf	0.05256545
160	0xbef95c78	-0.4870336
161	0xbf371b8f	-0.71526426
162	0xbcec5650	-0.02884975
163	0xbe3b7685	-0.1830693
164	0xbd28e02b	-0.04122941
165	0xbdbcd2f7	-0.09219926
166	0x3e87666c	0.2644533
167	0x3f1646a9	0.5870157
168	0x3c80fab3	0.015744543
169	0x3e66e555	0.2254842
170	0x3f28dbd4	0.6596043
171	0x3e9e2de8	0.308944
172	0x3f2a9df5	0.66647273
173	0xbf2b99e5	-0.670317
174	0xbf24562a	-0.64193976
175	0x3ec53fa6	0.38525122
176	0x3fe1fb70	1.7654858
177	0x3f110375	0.566459
178	0xbfe7b806	-1.8103034
179	0xbdf6cecf	-0.12051164
180	0x31a50fdc	4.803935e-09
181	0x3208ddb7	7.966654e-09
182	0x320515b5	7.7465545e-09
183	0x3144b6a7	2.862558e-09
184	0x325535fb	1.24105055e-08
185	0x31c7de90	5.8169647e-09
186	0x315ce4c0	3.2144243e-09
187	0xb0362c9d	-6.6274614e-10
188	0x31b22a45	5.1852873e-09
189	0x3cd1f9f8	0.02563189
190	0x3eaa12cd	0.3321747
191	0x3e58f4b7	0.21187101
192	0x3e2c403d	0.1682138
193	0x3f502b7c	0.8131635
194	0x3ef6845f	0.48147866
195	0x3e90002c	0.2812513
196	0x3f3fc840	0.7491493
197	0x3eb10156	0.34571332
198	0x3d575075	0.052566964
199	0x3e5ebc8d	0.21751614
200	0x3e3c5859	0.18393077
201	0x3e846c20	0.25863743
202	0x3f23719f	0.6384525
203	0x3ecafc7b	0.39645752
204	0x3e23aeb2	0.1598461
205	0x3ee908ae	0.45514435
206	0x3ed748cd	0.4204773
207	0xbcc32812	-0.023822818
208	0x3edaedae	0.4275946
209	0x3ee5b73a	0.44866353
210	0xbe8dbb6f	-0.27682063
211	0xc0000cad	-2.0007737
212	0xbfc933d4	-1.5718942
213	0x3e440da0	0.19145823
214	0x3fbfb211	1.4976217
215	0x3fa43c44	1.2830892
216	0x3d3c98c5	0.04604413
217	0xbc8b8c44	-0.017034657
218	0xbd0b7d25	-0.034054894
219	0xbd9814f4	-0.074258715
220	0xbe615005	-0.22003181
221	0xbe54311d	-0.2072186
222	0x3c39c553	0.01133855
223	0xbed13645	-0.40861717
224	0xbec0101b	-0.37512287
225	0x3d2dd82b	0.042442482
226	0xbe869b15	-0.26290193
227	0x3ed7c6f9	0.42143992
228	0xbd5575b4	-0.052114204
229	0x3fbd2884	1.4777989
230	0xbfb009d3	-1.3752998
231	0x3dd2bf61	0.10290409
232	0xbf8e8dbb	-1.1137003
233	0x3f6aa8d1	0.91663843
234	0xbd259686	-0.040426753
235	0xbe3b6b38	-0.1830262
236	0xbc061d7b	-0.00818574
237	0xbe52ffd6	-0.20605406
238	0xbee172b8	-0.44032836
239	0xbed13dec	-0.40867555
240	0xbde3506c	-0.11099324
241	0xbeafa070	-0.34302092
242	0xbe7d332d	-0.24726553
243	0xbe281c7d	-0.16417117
244	0xbec292a6	-0.3800251
245	0xbe7c8264	-0.24659115
246	0xbe9384e7	-0.28812334
247	0xbf0a59c3	-0.54043216
248	0xbe9fa959	-0.3118389
249	0x3dffae6e	0.12484442
250	0xbd43d1a1	-0.04780734
251	0x3d976323	0.07391956
252	0x3dcb82d2	0.09937061
253	0xbd8108a0	-0.06300473
254	0xbe8d081f	-0.27545258
255	0xbe125ec9	-0.1429397
