Grasping/grasping/grasp_mobilenet.pt (torch, 373082 bytes, 93 tensors)

backbone1.0.0.weight f4 [16, 3, 3, 3]
0	0x3f776fe8	0.9665513
1	0x3f9e51ff	1.2368773
2	0x3f8371fa	1.0269158
3	0x3f7eec2a	0.9957911
4	0x3f9cef7c	1.2260585
5	0x3f77e201	0.9682923
6	0x3e5255f4	0.20540601
7	0x3e53d31e	0.20686004
8	0x3cb34695	0.021884242
9	0xbf3002c4	-0.6875422
10	0xbf649385	-0.89287597
11	0xbf5bf84b	-0.8592574
12	0xbf3fecc8	-0.74970675
13	0xbf79aed3	-0.97532386
14	0xbf49c075	-0.7880929
15	0x3dd09034	0.101837546
16	0xbd518c59	-0.051159237
17	0xbca49893	-0.020092284
18	0x3d38a806	0.045082115
19	0x3cbe17ba	0.023204673
20	0xbd61f884	-0.055168644
21	0x3b4ab54d	0.0030930818
22	0xbd437178	-0.047715634
23	0xbd8c5325	-0.06851796
24	0x3e0c7405	0.13716133
25	0x3d524f3f	0.051345106
26	0x3c6e22ac	0.014534634
27	0xbc4a4d8b	-0.012347589
28	0xbb3c1297	-0.0028697604
29	0x3c288a02	0.01028681
30	0x3ed47ea6	0.41502875
31	0x3f34c40b	0.7061164
32	0x3ed3bd66	0.41355437
33	0xbea8488b	-0.32867846
34	0xbf3f7747	-0.7479138
35	0xbeca76f0	-0.39543867
36	0x3d01baeb	0.0316724
37	0x3d07a6bd	0.033118
38	0x3cbae5ef	0.022814719
39	0x3f5a5457	0.8528494
40	0x3fd60c8d	1.672258
41	0x3f6b33c7	0.9187588
42	0xbf388311	-0.7207499
43	0xbfda4479	-1.7052146
44	0xbf6bbdc1	-0.92086416
45	0x3cfc4828	0.030796126
46	0x3d2eed21	0.042706612
47	0x3cd62b56	0.026143711
48	0x3e4b70c1	0.19867231
49	0x3e8ada93	0.27119884
50	0x3e176ee3	0.14788394
51	0xbdeadbf7	-0.11467736
52	0xbea3f59e	-0.3202333
53	0xbe368631	-0.17824627
54	0x3e2714ef	0.1631658
55	0x3edff38a	0.43740493
56	0x3e919c66	0.28439635
57	0x3eeee2ed	0.46657506
58	0x3f45e4c5	0.773022
59	0x3f0032ac	0.5007732
60	0x3e0ea4e9	0.13930096
61	0x3edcfb8d	0.43160668
62	0x3e955772	0.29168278
63	0xbf36b8fc	-0.71376014
64	0xbfb5fa2a	-1.4216969
65	0xbf803410	-1.0015888
66	0xbfa99433	-1.3248352
67	0xc00d1c2e	-2.204845
68	0xbfe69ad6	-1.8016002
69	0xbf54e8e4	-0.8316786
70	0xbfc13a7f	-1.5095977
71	0xbf8ddc13	-1.1082786
72	0x3ed5f62d	0.4178938
73	0x3f53c4b2	0.8272201
74	0x3f18102c	0.59399676
75	0x3f2ff26b	0.68729275
76	0x3f90e566	1.1320007
77	0x3f5f2b2c	0.8717525
78	0x3e95a7c8	0.2922957
79	0x3f3a493a	0.72767985
80	0x3f0992eb	0.53739804
81	0x3c73121e	0.014835862
82	0x3ea99e4f	0.33128592
83	0xbeffb872	-0.49945408
84	0xbe039070	-0.12848067
85	0x3ea0641f	0.31326386
86	0x3e542aba	0.20719424
87	0x3eaa1c89	0.33224896
88	0xbef21203	-0.47279367
89	0x3e13a883	0.14419751
90	0xbeae7e9d	-0.34080973
91	0x3de1f66b	0.110333286
92	0x3e1f927c	0.15583223
93	0xbde70c9d	-0.11281703
94	0xbe56afd3	-0.20965509
95	0x3be77299	0.0070632217
96	0x40152bc7	2.330797
97	0xbe19c538	-0.15016639
98	0xbe861e3c	-0.26194942
99	0xbd4f8da4	-0.05067219
100	0xbe203737	-0.15646063
101	0x3c214cec	0.009845
102	0x3e7f19f7	0.24912249
103	0x3d767b18	0.060175985
104	0xbdc0525e	-0.0939071
105	0x3db80f14	0.08987251
106	0x3e03720a	0.12836471
107	0xbdc5bcf6	-0.09655182
108	0xbe7aa925	-0.24478586
109	0x3edbc8a6	0.4292652
110	0xbe015756	-0.12630972
111	0xbede113e	-0.4337253
112	0x3f2e7925	0.681536
113	0xbe94f1ff	-0.29090878
114	0xbe5e7b67	-0.21726762
115	0x3eabcfb6	0.33556908
116	0xbe167e4e	-0.14696619
117	0xbf18e4ea	-0.59724295
118	0x3f74331b	0.9539048
119	0xbea183da	-0.31545907
120	0xbf755d18	-0.95845175
121	0x3fc3987a	1.5280907
122	0xbf08c521	-0.53425795
123	0xbed2e553	-0.41190585
124	0x3f3782e3	0.7168409
125	0xbe84b385	-0.25918213
126	0xbdc3a7a0	-0.09553456
127	0x3e7c8702	0.24660876
128	0xbd9c6319	-0.07636089
129	0xbe1ea022	-0.15490773
130	0x3eb29c11	0.34884694
131	0xbe5b730c	-0.21430606
132	0xbd7e0737	-0.0620186
133	0x3e292001	0.16516115
134	0xbde454d1	-0.1114899
135	0xbee4bf7f	-0.4467735
136	0x3ea890f7	0.329231
137	0x3e0ced90	0.13762498
138	0xbf4c0831	-0.797
139	0x3f10f787	0.56627697
140	0x3e8a4457	0.27005264
141	0xbecf8df9	-0.40538004
142	0x3eac6023	0.33667096
143	0x3d781c29	0.06057373
144	0xbf75f57d	-0.9607771
145	0x3f3ee7a6	0.7457222
146	0x3ea8f611	0.33000234
147	0xbfdcd000	-1.7250977
148	0x3f9a597f	1.2058562
149	0x3efb3dd0	0.49070597
150	0xbf55a8bd	-0.834606
151	0x3f25d172	0.64772713
152	0x3e00a5d4	0.12563258
153	0xbe71f90f	-0.23630165
154	0x3e1c89c0	0.15286922
155	0x3d9ed5c7	0.077556185
156	0xbeac0670	-0.3359866
157	0x3e7899d8	0.24277437
158	0x3e069466	0.13142547
159	0xbe1c8f4a	-0.15289035
160	0x3e14580b	0.1448671
161	0xbc545cb5	-0.012961556
162	0x3e1fe724	0.15615517
163	0x3e1460cc	0.1449005
164	0x3dbd12a7	0.09232073
165	0xbdf33135	-0.1187462
166	0xbe49982a	-0.19686952
167	0xbe44e699	-0.19228591
168	0xbe5f7a09	-0.21823896
169	0xbe7fd74d	-0.24984474
170	0xbee8534f	-0.4537606
171	0x3e803242	0.25038344
172	0x3e391196	0.18073115
173	0x3d956de1	0.07296348
174	0xbe91370d	-0.28362313
175	0xbf083b47	-0.5321545
176	0xbf06bcf4	-0.5263207
177	0xbece5295	-0.4029738
178	0xbf27bd46	-0.65523183
179	0xbf5bebf3	-0.85906905
180	0x3d2c337b	0.042041283
181	0x3d9d6cc7	0.07686763
182	0x3c7d211c	0.015449788
183	0xbd4ee34d	-0.05050974
184	0xbdd9aa4d	-0.106281854
185	0xbcafe571	-0.02147171
186	0xbd810bbd	-0.06301067
187	0xbe0e8731	-0.13918759
188	0xbe315a9d	-0.17319722
189	0x3e8a12d5	0.26967493
190	0x3ed3f50a	0.41397887
191	0x3e19df3d	0.15026565
192	0x3bbf6104	0.0058404226
193	0xbe0faad2	-0.14030007
194	0xbe0023c4	-0.12513644
195	0xbe7e7951	-0.24850966
196	0xbf36ef0f	-0.71458524
197	0xbef19a6b	-0.47188124
198	0x3f09e98b	0.53871983
199	0x3f48c004	0.7841799
200	0x3e834d81	0.25645068
201	0xbda78665	-0.081799306
202	0xbeba74fd	-0.3641738
203	0xbe9fe119	-0.31226423
204	0xbf1048f6	-0.5636133
205	0xbfacc5c1	-1.349785
206	0xbf5369d9	-0.82583386
207	0x3e478444	0.19484049
208	0x3e3cd1aa	0.18439355
209	0x3d5148e9	0.051094923
210	0xbd16c808	-0.03681186
211	0xbddf257f	-0.10895824
212	0xbd5ad90e	-0.053429656
213	0xbe333892	-0.17502049
214	0xbeceef55	-0.4041697
215	0xbe5fba87	-0.21848498
216	0xbc1e6356	-0.009667238
217	0xbea0c759	-0.3140209
218	0x3e8d0583	0.27543268
219	0xbd92554e	-0.07145177
220	0xbf1dc64b	-0.61630696
221	0x3f0e718b	0.55642
222	0x3caef2d0	0.021356016
223	0xbe8e7a81	-0.27827838
224	0x3ef5b8c3	0.47992525
225	0xbcaf2a58	-0.021382496
226	0xbf3a2ab9	-0.7272144
227	0x3f3c4366	0.7354034
228	0xbdaa24ee	-0.08307825
229	0xbfb19d18	-1.3876066
230	0x3fa4bd05	1.2870184
231	0x3d85fd6d	0.06542478
232	0xbf28e20f	-0.6596994
233	0x3f5d8cc3	0.8654291
234	0xbca19d97	-0.019728465
235	0xbe17b2e7	-0.1481434
236	0x3dcd4ab1	0.10024012
237	0xbd29cf9a	-0.04145775
238	0xbe9dc03a	-0.3081072
239	0x3e68fc9b	0.22752611
240	0x3ba7c44a	0.005119835
241	0xbdf58f17	-0.11990183
242	0x3e5ba465	0.2144943
243	0xbda4e68b	-0.08051785
244	0xbe2fb564	-0.17159039
245	0xbe0350a4	-0.1282373
246	0xbd9275fe	-0.071514115
247	0xbded2fa4	-0.11581352
248	0xbd0b7f4f	-0.034056958
249	0xbca4e36b	-0.020127973
250	0xbda1456a	-0.07874568
251	0xbd9bd9ac	-0.07609877
252	0xbf4520f8	-0.7700343
253	0xbf848ea0	-1.0356026
254	0xbf5426cf	-0.8287172
255	0xbf45f3f5	-0.77325374

backbone1.0.1.weight f4 [16]
0	0x3e8f4b83	0.27987298
1	0x3f9d8a4d	1.2307831
2	0x3f0ca475	0.5493844
3	0x3ffd6860	1.9797478
4	0x3ec23ec1	0.37938502
5	0x3f28a56e	0.65877426
6	0x3d72d2f2	0.059283204
7	0x3d776613	0.06040008
8	0x3ef18af9	0.4717634
9	0x3f094fe6	0.5363754
10	0x3f0a03d9	0.5391212
11	0x410e14cc	8.880077
12	0x3d931940	0.071825504
13	0x3e0b930e	0.13630316
14	0x3dd853e1	0.10562874
15	0x4035efbc	2.8427572

backbone1.0.1.bias f4 [16]
0	0x40931c93	4.597238
1	0x402304de	2.547172
2	0x402a3621	2.6595538
3	0xc02964a3	-2.6467674
4	0x40378b2f	2.86787
5	0x4030f966	2.765222
6	0x3e9b420e	0.30323833
7	0xbd7f0a88	-0.062265903
8	0x402a8a16	2.664678
9	0x402e0bf2	2.719479
10	0x402bf192	2.6866193
11	0xbf3bb3cf	-0.7332124
12	0x3ec0d500	0.37662506
13	0x3ef7ba00	0.48384094
14	0x3f8b86d5	1.0900522
15	0xc025548c	-2.5832853

backbone1.0.1.running_mean f4 [16]
0	0x3fe85255	1.8150126
1	0x3e7df0de	0.24798915
2	0xc004c008	-2.0742207
3	0x3fd5aff0	1.6694317
4	0x3e44cdb7	0.19219099
5	0x3e78669e	0.24257895
6	0xc077cd54	-3.8719072
7	0xc04bdd28	-3.1853733
8	0x3cf66e13	0.030081784
9	0x3d2336d6	0.039847218
10	0xbf8abcd4	-1.0838876
11	0xbfe5e827	-1.7961472
12	0xc07ad6f6	-3.9193702
13	0x40834264	4.1018543
14	0x40a43d57	5.132488
15	0xc031d57f	-2.7786558

backbone1.0.1.running_var f4 [16]
0	0x3deeab36	0.1165375
1	0x3d4e4161	0.05035532
2	0x3e57911e	0.21051452
3	0x3e4080e7	0.18799172
4	0x3e93db55	0.28878275
5	0x3f75b73a	0.95982707
6	0x3e332e2a	0.17498079
7	0x3eabf8f1	0.33588365
8	0x3d0adaf0	0.0339002
9	0x3d698e08	0.057020217
10	0x3df7c87c	0.12098786
11	0x3e21a391	0.15785052
12	0x3e9ae1b6	0.3025033
13	0x3e25b967	0.16184007
14	0x3ebd1fd2	0.3693834
15	0x3eef63f3	0.46755943

backbone1.1.block.0.0.weight f4 [16, 1, 3, 3]
0	0xbe7cc130	-0.2468307
1	0x3dd5072a	0.10401757
2	0x3e2a2c1f	0.16618393
3	0x402367eb	2.5532176
4	0x3eb07e92	0.34471565
5	0xc030308a	-2.7529626
6	0x4001167e	2.0169978
7	0x3e69fca3	0.2285028
8	0xc0159260	-2.337059
9	0xbe2109b7	-0.15726362
10	0xbf1fb9cf	-0.62392896
11	0xbe8bf6cb	-0.27336726
12	0x3f0db945	0.55360824
13	0x3f9edf2a	1.2411854
14	0x3f4f7efe	0.8105315
15	0xbe6aaeda	-0.22918263
16	0xbf4f8e73	-0.81076735
17	0xbec6446f	-0.38724086
18	0xbc84e2f4	-0.016221501
19	0xbd149b8e	-0.03628116
20	0x3d239aef	0.039942678
21	0x3cc29b01	0.023755552
22	0xbf2fccf5	-0.68672115
23	0xbf7746e2	-0.96592534
24	0x3c5dc550	0.0135358125
25	0xbf1ed391	-0.62041575
26	0xbf513841	-0.8172646
27	0xbea4ff04	-0.3222581
28	0x3eab9fec	0.33520448
29	0x3eba56f8	0.36394477
30	0xbecc515d	-0.39905825
31	0x3ea429c0	0.32063103
32	0x3f211ddf	0.62936205
33	0xbd67e5b6	-0.056615554
34	0xbc703412	-0.014660852
35	0x3dc0d321	0.0941527
36	0x3d9d339f	0.076758616
37	0x3e2bb1e1	0.16767074
38	0xbd3d4bf3	-0.04621501
39	0xbdeb2600	-0.11481857
40	0x3fa4c146	1.2871482
41	0xbfa67ae3	-1.3006252
42	0xbe0a5e61	-0.13512565
43	0x3f769ee0	0.96336174
44	0xbf735a04	-0.9505923
45	0xbd35af5f	-0.0443567
46	0x3e92821a	0.28614885
47	0xbe61e260	-0.22059011
48	0x3debb209	0.11508567
49	0x3f92f1c2	1.1480029
50	0xbfc64922	-1.5491068
51	0x3e0732a7	0.13202916
52	0x3f4c1e14	0.79733396
53	0xbf84abe2	-1.0364954
54	0x400511a3	2.0792015
55	0x3ca939bc	0.020657413
56	0xc01091a9	-2.2588904
57	0x408330b9	4.0996976
58	0xbca609c5	-0.02026833
59	0xc0820921	-4.0636144
60	0x3f6042b2	0.8760177
61	0xbd9d3492	-0.076760426
62	0xbf866cb2	-1.0501921
63	0xbecb0036	-0.39648598
64	0xbf1b5b04	-0.60685754
65	0xbf0e9043	-0.55688876
66	0xbe825e69	-0.25462654
67	0xbf38e687	-0.72226757
68	0xbefd7941	-0.49506572
69	0x3e0773b9	0.13227738
70	0x3efb04da	0.4902714
71	0x3d7d8207	0.061891582
72	0xbe1e3875	-0.15451224
73	0x3e787454	0.24263126
74	0xbd2b7f04	-0.04186918
75	0xbf96f777	-1.179427
76	0x3f84bd7e	1.0370328
77	0xbd0c2020	-0.034210324
78	0xbf3e2643	-0.7427713
79	0x3f6c84f8	0.92390394
80	0xbdcfc004	-0.10144046
81	0x3e367a2f	0.17820047
82	0xbd4fc56a	-0.050725378
83	0xbe2a26aa	-0.16616312
84	0xc00be31f	-2.1857374
85	0xbee7d24d	-0.45277634
86	0x40225987	2.5367143
87	0xbfe300d4	-1.7734628
88	0xbe8ed763	-0.27898702
89	0x400fbd4b	2.2459285
90	0x3dddb233	0.108250044
91	0x3de937d0	0.113875985
92	0x3ca74abb	0.020421376
93	0x3ea3a3f9	0.3196104
94	0x3f650ff7	0.89477485
95	0x3f52d676	0.8235849
96	0x3cfc38cb	0.0307888
97	0x3f08e277	0.5347056
98	0x3f51ea71	0.81998354
99	0x3e346b0d	0.17618962
100	0x3e6d67b3	0.2318409
101	0x3e9523f6	0.29129
102	0x3ec3ce31	0.3824325
103	0x3f298f89	0.6623464
104	0x3eff5112	0.4986654
105	0x3e862105	0.26197067
106	0x3edeb3ee	0.4349665
107	0x3efbd17c	0.4918326
108	0x3c536c30	0.012904212
109	0x404b540f	3.1770055
110	0x402f9e5e	2.744041
111	0xbe51b1e4	-0.20478016
112	0x3eb7b52d	0.35880414
113	0x3ea28bfe	0.3174743
114	0x3c9df3c6	0.01928128
115	0xc055fe5a	-3.3436494
116	0xc047abfc	-3.119872
117	0x3ff971a9	1.9487811
118	0x406282fc	3.5392447
119	0x3f269a40	0.65079117
120	0x3f1a2b49	0.602223
121	0x3f01e1d6	0.50735223
122	0x3c6441b2	0.013931679
123	0xc01f4089	-2.488314
124	0xc077da6d	-3.8727067
125	0xbf2ed6ea	-0.6829668
126	0xbe5d7d59	-0.21629848
127	0x3c07d670	0.008290872
128	0x3e2bc7c1	0.16775419
129	0x4079a7d6	3.900869
130	0x3e3d97ba	0.1851491
131	0xc081b30f	-4.0531077
132	0x4060e696	3.5140738
133	0x3db92502	0.09040262
134	0xc06bdc04	-3.6853037
135	0x3df2dbc8	0.11858326
136	0x3e118300	0.14210129
137	0x3dac283a	0.0840611
138	0x3e75dd29	0.24010147
139	0xbe9c1524	-0.3048488
140	0xbf0e3088	-0.555428
141	0x3e4cfd8d	0.20018597
142	0xbefdb92c	-0.49555337
143	0xbf5edb99	-0.8705383

backbone1.1.block.0.1.weight f4 [16]
0	0x3fc7d1c4	1.561089
1	0x3f3a151a	0.7268845
2	0x3ea40bea	0.3204034
3	0x3eb0efba	0.34557897
4	0x3fc5e42b	1.5460256
5	0x3efacea0	0.48985767
6	0x3fbeb4fd	1.4898983
7	0x3ef2352e	0.47306198
8	0x3f1ff98a	0.6249014
9	0x3f61e59e	0.88240993
10	0x3ea76f74	0.3270222
11	0x3f198955	0.5997518
12	0x3f9fea85	1.2493445
13	0x3fd0af4b	1.6303495
14	0x401f300d	2.4873078
15	0x3e77698b	0.24161355

backbone1.1.block.0.1.bias f4 [16]
0	0x3e8aa56a	0.27079326
1	0x3feacaec	1.8343177
2	0x3fd38fdf	1.6528281
3	0x3e384ad8	0.179973
4	0x3cd37be7	0.025815917
5	0x40325ede	2.7870402
6	0x3e39b319	0.18134727
7	0x3f59a8d5	0.8502324
8	0x3fd7ccec	1.6859412
9	0x3ecc04e5	0.39847484
10	0x3fae31e2	1.3608973
11	0x3f006d31	0.5016661
12	0x3e8f9cb6	0.28049248
13	0x3d82c14b	0.06384524
14	0xbe87d477	-0.26529285
15	0x3fdad749	1.709695

backbone1.1.block.0.1.running_mean f4 [16]
0	0xbf849e3c	-1.0360789
1	0x3ea5f556	0.3241374
2	0xc0f35055	-7.603556
3	0xbe8278c7	-0.2548277
4	0x3e4e8ad5	0.20170148
5	0xbeda5e75	-0.4265019
6	0xbe02d410	-0.12776208
7	0x3d8d4e89	0.06899745
8	0x3e6b2201	0.2296219
9	0x3f51930a	0.8186499
10	0x4113611d	9.211209
11	0x403884b6	2.8831
12	0xbd97985f	-0.07402109
13	0xbd83c404	-0.064338714
14	0xbed24fcb	-0.41076502
15	0xbf3ce47a	-0.7378613

backbone1.1.block.0.1.running_var f4 [16]
0	0x41ccc01b	25.593801
1	0x40b44ff7	5.6347613
2	0x401bae93	2.4325302
3	0x3ba61925	0.0050689154
4	0x40051798	2.079565
5	0x4082b7cb	4.0849357
6	0x3de4c099	0.111695476
7	0x3b27a81f	0.0025582386
8	0x4052ac7a	3.2917771
9	0x410daf3c	8.855282
10	0x403749f6	2.8638892
11	0x434b96cd	203.58907
12	0x3de32c69	0.11092455
13	0x3eab8190	0.33497286
14	0x3ff48b80	1.9105072
15	0x40647845	3.5698407

backbone1.1.block.1.fc1.weight f4 [8, 16, 1, 1]
0	0xb07a6ccd	-9.1104085e-10
1	0xb1ac0d41	-5.0073656e-09
2	0x30262920	6.044889e-10
3	0xb098f50b	-1.1129101e-09
4	0xb2281b8d	-9.785151e-09
5	0xb0e03f01	-1.6316052e-09
6	0xb1a5ec15	-4.8289714e-09
7	0xb085cfd1	-9.736089e-10
8	0x31f7789b	7.2023574e-09
9	0xb18add7f	-4.04151e-09
10	0xb11876c7	-2.2186428e-09
11	0xb0d8aedf	-1.576577e-09
12	0xb15783f3	-3.1361622e-09
13	0xb15bc6ab	-3.1981624e-09
14	0xb1480988	-2.9109248e-09
15	0x31451981	2.868177e-09
16	0xb0d2ac73	-1.5328524e-09
17	0xb114da75	-2.1661013e-09
18	0xb09b86a5	-1.1316003e-09
19	0xb1a0106d	-4.6584803e-09
20	0xb1ebd257	-6.863313e-09
21	0xb16625d1	-3.3490901e-09
22	0xb175d1ef	-3.5771526e-09
23	0xb16bdb65	-3.4321712e-09
24	0x312dde9d	2.5301354e-09
25	0xb0085d45	-4.9609056e-10
26	0xb01759e7	-5.506124e-10
27	0x316a4b2b	3.409421e-09
28	0xb19b0b34	-4.5123674e-09
29	0xb1845895	-3.8517762e-09
30	0x319f32a4	4.633266e-09
31	0xb103a2ff	-1.9155662e-09
32	0xbab0ebf3	-0.0013498053
33	0xba41aedf	-0.00073884235
34	0xbaef3087	-0.0018248715
35	0xb9fc79c1	-0.000481559
36	0xba23c7dd	-0.00062477385
37	0xba165610	-0.000573487
38	0xba45127b	-0.00075177074
39	0xbaec8935	-0.0018046262
40	0xba32a035	-0.0006814034
41	0xba87b590	-0.0010353792
42	0xbb399e95	-0.0028323282
43	0x3a6916a0	0.0008891616
44	0xb9603755	-0.00021382917
45	0xb9da55a4	-0.00041644007
46	0xba956647	-0.0011398279
47	0xbaa29071	-0.0012402666
48	0xb11a9975	-2.249718e-09
49	0xb13679f9	-2.655382e-09
50	0x3187a7e1	3.9481027e-09
51	0x317207a5	3.521998e-09
52	0xb1936ef5	-4.2908774e-09
53	0xb14a3e28	-2.94302e-09
54	0xb1155299	-2.1729305e-09
55	0xb1094085	-1.99728e-09
56	0xb1c863e8	-5.832124e-09
57	0x30b375f5	1.305749e-09
58	0xb0c36cb4	-1.4219013e-09
59	0xb1238dd9	-2.3800253e-09
60	0xb113ac0d	-2.1489115e-09
61	0xab64588f	-8.112477e-13
62	0xb1663058	-3.3496885e-09
63	0xb10d02b5	-2.051974e-09
64	0xaea7e097	-7.634176e-11
65	0xb1d98ae9	-6.3313235e-09
66	0xb0d437df	-1.544091e-09
67	0xb0a6455d	-1.2097804e-09
68	0xb187e27d	-3.954766e-09
69	0x30cb4130	1.4788721e-09
70	0x2fe0611c	4.0814363e-10
71	0xb1959379	-4.3532364e-09
72	0xad19b81d	-8.7379244e-12
73	0xb0d2cc0d	-1.5337506e-09
74	0x2f9704f1	2.747025e-10
75	0xb1b06d8c	-5.134728e-09
76	0xb14bd2b7	-2.9660165e-09
77	0xaed42735	-9.6476084e-11
78	0x30dfc86b	1.6282348e-09
79	0xafab1fe5	-3.112738e-10
80	0xb1b76125	-5.337045e-09
81	0xb0d04745	-1.5154248e-09
82	0xb24a69fc	-1.1782046e-08
83	0xb29738fd	-1.7604629e-08
84	0xb254ecb8	-1.2393848e-08
85	0x30e1ddaf	1.6433911e-09
86	0xb0b96c15	-1.349124e-09
87	0xaf9adafa	-2.816803e-10
88	0x324d26dd	1.1941407e-08
89	0xb20c7bbd	-8.177207e-09
90	0xb19f35f0	-4.633641e-09
91	0xb1e31ec7	-6.6100685e-09
92	0xb20121f0	-7.516505e-09
93	0xb2675beb	-1.3466869e-08
94	0xb224e316	-9.59769e-09
95	0xb217c140	-8.833297e-09
96	0xb164f47f	-3.3317347e-09
97	0xb14f65e4	-3.0180383e-09
98	0x31ccc9fd	5.960145e-09
99	0x3116f405	2.1966582e-09
100	0xb1484ad5	-2.9146368e-09
101	0xb10b0089	-2.0227466e-09
102	0xb1af6848	-5.1050257e-09
103	0xb092ebb5	-1.068989e-09
104	0xb18b5fb7	-4.056314e-09
105	0xafb20c54	-3.238677e-10
106	0xb1762690	-3.5819632e-09
107	0xb1d7d0a5	-6.2810437e-09
108	0xb22a02cb	-9.895937e-09
109	0xb14dbb95	-2.9938054e-09
110	0xafb2e1f8	-3.2538572e-10
111	0xb14b717d	-2.9604899e-09
112	0xb09e5aa4	-1.1521775e-09
113	0xb1c0ba95	-5.6091474e-09
114	0xb0c52903	-1.4345293e-09
115	0xb154cf08	-3.0967744e-09
116	0xb1b92f9c	-5.389621e-09
117	0xb1624dac	-3.293148e-09
118	0xb171bb3c	-3.5176546e-09
119	0x2e927bc5	6.661297e-11
120	0xb0c26784	-1.4144779e-09
121	0xb1884efd	-3.967101e-09
122	0xb10f8ef7	-2.0890505e-09
123	0xb11de783	-2.2978106e-09
124	0x31853069	3.876313e-09
125	0xb205ef07	-7.795967e-09
126	0x304be783	7.417997e-10
127	0x3007ea0f	4.944533e-10

backbone1.1.block.1.fc1.bias f4 [8]
0	0xb0ec5191	-1.7194443e-09
1	0xb11f3295	-2.3166298e-09
2	0xb92b7fa7	-0.00016355385
3	0xb10104bd	-1.8774664e-09
4	0xb0b12da1	-1.2891413e-09
5	0x32969991	1.7532132e-08
6	0xb1c26057	-5.6570957e-09
7	0x2ed4b235	9.6723e-11

backbone1.1.block.1.fc2.weight f4 [16, 8, 1, 1]
0	0xb029249e	-6.153388e-10
1	0x314adc51	2.9520104e-09
2	0x3b0faafd	0.0021921985
3	0x2f852661	2.421983e-10
4	0xb100de79	-1.8752913e-09
5	0x328ae5b1	1.6169766e-08
6	0x31eb377b	6.8457076e-09
7	0x31707ae0	3.4994443e-09
8	0x308735e0	9.837855e-10
9	0xb052d1d3	-7.6695733e-10
10	0x3accaebf	0.0015616043
11	0x307e086b	9.2416624e-10
12	0xb1d51515	-6.2015126e-09
13	0x327ee2e0	1.4836331e-08
14	0x3181e05d	3.7799013e-09
15	0x31652bed	3.3348855e-09
16	0xb0455ac4	-7.179717e-10
17	0x31662b50	3.3494025e-09
18	0x3a91cd34	0.0011123777
19	0xb117d607	-2.2095052e-09
20	0xb107f414	-1.9783828e-09
21	0x3204fc13	7.740726e-09
22	0xb18a92db	-4.033024e-09
23	0x315639b5	3.1173901e-09
24	0xb1444ed8	-2.8566571e-09
25	0x31a9ade4	4.9383164e-09
26	0x3afcbfd3	0.0019283242
27	0xb032ed60	-6.5093353e-10
28	0x304e4149	7.503514e-10
29	0x320dade5	8.246819e-09
30	0xb00b0205	-5.0570775e-10
31	0x308df4e4	1.0328702e-09
32	0xb0c68a13	-1.4445639e-09
33	0x30ca179c	1.4704145e-09
34	0x3b1f821b	0.0024339024
35	0x2f460fad	1.8013564e-10
36	0xb00f35ad	-5.2099375e-10
37	0x3132f715	2.604286e-09
38	0x31914875	4.228293e-09
39	0x30cb951b	1.4812572e-09
40	0xb19d739c	-4.5824446e-09
41	0xb01e1aa3	-5.751792e-10
42	0x39ee67f4	0.0004547235
43	0xb0b7ebdc	-1.3382038e-09
44	0x30465cd5	7.21639e-10
45	0x32681738	1.3509457e-08
46	0xb0489cdd	-7.298249e-10
47	0xb0ca696b	-1.4727396e-09
48	0x3025da00	6.0336447e-10
49	0xb19bb835	-4.5320356e-09
50	0x3b13c1ec	0.0022546006
51	0xb0ae2c9f	-1.2672848e-09
52	0x310a48a9	2.0122946e-09
53	0x3255ca28	1.2444197e-08
54	0x3107987d	1.9731765e-09
55	0xb0db257d	-1.5945002e-09
56	0xadbec26f	-2.1686845e-11
57	0x3083be7d	9.585645e-10
58	0x3b02f039	0.001997961
59	0xb14454c4	-2.8569938e-09
60	0x318e1575	4.1351833e-09
61	0x30e01378	1.6303678e-09
62	0x312c0bcb	2.5035998e-09
63	0xb00516a3	-4.8417287e-10
64	0xb164bd7d	-3.3286078e-09
65	0xb03692a1	-6.6419586e-10
66	0x3abba70f	0.0014316755
67	0x31bd7088	5.5134173e-09
68	0x30062921	4.8807364e-10
69	0x3218578d	8.867471e-09
70	0x3048f12c	7.31023e-10
71	0x30977944	1.1021162e-09
72	0xb17b5dfc	-3.6578731e-09
73	0x3152c9b5	3.067368e-09
74	0x3adb5615	0.0016734028
75	0x312eaf8f	2.5420126e-09
76	0xb118fb64	-2.226181e-09
77	0x3252ca30	1.2269581e-08
78	0xb17c9e5d	-3.6760845e-09
79	0x3149e71d	2.9380722e-09
80	0x2e8ac7af	6.3109844e-11
81	0xae7036a5	-5.4618216e-11
82	0x3a730473	0.00092703773
83	0xb0f5b77b	-1.7878244e-09
84	0x31066f4b	1.956283e-09
85	0x325720a0	1.2522065e-08
86	0xb0faa8e5	-1.8237897e-09
87	0xb1ee6858	-6.938574e-09
88	0xb05065bf	-7.581455e-10
89	0x3119103b	2.2273656e-09
90	0x3a89ceed	0.0010513939
91	0x30107e05	5.256598e-10
92	0xb1645084	-3.3224135e-09
93	0x32476150	1.1605451e-08
94	0x317a18a3	3.6393792e-09
95	0xb0b4fe15	-1.3168938e-09
96	0x318a3390	4.0221906e-09
97	0xb0961ee1	-1.0922713e-09
98	0x3b0a3d31	0.0021093602
99	0x3033607f	6.525695e-10
100	0x30880230	9.895924e-10
101	0x31c21b18	5.6492233e-09
102	0xafd9c475	-3.961166e-10
103	0xb041b1eb	-7.046583e-10
104	0xb0472c08	-7.245835e-10
105	0x31aec2cd	5.086213e-09
106	0x3b2f776d	0.0026774064
107	0xb1765371	-3.5845142e-09
108	0xb017e734	-5.526204e-10
109	0x3262796c	1.31825395e-08
110	0x30969ec1	1.0959057e-09
111	0xb0b297f7	-1.2994396e-09
112	0x309a00b9	1.120518e-09
113	0x315963cd	3.1634386e-09
114	0x3b09c989	0.0021024665
115	0x312671fd	2.4220974e-09
116	0xb0bb3e19	-1.362369e-09
117	0x32515075	1.2183695e-08
118	0x309e8095	1.1532558e-09
119	0xb09a6e38	-1.1236301e-09
120	0xb11f4eac	-2.3182265e-09
121	0xb10a7e67	-2.0153494e-09
122	0x3a898e23	0.001049463
123	0xb16726f4	-3.3637066e-09
124	0xb01bbef9	-5.666006e-10
125	0x31e0d3d8	6.543342e-09
126	0xb108d1a8	-1.990978e-09
127	0xb0b0d8e8	-1.2867334e-09

backbone1.1.block.1.fc2.bias f4 [16]
0	0x3ef41685	0.4767343
1	0x3f2f52dd	0.68485814
2	0x3e9f0210	0.3105626
3	0xbf950004	-1.164063
4	0xbf3c8548	-0.7364087
5	0x3fb18635	1.3869082
6	0xbeb597b8	-0.35467315
7	0xbeea5d13	-0.45774135
8	0x3f0e0d0c	0.5548866
9	0xbea57e24	-0.323228
10	0x3f0e2866	0.55530393
11	0xbe93e924	-0.2888881
12	0xbee2ac21	-0.4427195
13	0xbd922657	-0.07136219
14	0x3e14331c	0.14472622
15	0xbeb9686a	-0.36212474

backbone1.1.block.2.0.weight f4 [16, 16, 1, 1]
0	0xc00172ba	-2.0226274
1	0x3e2d7449	0.1693889
2	0x3d3448df	0.044014808
3	0xbedfeb39	-0.43734148
4	0xbea15fe3	-0.31518468
5	0xbf20bdef	-0.62789816
6	0xbcb9ffd8	-0.022705004
7	0x3e79b02b	0.24383609
8	0xbe2c275b	-0.16811888
9	0x3e886bbb	0.26644692
10	0x3ce31452	0.02771965
11	0xbee8c2a9	-0.45461014
12	0x3efc32d2	0.49257523
13	0x3ec1d522	0.3785792
14	0xbdf319dc	-0.11870167
15	0xbde5e69d	-0.112256266
16	0x3f40ac45	0.7526286
17	0x400a098e	2.1568332
18	0xbdb862f1	-0.090032466
19	0xbebbcdd3	-0.3668047
20	0xbf469fb3	-0.7758743
21	0x3f0d8256	0.55277
22	0x3f99b7d6	1.2009227
23	0x3de844ce	0.113412485
24	0xbd06e115	-0.0329295
25	0xbe2f696b	-0.17130058
26	0x3d54d16d	0.051957536
27	0xbf0ccadd	-0.54997045
28	0x3f9d050b	1.2267164
29	0xbe90ad55	-0.28257242
30	0xbdbd90e4	-0.09256151
31	0x3f01f40e	0.5076302
32	0x3d9600d0	0.07324374
33	0x3d0e4177	0.0347304
34	0xbe08ecb2	-0.13371542
35	0x3cc6c555	0.024264017
36	0xbd383cb3	-0.044979762
37	0xbdbb9510	-0.09159291
38	0x3d3af296	0.045641504
39	0xbd28b19b	-0.041185003
40	0xbd08a72d	-0.033362556
41	0xbe405c01	-0.18785097
42	0x407c0f08	3.9384174
43	0x3d86cbb4	0.06581822
44	0xbc847589	-0.016169326
45	0x3ace8a46	0.0015757761
46	0x3d2a7289	0.041613135
47	0x3cb03279	0.021508442
48	0x3e7ed107	0.24884425
49	0xbf9c8f87	-1.2231301
50	0xbd1357a8	-0.035972267
51	0xbec2f23c	-0.38075435
52	0xbff6efcc	-1.929193
53	0x3fa739b1	1.3064481
54	0x3dc58eb4	0.09646359
55	0x3dda373c	0.10655066
56	0x3f5c465a	0.8604485
57	0xbf260f19	-0.6486679
58	0xbd52a70b	-0.051428836
59	0x3edbe52a	0.42948276
60	0x3ead0f1f	0.338006
61	0xbfa0d2fa	-1.2564385
62	0x3d6bbe6b	0.057554644
63	0xbc9136b2	-0.017726276
64	0x3e4e9816	0.20175204
65	0xbe79a292	-0.24378422
66	0x40264f6d	2.5985978
67	0x3f7d321a	0.98904574
68	0xbe126fc4	-0.14300448
69	0xbf201da4	-0.6254523
70	0xbe971583	-0.295086
71	0xbf95f1ba	-1.1714394
72	0x3de2b8af	0.11070382
73	0xbd697781	-0.056998733
74	0x3dbc6e5d	0.092007376
75	0xbd3cd0b7	-0.046097483
76	0x3e64ff7d	0.22363086
77	0x3e4c4e5d	0.19951768
78	0x3cdb8dd1	0.026801022
79	0xbf0d13d4	-0.5510838
80	0xbf995b29	-1.1980945
81	0xbe6de9c3	-0.23233704
82	0x3d911f61	0.07086063
83	0x3ec8a059	0.39184836
84	0xbc8de101	-0.017319204
85	0x3ed9eb47	0.42562315
86	0x3fcf916a	1.6216252
87	0x3d996ab2	0.07491054
88	0xbf060b3d	-0.523609
89	0xbfa0ce89	-1.256303
90	0x3c92dc8a	0.017927427
91	0x3df99b12	0.121877804
92	0xbef1777c	-0.47161472
93	0xbe662198	-0.22473752
94	0xbf00678d	-0.50158006
95	0x3e251612	0.161217
96	0xbb2e7028	-0.0026617143
97	0x3d27ca69	0.040964518
98	0x4017e3e0	2.3732834
99	0xbfa2b229	-1.271062
100	0x3d644ebc	0.05573915
101	0x3f0cdce2	0.5502454
102	0x3e9f1624	0.3107158
103	0x3f86d31d	1.0533177
104	0xbe5cd1fd	-0.21564479
105	0xbb856f22	-0.004072086
106	0x3e836f0c	0.2567066
107	0xbce4e7d2	-0.027942572
108	0xbe860fec	-0.26184022
109	0xbe9152bc	-0.28383434
110	0xbd4656ae	-0.048422508
111	0x3f41380d	0.7547615
112	0x3cd35780	0.02579856
113	0x3e072825	0.13198908
114	0x3dabf276	0.08395855
115	0x3f5e9e0d	0.86959916
116	0x3e2d1b14	0.1690486
117	0xbdf1f68d	-0.11814604
118	0xbeb5f844	-0.35540974
119	0x402cff03	2.7030647
120	0xbe09ec0f	-0.13468955
121	0x3dcebfef	0.10095202
122	0xbb33e50f	-0.0027449762
123	0x3d5dcd0c	0.054150626
124	0x3f91c27c	1.1387477
125	0xbf71abb7	-0.9440264
126	0x3e8d5247	0.27601835
127	0xbf5c5fa2	-0.86083424
128	0xbf864694	-1.0490289
129	0x3f8dbc40	1.1073074
130	0x3e14ccbe	0.14531228
131	0x3e9007ac	0.28130853
132	0xbcd7f8fd	-0.026363844
133	0x3fbdd309	1.4830028
134	0xbf03dd32	-0.5150939
135	0xbea5b04a	-0.3236106
136	0x3fa8ee5e	1.3197744
137	0x3eae2515	0.34012666
138	0x3d4bda53	0.049768757
139	0x3f2b892f	0.670062
140	0x3d946696	0.07246129
141	0xbec4f23f	-0.3846607
142	0xbecc2461	-0.39871505
143	0xbe651964	-0.22372967
144	0x3e993eb1	0.29930642
145	0xbbad54ed	-0.005289665
146	0x3ddd5426	0.10807066
147	0x3e821acc	0.2541107
148	0xbeddc3ba	-0.4331339
149	0x3ecd965b	0.40153775
150	0x3f1763f7	0.5913691
151	0x3f9c3a11	1.220522
152	0x3f889972	1.0671828
153	0xbe9b4bcf	-0.30331275
154	0xbdb979ca	-0.090564325
155	0x3d5d72f4	0.054064706
156	0xbfabf873	-1.3435196
157	0x400ce838	2.2016735
158	0x3b877cfd	0.004134773
159	0xbed7a1ab	-0.4211553
160	0x3dd92aa2	0.10603835
161	0x3f66b72a	0.90123236
162	0xbcae5b14	-0.021283664
163	0x3e2ad9ba	0.16684619
164	0xbf21e046	-0.6323284
165	0xbe9e024f	-0.30861136
166	0xbe9005f3	-0.2812954
167	0xbcf91f24	-0.030410357
168	0xbf816fd9	-1.0112258
169	0xbe66a978	-0.22525585
170	0xbd28cc14	-0.04121025
171	0x40498ca6	3.1492095
172	0xbeb03c48	-0.3442099
173	0xbc8c8ea4	-0.01715786
174	0x3f264131	0.64943224
175	0xbe82d56e	-0.2555346
176	0xbe84d955	-0.2594706
177	0x3f5f94a3	0.87336177
178	0x3d146839	0.036232207
179	0x3e87054e	0.26371235
180	0xbfe47cd8	-1.7850599
181	0x3fef70d2	1.8706305
182	0xbf7339c6	-0.9501003
183	0xbde08314	-0.10962501
184	0xbfe93045	-1.8217856
185	0x3e9ac5af	0.30228946
186	0x3d933aa3	0.071889184
187	0xbf2c2cc8	-0.6725583
188	0xbf852805	-1.0402838
189	0x3e6f8801	0.23391725
190	0x3ed157bc	0.4088725
191	0xbe6a9ad7	-0.22910629
192	0x3c1c5e9e	0.009544043
193	0xbfa8c23e	-1.3184278
194	0xbca57c8c	-0.02020099
195	0xbdbdf9bd	-0.092761494
196	0xbf6054e1	-0.87629515
197	0x3fc55e5e	1.5419424
198	0x3f14e94d	0.5816849
199	0x3dda642a	0.10663636
200	0xbf55f454	-0.8357594
201	0x3f8a9194	1.0825677
202	0x3d9e51bd	0.07730434
203	0x3f1d728f	0.6150293
204	0x3f563047	0.83667415
205	0x3f10dba8	0.5658517
206	0xbeb45233	-0.35218963
207	0x3ef9674b	0.4871162
208	0xbe8dad93	-0.2767149
209	0x3d9f23d0	0.077705026
210	0x3b6106eb	0.0034336399
211	0xbf41d050	-0.75708485
212	0xbd67401e	-0.05645763
213	0xbe0ce4a9	-0.13759102
214	0xbf68c40e	-0.90924156
215	0x3f02ffc6	0.5117153
216	0x3e963160	0.29334545
217	0xbe14d769	-0.14535297
218	0x3d444d7c	0.047925457
219	0x3e425ce0	0.18980742
220	0xbe9750fd	-0.29553977
221	0xbc1886a1	-0.009309442
222	0x3e887f1f	0.26659486
223	0x4010a5f5	2.2601292
224	0x3e429dbf	0.19005488
225	0x3d17e078	0.037079304
226	0x3ba426e2	0.005009518
227	0x3db31fe0	0.08746314
228	0xbe891c54	-0.26779425
229	0xbc601c0a	-0.01367856
230	0x3fa6e582	1.303879
231	0x3e76d42c	0.24104375
232	0xbd7222a7	-0.05911508
233	0x4008a352	2.1349683
234	0x3d0d4104	0.03448583
235	0xbab95e0c	-0.0014142408
236	0xbef4221a	-0.47682267
237	0xbed8ce37	-0.4234483
238	0xbe31cebf	-0.17364024
239	0xbd1735d2	-0.03691656
240	0x3df11e8d	0.11773405
241	0x3db8f0e5	0.09030322
242	0xbcfb09ff	-0.030644415
243	0x3b0b21c7	0.002122985
244	0xbd3a53b1	-0.04548997
245	0xbef00b98	-0.46883845
246	0xbdef07da	-0.116714194
247	0x3d81f1d6	0.06344955
248	0xbe962f20	-0.2933283
249	0xbd80c3d5	-0.06287352
250	0xbc4dabb7	-0.012553147
251	0x3df4c49d	0.119515635
252	0xbe4fd155	-0.20294698
253	0xbd0697b6	-0.032859527
254	0xc041b7b0	-3.0268364
255	0x3ce24b15	0.027623693

backbone1.1.block.2.1.weight f4 [16]
0	0x3f9beb58	1.2181196
1	0x3fc175cb	1.5114073
2	0x3f2cb398	0.6746154
3	0x3fbb2859	1.4621688
4	0x3f1bf1e6	0.6091598
5	0x3fb8d12d	1.4438835
6	0x3f3f8278	0.74808455
7	0x3f6fe78a	0.93712676
8	0x3fbf630d	1.4952103
9	0x3fc237c8	1.5173273
10	0x3fadf4e1	1.3590356
11	0x3fb47395	1.4097773
12	0x3f9e67e8	1.237546
13	0x3f14879b	0.5801942
14	0x3fa6e177	1.3037556
15	0x3fdf5921	1.7449075

backbone1.1.block.2.1.bias f4 [16]
0	0xbbd5144f	-0.006502665
1	0x3b101f7c	0.0021991422
2	0xbcc9e85a	-0.024646927
3	0x3d3f593a	0.046715952
4	0x3c36ce9f	0.011157661
5	0x3b51f98c	0.003203961
6	0xbbcd63a1	-0.00626798
7	0xbbdba4ed	-0.0067030103
8	0xbc7e90ac	-0.015537422
9	0xbd046710	-0.03232485
10	0x3cd1de08	0.025618568
11	0x3ca2d8e9	0.019878821
12	0xbbc0a27b	-0.005878744
13	0xb882afd0	-6.231631e-05
14	0xbc116881	-0.008875013
15	0x3caaab27	0.020833565

backbone1.1.block.2.1.running_mean f4 [16]
0	0xbff4106b	-1.906751
1	0x408caf77	4.396419
2	0x403bd93e	2.9351344
3	0x3fd932d0	1.6968632
4	0x3ea27984	0.31733334
5	0xbe60f3e2	-0.21968034
6	0x4084ded9	4.152203
7	0x3eaeaecd	0.34117737
8	0x40a1c707	5.0555453
9	0x40177c58	2.3669643
10	0xbe88d431	-0.2672439
11	0x40054eb7	2.0829294
12	0x3ff08d57	1.8793133
13	0x3fd23d58	1.6424971
14	0x3f0a6795	0.54064304
15	0xbfe40d19	-1.7816497

backbone1.1.block.2.1.running_var f4 [16]
0	0x3e0e0a8b	0.1387121
1	0x3f6bfde0	0.9218426
2	0x3f1defc8	0.61694
3	0x3f6003f4	0.8750603
4	0x3e6be361	0.23035957
5	0x3ef952f8	0.48696113
6	0x3e7cb06e	0.24676678
7	0x3e9b1fe1	0.3029776
8	0x3fd872f1	1.6910077
9	0x3f3fa2a1	0.74857527
10	0x3fcc3c16	1.5955837
11	0x3f83bf7d	1.0292813
12	0x3ec0064a	0.37504798
13	0x3dd82e20	0.10555673
14	0x3ed44f87	0.41466925
15	0x3f0666a0	0.52500343

backbone1.2.block.0.0.weight f4 [72, 16, 1, 1]
0	0x3eecf731	0.46282342
1	0xbeda2fd3	-0.42614612
2	0x3da49692	0.080365315
3	0xbea6f661	-0.32609847
4	0x3e0997af	0.13436769
5	0xbf65aacc	-0.8971374
6	0xbe3e515c	-0.18585724
7	0x3dcbfdf1	0.09960545
8	0x3e66238f	0.22474502
9	0xbe7455d5	-0.23860867
10	0xbe06c619	-0.13161506
11	0x3d919e7d	0.07110307
12	0x3f2f42b9	0.68461186
13	0x3e2d2c1e	0.1691136
14	0x3f870f47	1.0551537
15	0xbe46a715	-0.19399674
16	0xbd00691c	-0.03135024
17	0xbc2ea12f	-0.010658546
18	0x3f56c6f6	0.8389734
19	0x3e3d0db5	0.1846226
20	0x3ce2e999	0.027699279
21	0xbe954a60	-0.29158306
22	0xbd9cffc0	-0.07665968
23	0xbd8022c8	-0.06256634
24	0x3db32cab	0.08748754
25	0xbf1679b9	-0.58779484
26	0x3e09329d	0.13398214
27	0x3da42d94	0.08016506
28	0x3d1b7625	0.03795447
29	0xbe972625	-0.2952129
30	0xbe8faf02	-0.28063208
31	0xbef17045	-0.47155967
32	0xbe571cc7	-0.21007071
33	0xbf693773	-0.91100234
34	0x3b997f6c	0.0046843793
35	0xbeefc1ef	-0.46827647
36	0xbe6a02cc	-0.2285263
37	0x3d303c42	0.043026216
38	0x3e21aa78	0.15787685
39	0xbf4c92ec	-0.79911685
40	0xbdcdb20a	-0.10043724
41	0x3f94d282	1.1626742
42	0x3e4ce49a	0.2000908
43	0x3f90cb08	1.131196
44	0xbf7c3eb6	-0.9853319
45	0x3eae9f10	0.3410573
46	0x3ef4ba08	0.4779818
47	0xbd0c0da4	-0.034192696
48	0x3d1a01d7	0.03759941
49	0x3f5a727d	0.85330945
50	0x3d09f1d4	0.03367789
51	0xbe667b28	-0.22507918
52	0xbd879770	-0.06620681
53	0xb9e20740	-0.0004311148
54	0x3d7adfcb	0.06124858
55	0x3e103632	0.14083174
56	0x3ebb77a6	0.36614722
57	0xbde2a45a	-0.11066504
58	0x3edf3ae3	0.43599615
59	0x3df9047d	0.12159059
60	0xbed040fd	-0.40674582
61	0x3c96779d	0.018367583
62	0xbd9dbb28	-0.07701713
63	0xbcbdd9dd	-0.023175174
64	0xbda96a5d	-0.0827224
65	0xbce96764	-0.028491683
66	0xbc94496d	-0.018101418
67	0x3c9029d6	0.017598074
68	0x3f0d4dff	0.5519714
69	0x3d1f799d	0.03893434
70	0xbee883c0	-0.45413017
71	0xbfaab0fa	-1.3335259
72	0x3dec6437	0.11542552
73	0xbf08ef1b	-0.53489846
74	0xbd6be001	-0.057586674
75	0x3c5a56b6	0.013326338
76	0x3c4cf6ab	0.012509982
77	0xbee37183	-0.4442254
78	0xbd894bdf	-0.067039244
79	0xbd7028a8	-0.058632523
80	0x3eaa4fb9	0.3326395
81	0xbdb8be23	-0.09020641
82	0x3d8609ae	0.06544815
83	0x3db8c89c	0.09022638
84	0x3f18cb65	0.59685355
85	0xbeec5d06	-0.4616472
86	0xbf0bf38d	-0.54668504
87	0xbc4f1771	-0.012639866
88	0xbe991fdf	-0.29907128
89	0x3ea177e1	0.31536773
90	0x3de9a1b2	0.11407794
91	0xbf800ddc	-1.000423
92	0xbf24c514	-0.6436322
93	0x3ed04925	0.40680805
94	0x3e367a69	0.17820133
95	0x3e17e7d5	0.1483453
96	0x3f16fce2	0.5897962
97	0x3e0ed6e9	0.13949169
98	0x3c9fc4ec	0.01950308
99	0x3e94a683	0.29033288
100	0xbe44637e	-0.19178578
101	0x3fbefcc0	1.4920883
102	0x3dfd9e70	0.12383735
103	0xbe38b05f	-0.1803603
104	0x3df4b0bf	0.11947774
105	0x3da57589	0.08079059
106	0x3c04a0f5	0.008095016
107	0xbc935349	-0.01798405
108	0xbed985fd	-0.42485037
109	0xbd91d72f	-0.07121121
110	0xbf9921b1	-1.1963407
111	0x3f1f223f	0.6216163
112	0x3d753cf7	0.059872594
113	0x3e00829a	0.1254982
114	0x3f440396	0.7656797
115	0x3eb96bd1	0.3621507
116	0xbcf934c3	-0.030420667
117	0xbe762f4d	-0.24041481
118	0x3d7de36a	0.061984457
119	0x3f3cb545	0.73714095
120	0x3dee71cc	0.11642799
121	0xbf5d8ea6	-0.8654579
122	0xbc4e26f6	-0.012582531
123	0xbd07b069	-0.033127222
124	0x3c80e1d8	0.01573269
125	0x3bae5e36	0.0053212894
126	0xbe1b7d8b	-0.1518461
127	0xbed82de0	-0.422225
128	0xbecf076b	-0.40435347
129	0xbe2b75f7	-0.16744219
130	0x3db042de	0.08606504
131	0xbe47584b	-0.19467275
132	0xbdb79e73	-0.08965769
133	0x3e1da898	0.15396345
134	0x3e3027e7	0.17202722
135	0xbd51336b	-0.051074427
136	0x3e8c047c	0.2734717
137	0xbe0e7b93	-0.13914327
138	0xbe051879	-0.12997617
139	0x3f79cbee	0.97576797
140	0x3ec1f6c0	0.37883568
141	0x3dc611c5	0.09671358
142	0xbe88d734	-0.26726687
143	0xbeb6c1a5	-0.35694614
144	0x3fd444a4	1.6583447
145	0xbf4be819	-0.7965103
146	0x3c79d723	0.0152490465
147	0xbeab28fa	-0.334297
148	0xbd91fe52	-0.07128586
149	0x3e6eba4b	0.23313253
150	0xbda5cac6	-0.080953166
151	0x3cfc217b	0.030777683
152	0x3f9056d5	1.1276499
153	0xbe8e4bbe	-0.27792162
154	0xbeb539ab	-0.3539556
155	0x3d222e2e	0.03959482
156	0x3ec7e864	0.39044487
157	0x3e7ac58d	0.24489422
158	0x3f524bc9	0.8214689
159	0x3e248bcb	0.16068952
160	0xbd6c918b	-0.057755988
161	0xbccc8245	-0.024964461
162	0x3d5f13c8	0.054462224
163	0xbec3bf8a	-0.3823207
164	0x3df971b2	0.12179889
165	0xbf53ed95	-0.82784396
166	0xbe12fc10	-0.14353967
167	0xbc299da4	-0.010352526
168	0x3ebfd9ab	0.37470755
169	0xbdddd7e8	-0.108321965
170	0xbed53481	-0.4164162
171	0xbd255ae4	-0.040369883
172	0x3f31dfe8	0.6948228
173	0xbd9ec15c	-0.07751724
174	0x3f888f07	1.0668648
175	0x3fd215e8	1.6412935
176	0xbe64502a	-0.22296205
177	0xbe87eb7c	-0.26546848
178	0x3d7c5751	0.06160671
179	0xbf14d2cc	-0.5813415
180	0x3e83855f	0.25687692
181	0x3eae4741	0.34038737
182	0xbec27f9c	-0.37987983
183	0x3f09e64d	0.53867036
184	0x3e22f0ba	0.15912142
185	0x3e9fc247	0.3120291
186	0x3ed0c1f3	0.40772972
187	0xbeffe20a	-0.49977142
188	0xbdd0854c	-0.10181674
189	0xbedab166	-0.4271347
190	0x3eb9b5bd	0.36271468
191	0xbef789d6	-0.48347348
192	0xbe080dff	-0.13286589
193	0x3e08db86	0.13364992
194	0x3f8d9058	1.1059675
195	0x3dde96a3	0.108685754
196	0xbf86c1c3	-1.0527881
197	0x3e8fb8d0	0.28070688
198	0xbfc312cb	-1.524011
199	0xbe534d71	-0.2063501
200	0xbd90ab2d	-0.07063899
201	0x3ddb103f	0.10696458
202	0x3b2d6c52	0.002646227
203	0xbb01c97c	-0.0019803932
204	0xbe290625	-0.1650625
205	0xbdd4c0ea	-0.10388358
206	0xbeb1e952	-0.34748322
207	0xbb9ac947	-0.004723701
208	0xbea8b6b4	-0.3295189
209	0x3d1e201d	0.038604844
210	0x3c9ca5f5	0.019122103
211	0x3f5a756a	0.8533541
212	0xbd9e2533	-0.07721939
213	0x3d8c936a	0.068640545
214	0x3d131f08	0.035918266
215	0x3f6b6880	0.9195633
216	0x3e58ce88	0.21172535
217	0xc0052636	-2.0804572
218	0xbdd3e849	-0.10347039
219	0xbdc9d13e	-0.09854363
220	0xbf1c6494	-0.6109097
221	0xbd3d8cf0	-0.046276987
222	0x3e5e160f	0.21688102
223	0xbe850f63	-0.25988302
224	0x3daea33a	0.08527227
225	0x3e0f8ff5	0.14019759
226	0xbc93b522	-0.018030707
227	0xbf45f7d1	-0.7733126
228	0x3ef9c60e	0.48783916
229	0x3cbc918e	0.023018625
230	0xbf11d0a7	-0.56959003
231	0x3ea3953a	0.31949788
232	0x3cf5707c	0.029960863
233	0x3f22e371	0.636283
234	0x3f0c8a12	0.5489818
235	0xbef1d3e0	-0.4723196
236	0x3ee7e360	0.4529066
237	0xbef902e6	-0.48635024
238	0xbe860f57	-0.26183578
239	0xbf0e3fbb	-0.55565995
240	0xb1af95b8	-5.1101914e-09
241	0xaec31295	-8.870874e-11
242	0xb15442ec	-3.08881e-09
243	0xb0c0fd3c	-1.4041812e-09
244	0x2fb2c198	3.2515568e-10
245	0xb165d5dd	-3.3445453e-09
246	0x318b3b3b	4.052166e-09
247	0xb171dd7b	-3.5196013e-09
248	0x2f4d8623	1.8692296e-10
249	0x3092af0b	1.0672648e-09
250	0xb1b73a71	-5.332645e-09
251	0xb10a4a75	-2.0123967e-09
252	0x311c2514	2.2722064e-09
253	0xb0c733c8	-1.4493873e-09
254	0x31a4c708	4.7956554e-09
255	0x310d62e5	2.0574416e-09

backbone1.2.block.0.1.weight f4 [72]
0	0x3f60cf8e	0.87816703
1	0x3e95661a	0.2917946
2	0x3fa1d05e	1.2641714
3	0x3eb985e2	0.36234957
4	0x3e9ef70a	0.3104785
5	0x3e2d22ea	0.1690785
6	0x3f8589be	1.043266
7	0x3e5da8db	0.21646444
8	0x3e51e687	0.20498095
9	0x3f9721bf	1.1807173
10	0x3fb17a70	1.386549
11	0x3eadbc26	0.33932608
12	0x3f405a43	0.7513773
13	0x3fb40551	1.4064122
14	0x3e83666f	0.25664088
15	0x3024186c	5.969756e-10
16	0x3eac71fa	0.33680707
17	0x3e8d4abe	0.27596086
18	0x3f314bde	0.6925639
19	0x3deb6f00	0.11495781
20	0xb0646e90	-8.3103036e-10
21	0x3fda1a84	1.7039342
22	0x3f082410	0.53180027
23	0x3ea6174c	0.3243965
24	0x3f684fd1	0.9074679
25	0x3e5b21d4	0.21399623
26	0x3f8ec4be	1.1153791
27	0x3f8197d5	1.012446
28	0x3f953d79	1.1659385
29	0x3e108640	0.14113712
30	0x3f7fee6d	0.99973184
31	0x3fa8864a	1.3165982
32	0x3e6ba475	0.23011954
33	0x3ee18384	0.4404565
34	0x3fbce3bb	1.4756998
35	0x31eae5b0	6.8364088e-09
36	0x31ec8c78	6.8844734e-09
37	0x3f0fa1cf	0.56106275
38	0x321240bf	8.51304e-09
39	0x3e0e6a5b	0.13907759
40	0x3ef979c5	0.48725715
41	0x3fbc7463	1.4723018
42	0x3e0d0205	0.13770302
43	0x3f0204ed	0.50788766
44	0x3eb2e292	0.34938484
45	0x3ebdc79c	0.37066352
46	0x3e836cc2	0.25668913
47	0x3eaf71bc	0.3426646
48	0x3e7578e1	0.23971893
49	0x3faabeee	1.3339517
50	0x3f27ca1d	0.65542775
51	0x3fd58cf0	1.6683636
52	0x3fc58a6d	1.5432869
53	0x3e7526f6	0.23940644
54	0x3d6434a4	0.055714265
55	0x3f8df1bb	1.1089395
56	0x3e372c90	0.17888093
57	0x3f8a0c74	1.078505
58	0x3dd77bd0	0.10521662
59	0x3ed60d98	0.41807246
60	0x3fcb2b07	1.5872506
61	0x3e208df8	0.15679157
62	0x3f2eb1ac	0.68239856
63	0x3ea4c78e	0.32183498
64	0x3df57217	0.119846515
65	0x3f91ea53	1.1399635
66	0x3e6dc58d	0.23219891
67	0x3e7ac8a8	0.24490607
68	0x3e3a1f74	0.18176061
69	0x3e341ee0	0.17589903
70	0x3e209a74	0.15683919
71	0x3fbef698	1.4919004

backbone1.2.block.0.1.bias f4 [72]
0	0x3e78201f	0.24231003
1	0x3f508f22	0.81468403
2	0xbe819ea3	-0.25316343
3	0x3f7d713c	0.99000907
4	0x3f14467a	0.5792004
5	0x3f207554	0.6267903
6	0xbe98fc78	-0.29880118
7	0x3f2da793	0.6783382
8	0x3f22f1d4	0.6365025
9	0x3c0fabb9	0.008768969
10	0x3ba7085d	0.0050974325
11	0x3ea759af	0.3268561
12	0x3d513ff3	0.051086377
13	0xbdde00a1	-0.10839964
14	0x3f069012	0.52563584
15	0xb24db849	-1.1974472e-08
16	0x3ebc6fb2	0.36803967
17	0x3f6c16aa	0.9222208
18	0x3e342a0f	0.17594169
19	0x3f1d86ef	0.6153402
20	0xb2bc2475	-2.190266e-08
21	0xbe71df55	-0.2362035
22	0x3f02f264	0.5115111
23	0x3f6439b4	0.8915055
24	0x3e0aac34	0.13542253
25	0x3f50603d	0.8139685
26	0xbea7ae8d	-0.3275036
27	0xbe824bd1	-0.25448468
28	0xbedb6e97	-0.4285781
29	0x3f1d7388	0.6150441
30	0xbed5a1da	-0.41725045
31	0xbe476c9a	-0.19475022
32	0x3f3849e3	0.7198774
33	0x3e749c68	0.23887789
34	0x3e8db938	0.27680373
35	0xb12a10b1	-2.4747744e-09
36	0xb0ea1e98	-1.7034436e-09
37	0x3ee57ac6	0.4482023
38	0xb04e7561	-7.510917e-10
39	0x3f4390c8	0.76392794
40	0x3ef05157	0.46937057
41	0xbe70bae0	-0.23508787
42	0x3f852a38	1.0403509
43	0x3ef8d93d	0.4860324
44	0x3f3e856f	0.74422354
45	0x3f1b2bd3	0.60613745
46	0x3f591805	0.84802276
47	0x3f3fb58a	0.7488638
48	0x3f078876	0.529426
49	0x3e9e6046	0.30932826
50	0x3db9a3bd	0.09064434
51	0x3e9e4264	0.30910027
52	0xbec52934	-0.38507998
53	0x3f337e5c	0.70114684
54	0x3f356710	0.70860386
55	0xbe5ed7e1	-0.21762039
56	0x3f327630	0.6971159
57	0xbeb21109	-0.34778622
58	0x3f35b068	0.709723
59	0x3f128517	0.5723433
60	0xbeddc9e8	-0.43318105
61	0x3f5222e7	0.82084507
62	0x3d41115d	0.0471357
63	0x3edd861e	0.43266386
64	0x3f51cf2f	0.8195676
65	0xbeaaaff8	-0.33337379
66	0x3f23cfc3	0.63988894
67	0x3ef0ec93	0.47055492
68	0x3f2bc702	0.67100537
69	0x3f405604	0.7513125
70	0x3f1aa98f	0.60414976
71	0xbe406cf7	-0.18791567

backbone1.2.block.0.1.running_mean f4 [72]
0	0xbd1c5fbd	-0.03817724
1	0x3b68c3fc	0.0035517206
2	0xbcd123d0	-0.025529772
3	0x3b9954e4	0.004679309
4	0x3d247873	0.04015393
5	0x3b06eb4f	0.0020587032
6	0x3d13b3a8	0.036060005
7	0x3bc73384	0.006079139
8	0xbc2efe3d	-0.010680732
9	0xbd43e85e	-0.047829024
10	0xbb729d57	-0.0037020051
11	0xbd4514dd	-0.0481156
12	0xbc5044df	-0.012711733
13	0x3db4530d	0.08804903
14	0xbd6ed2d5	-0.058306534
15	0xaf5371f3	-1.9230821e-10
16	0x3d98c7a9	0.07459957
17	0xbb8e2b3e	-0.004338651
18	0xbba13fc9	-0.004920934
19	0x3d3c39a2	0.0459534
20	0x305e53ab	8.088203e-10
21	0x3cd5d1b0	0.026100963
22	0xbc37d60a	-0.0112204645
23	0xbd83098d	-0.06398306
24	0x3ce2c9b9	0.02768408
25	0xbc85221c	-0.016251616
26	0x3d82f8e2	0.06395127
27	0x3b1108d8	0.0022130515
28	0x3ce4db39	0.027936565
29	0x3c8cb1c2	0.017174605
30	0x3c8e9023	0.017402714
31	0xbd159fd1	-0.036529366
32	0x3d05de87	0.03268292
33	0x3ccbfb3b	0.02490007
34	0xbd17b7f1	-0.037040655
35	0x2fce1d8f	3.7492184e-10
36	0xaf909add	-2.6303484e-10
37	0x3d5b40c4	0.053528562
38	0xaecd07dd	-9.3237175e-11
39	0x3c0b2c0b	0.008494387
40	0xbb4d3028	-0.003130922
41	0x3d900ce9	0.070337124
42	0xbceb60c0	-0.028732657
43	0x3cc1f163	0.023674672
44	0xbc205e86	-0.009788161
45	0x3c4b0c4b	0.012393068
46	0xbc61d304	-0.01378322
47	0x3da4ec36	0.08052866
48	0x3c004257	0.007828317
49	0xbbb400c9	-0.0054932577
50	0xbd4cfad3	-0.050043892
51	0xbdfba200	-0.122867584
52	0x3c970031	0.018432708
53	0xbd29eeb1	-0.0414874
54	0xbd379d69	-0.044827852
55	0x3d279323	0.040911805
56	0x3d1e2548	0.038609773
57	0x3c87f7d1	0.01659766
58	0xbb648881	-0.0034871402
59	0xbce78371	-0.028260918
60	0x3d8c6b84	0.068564445
61	0x3d258006	0.040405296
62	0x3ce0ec2f	0.027456371
63	0xbc590569	-0.013245919
64	0xbd28a397	-0.041171636
65	0x3d7a2df4	0.06107898
66	0xbce2812d	-0.027649486
67	0x386d0bf4	5.6516335e-05
68	0xbc851fe3	-0.016250556
69	0xbcd81ce3	-0.026380962
70	0xbccfa286	-0.025346052
71	0xbd1ea0a4	-0.038727418

backbone1.2.block.0.1.running_var f4 [72]
0	0x41212e9a	10.073877
1	0x4033023d	2.7970116
2	0x41297b74	10.59264
3	0x408b80de	4.359481
4	0x3fa1593a	1.2605355
5	0x3f8a94c0	1.0826645
6	0x41985682	19.04224
7	0x40a6b7c0	5.2099304
8	0x3fb7e61d	1.43671
9	0x413f7a54	11.967365
10	0x4154c645	13.298406
11	0x40afd3a3	5.4945846
12	0x4046a717	3.1039484
13	0x41a13795	20.15214
14	0x40d5e9fa	6.6848116
15	0x25f18392	4.189599e-16
16	0x418ce873	17.6135
17	0x413ce99e	11.807035
18	0x409dd54a	4.9322863
19	0x401ebe81	2.4803774
20	0x27161635	2.082872e-15
21	0x42235d6a	40.841225
22	0x40a24464	5.0708485
23	0x3ff8959d	1.9420658
24	0x4033f753	2.8119705
25	0x3fab2ed1	1.3373662
26	0x414fb98f	12.982802
27	0x4147aa82	12.479128
28	0x41054ee6	8.331762
29	0x40065082	2.0986638
30	0x416ca8bb	14.791194
31	0x41cc2718	25.519089
32	0x400dfca5	2.2185452
33	0x402c3bb6	2.6911445
34	0x40a62c4f	5.192909
35	0x2526adb5	1.4457059e-16
36	0x252b5a53	1.4862489e-16
37	0x404b109f	3.1728895
38	0x249ec1c7	6.884985e-17
39	0x404ac485	3.1682446
40	0x4046fbb8	3.1091137
41	0x4188bd70	17.092499
42	0x3fe3ed01	1.7806703
43	0x403634ee	2.8469806
44	0x40e263e6	7.0746946
45	0x3f7aaabd	0.97916776
46	0x41211e89	10.069955
47	0x40795f55	3.8964436
48	0x407fc673	3.9964874
49	0x411a6dfc	9.651852
50	0x40607995	3.5074208
51	0x424fbdbd	51.93529
52	0x41b49250	22.571442
53	0x4041c485	3.0276196
54	0x40072ef6	2.1122413
55	0x4126837c	10.407101
56	0x404b51d2	3.176869
57	0x4107baed	8.483136
58	0x3ff0c72c	1.8810782
59	0x409cc409	4.89893
60	0x41f90196	31.125774
61	0x41126972	9.1507435
62	0x3fec2df7	1.8451527
63	0x402ca0b1	2.6973078
64	0x4031ece1	2.780083
65	0x41b514ab	22.635092
66	0x3fbb5f26	1.4638412
67	0x3f5ed684	0.87046075
68	0x40a81b0e	5.2533026
69	0x408da16d	4.4259553
70	0x3fd4b51a	1.6617768
71	0x416ed545	14.927068

backbone1.2.block.1.0.weight f4 [72, 1, 3, 3]
0	0x3c724eb7	0.014789275
1	0xbd2aec15	-0.04172905
2	0xbdb7ac04	-0.08968356
3	0xbe6604c8	-0.22462761
4	0xbedfa303	-0.43679056
5	0xbeb99467	-0.36246035
6	0xbec9f065	-0.3944122
7	0xbf0244e3	-0.5088636
8	0xbe325a19	-0.17417182
9	0x3e3930ce	0.18085024
10	0x3dce863b	0.10084196
11	0xbf10f7b8	-0.5662799
12	0x3e808886	0.2510416
13	0x3f811dae	1.0087183
14	0x3ef8ea5f	0.4861631
15	0xbf8613d8	-1.0474806
16	0xbf029b07	-0.510178
17	0x3d71b628	0.05901161
18	0x3cc09c43	0.023512011
19	0xbe28eaaa	-0.16495767
20	0xbdc8637a	-0.09784599
21	0xbea6a8e4	-0.32550728
22	0xbf24a469	-0.6431337
23	0xbf0d618e	-0.5522698
24	0xbeb63bf8	-0.35592628
25	0xbf14143f	-0.57843393
26	0xbea03dc5	-0.31297126
27	0xbee8ded0	-0.45482492
28	0xbf212453	-0.6294605
29	0xbeee0453	-0.46487674
30	0x3ddad38e	0.10684882
31	0x3d15ddbf	0.036588427
32	0x3ded4222	0.115848795
33	0xbd2bdebc	-0.041960463
34	0x3a5d6a0f	0.0008446285
35	0x3c31350b	0.010815869
36	0xbd7f0484	-0.062260166
37	0xbf20561a	-0.6263138
38	0x3f2e8d70	0.68184566
39	0x3ec157dc	0.37762344
40	0x3fafb130	1.3725948
41	0xbfeff60f	-1.8746966
42	0xbe87adee	-0.26499885
43	0xbf82e56d	-1.0226265
44	0x3f947b80	1.1600189
45	0x3cfb7e35	0.030699829
46	0xbd34ed67	-0.044171717
47	0xbe6184ab	-0.22023265
48	0x3e4601b7	0.19336592
49	0x3e14603b	0.14489834
50	0xbf796e16	-0.974336
51	0x3e58bbcc	0.21165389
52	0x3e82a38f	0.2551541
53	0xbf0cd56a	-0.55013144
54	0xbc977eb7	-0.01849304
55	0xbe570aee	-0.21000263
56	0xbd4557fd	-0.048179615
57	0xbe521b44	-0.20518214
58	0xbf10f74e	-0.56627357
59	0xbe7c1ff9	-0.24621572
60	0xbe6947d8	-0.22781312
61	0xbeeb26d1	-0.45928052
62	0xbe527a06	-0.20554361
63	0xbe741e7c	-0.23839754
64	0x3dff5746	0.12467818
65	0x3e7975b1	0.24361302
66	0x3e02ec41	0.12785436
67	0xbf655c2a	-0.89593756
68	0x3f4c4e9c	0.7980745
69	0x3ec9bcfb	0.39401993
70	0xbf644d5d	-0.89180547
71	0x3eb7bd61	0.35886672
72	0x3dbccd17	0.09218805
73	0xbd9770f9	-0.07394595
74	0xbdfc0427	-0.123054795
75	0x3f107032	0.56421196
76	0xbf2ba5d4	-0.6704991
77	0x3de773da	0.11301394
78	0x3f193599	0.5984741
79	0xbf3fa877	-0.7486643
80	0x3e3ebd70	0.18626952
81	0xbdb439c4	-0.088000804
82	0xbda3cd3f	-0.07998132
83	0xbe1ba361	-0.15199043
84	0xbe89c5fe	-0.2690887
85	0xbf033ad4	-0.5126164
86	0xbefff894	-0.49994338
87	0xbe4175fc	-0.18892664
88	0xbecd5574	-0.40104258
89	0xbe9f03c6	-0.31057566
90	0xbbe5f390	-0.0070175603
91	0xbd442200	-0.047883987
92	0xbdb2ba1f	-0.08726906
93	0xbe960585	-0.29301086
94	0xbed033b2	-0.4066444
95	0xbe99342c	-0.29922616
96	0xbe922507	-0.28543875
97	0xbecfd887	-0.40594885
98	0xbea09e2e	-0.31370682
99	0xbe12022f	-0.14258645
100	0x3e54ebf5	0.20793135
101	0xbd7b46d9	-0.061346862
102	0x3e7aee09	0.24504866
103	0x3f15f352	0.585744
104	0xbf9f5ec3	-1.2450794
105	0x3e43bf82	0.19116023
106	0x3eb32ce7	0.34995195
107	0xbf87b15e	-1.0601003
108	0x3c1289ae	0.008943958
109	0x3dcfe882	0.10151769
110	0x3c2d027f	0.010559677
111	0x3dd2e2d5	0.10297171
112	0xbe86f296	-0.26356953
113	0xbefcdf6b	-0.49389204
114	0x3db98909	0.090593405
115	0xbecf0015	-0.4042975
116	0xbf0500eb	-0.51954526
117	0x3e2bee15	0.1679004
118	0x3e5efde0	0.21776533
119	0x3e18cb60	0.14921331
120	0x3e9d6199	0.30738524
121	0x3f16ec27	0.5895409
122	0x3f0e0f4e	0.55492103
123	0x3e3ae21d	0.18250318
124	0x3f0e4bd9	0.55584484
125	0x3f19bc61	0.6005307
126	0x3e47bdad	0.1950595
127	0x3e5f96c5	0.21834858
128	0x3ebea291	0.37233403
129	0x3df87fdc	0.12133762
130	0xc000dc99	-2.0134642
131	0x3e915a72	0.28389317
132	0x3e8a756d	0.27042714
133	0x3d302cd9	0.04301152
134	0x3ed999cc	0.4250015
135	0xb09f3859	-1.1584788e-09
136	0xb084df64	-9.667755e-10
137	0xb0b44557	-1.3116431e-09
138	0xb0427a90	-7.075096e-10
139	0xb0cdc8dc	-1.4972801e-09
140	0xb0a7ebd3	-1.2217874e-09
141	0xb0c4f948	-1.4331727e-09
142	0xb090d609	-1.0538211e-09
143	0xb0d607ad	-1.5572731e-09
144	0x3c09bc66	0.008406734
145	0x3e26a5d2	0.16274193
146	0x3b7701c4	0.0037690261
147	0x3e794cf0	0.24345756
148	0x3f531664	0.8245604
149	0x3f0ace79	0.542213
150	0x3e292767	0.16518937
151	0x3f2cc4cb	0.6748778
152	0x3f2537dc	0.6453836
153	0x3e07b806	0.13253793
154	0xbd084885	-0.033272285
155	0xbd9af2fd	-0.075658776
156	0xbe1b3b9e	-0.15159461
157	0xbf6594d7	-0.89680237
158	0xbf545ef7	-0.82957405
159	0xbc446a18	-0.011988185
160	0xbf061d3b	-0.5238835
161	0xbf105b29	-0.563891
162	0x3cdc81d9	0.026917385
163	0xbd06b3a6	-0.03288617
164	0x3db8c40d	0.09021769
165	0xbb7e98f4	-0.0038848491
166	0x3e8c85f1	0.2744594
167	0x3f1238f3	0.5711815
168	0x3cad3d94	0.021147527
169	0x3e878bc7	0.2647383
170	0x3f2c27ea	0.67248404
171	0x3e837cd0	0.25681162
172	0x3f288257	0.6582388
173	0xbf17866d	-0.5918949
174	0xbf24ff45	-0.6445201
175	0x3ecccc9d	0.39999858
176	0x3ff248e0	1.892849
177	0x3ef561a8	0.47926068
178	0xbfe63288	-1.7984171
179	0xbdae5efb	-0.0851421
180	0x31a50fdc	4.803935e-09
181	0x3208ddb7	7.966654e-09
182	0x320515b5	7.7465545e-09
183	0x3144b6a7	2.862558e-09
184	0x325535fb	1.24105055e-08
185	0x31c7de90	5.8169647e-09
186	0x315ce4c0	3.2144243e-09
187	0xb0362c9d	-6.6274614e-10
188	0x31b22a45	5.1852873e-09
189	0x3d641d9f	0.05569231
190	0x3e77e9f7	0.24210344
191	0x3df5100b	0.119659506
192	0x3e45cdfb	0.19316857
193	0x3f62756f	0.8846044
194	0x3f0d9085	0.55298644
195	0x3dd6f3fd	0.10495756
196	0x3f331d42	0.6996652
197	0x3ed886d3	0.42290363
198	0x3dcd0be1	0.10012031
199	0x3e397cc8	0.18114007
200	0x3d990cb2	0.074731246
201	0x3e9fe6b0	0.31230688
202	0x3f277b8d	0.654229
203	0x3eca7bf7	0.39547703
204	0x3e66d58d	0.225424
205	0x3ef776d5	0.4833285
206	0x3ead53c8	0.33852983
207	0x3cbc116a	0.022957522
208	0x3efb6e30	0.49107504
209	0x3f143e1d	0.5790728
210	0xbe701960	-0.2344718
211	0xc000d5f5	-2.013059
212	0xbfc7f29f	-1.5620917
213	0x3e440b0a	0.19144836
214	0x3fbbf3aa	1.4683735
215	0x3f9d2894	1.2278008
216	0xbc69d09d	-0.014270929
217	0xbcb3d508	-0.021952167
218	0xbd85ea1e	-0.06538795
219	0xbd29279b	-0.041297536
220	0xbe485adf	-0.19565915
221	0xbe57d7da	-0.21078435
222	0xbe0b91e4	-0.13629872
223	0xbebbf516	-0.36710423
224	0xbeaf0331	-0.34182122
225	0x3cd9c010	0.02658084
226	0xbeb772c5	-0.3582975
227	0x3e77d5f9	0.24202718
228	0xbdddd4de	-0.10831617
229	0x3faef600	1.3668823
230	0xbfc6c005	-1.552735
231	0x3c82f6e5	0.01598687
232	0xbf8a67e6	-1.0812957
233	0x3f6a7bf8	0.9159541
234	0xbdc01ac0	-0.09380102
235	0xbde0500e	-0.10952769
236	0xbcb82c5d	-0.022482092
237	0xbe59a7cb	-0.21255414
238	0xbef891cb	-0.4854873
239	0xbea6f8c3	-0.32611665
240	0xbdde18b3	-0.10844555
241	0xbeb1037c	-0.3457297
242	0xbea07082	-0.31335837
243	0xbe519b96	-0.20469508
244	0xbed766ef	-0.4207072
245	0xbe8703da	-0.26370126
246	0xbe52077a	-0.20510665
247	0xbf114181	-0.56740576
248	0xbeb1d489	-0.34732464
249	0x3c8f3d86	0.017485391
250	0x3cd6d128	0.02622278
251	0x3dc79689	0.09745509
252	0x3d76d143	0.06025816
253	0xbe1fedec	-0.15618104
254	0xbe25eb95	-0.16203149
255	0xbc481933	-0.012213039
